data/geyser-waiting-bw8.0-basegamma-lambda-exp(-8.0)/natparam-value-shift-400.0.npy (npy, 16128 bytes, 1 tensors)

array f8 [2000]
00000000: 8e50 bc8f 6dc6 acbf ae05 408e a1b3 aebf
00000010: e60d b7cf 4f5e b0bf db5f 929f 4671 b1bf
00000020: 53f5 44ce 4993 b2bf 9d02 8f74 efc4 b3bf
00000030: 99d1 12cb ce06 b5bf b67a ecbf 7f59 b6bf
00000040: 7400 ea82 9abd b7bf b081 2808 b733 b9bf
00000050: c75c e380 6cbc babf e92f 4bca 5058 bcbf
00000060: cece 44d2 f707 bebf 0261 fbf1 f2cb bfbf
00000070: 4a8b 1e1f 68d2 c0bf 6e87 d3e6 8cc9 c1bf
00000080: 43af 597a aacb c2bf feb3 e5bb 00d9 c3bf
00000090: a283 c859 ccf1 c4bf 9432 d15d 4616 c6bf
000000a0: 3b3e 17b8 a346 c7bf 94c1 61c5 1483 c8bf
000000b0: 9836 6ad1 c4cb c9bf 12ba 4395 d920 cbbf
000000c0: 1088 3ab2 7282 ccbf 1472 8a29 a9f0 cdbf
000000d0: 1850 56d1 8e6b cfbf cffa aae3 9679 d0bf
000000e0: c4e6 ddf0 c343 d1bf 9076 6f0f 4b14 d2bf
000000f0: b40f 210a 24eb d2bf 2307 ceae 41c8 d3bf
00000100: 3701 4886 91ab d4bf 3800 e98c fb94 d5bf
00000110: e9df 3dec 6184 d6bf af39 31b6 a079 d7bf
00000120: 7e8a 23a2 8d74 d8bf 2616 62cc f774 d9bf
00000130: 3933 7278 a77a dabf 7475 aad6 5d85 dbbf
00000140: f072 96cd d494 dcbf 4ca8 a4c7 bea8 ddbf
00000150: 0321 a085 c6c0 debf a70c 79f6 8edc dfbf
00000160: 7c1d 708a d97d e0bf 2fc0 9ce5 e20e e1bf
00000170: a526 34ef 28a1 e1bf 3d11 fcef 6c34 e2bf
00000180: f40d 1014 6cc8 e2bf 46ae 0e6c df5c e3bf
00000190: f9e5 adf2 7bf1 e3bf 1ba0 ef96 f285 e4bf
000001a0: 2d68 2c4b f019 e5bf 6353 2619 1ead e5bf
000001b0: dd23 523b 213f e6bf 9ee1 7f3b 9bcf e6bf
000001c0: 33e3 0617 2a5e e7bf 5187 9368 68ea e7bf
000001d0: c890 ae97 ed73 e8bf 2163 0f0e 4efa e8bf
000001e0: 751a c372 1b7d e9bf 7be1 2aeb e4fb e9bf
000001f0: 08c1 cb61 3776 eabf 83c0 e1d2 9deb eabf
00000200: 8255 9f9e a15b ebbf 540c f9e0 cac5 ebbf
00000210: f4ef d3ce a029 ecbf 37a9 6318 aa86 ecbf
00000220: 9890 7b50 6ddc ecbf 241f 8c58 712a edbf
00000230: fa4d fcd0 3d70 edbf 68a9 848d 5bad edbf
00000240: 091b 280d 55e1 edbf 35f5 5cf5 b60b eebf
00000250: c66d ef8f 102c eebf 5ccc 1d4b f441 eebf
00000260: 78f6 653b f84c eebf c3f2 739e b64c eebf
00000270: 9860 995e ce40 eebf 4e16 2f96 e328 eebf
00000280: 30b9 3b12 a004 eebf eece b4d3 b3d3 edbf
00000290: 751f ab8e d595 edbf 0096 af26 c34a edbf
000002a0: 4707 bb27 42f2 ecbf 1da7 e13a 208c ecbf
000002b0: a53f 1a96 3318 ecbf 16e0 6166 5b96 ebbf
000002c0: 4b3f 8633 8006 ebbf 060f e43c 9468 eabf
000002d0: 6481 6ace 93bc e9bf d29c 3a8d 8502 e9bf
000002e0: 2e90 3fbb 7a3a e8bf f302 2571 8f64 e7bf
000002f0: fc72 19ce ea80 e6bf 9cea d41c bf8f e5bf
00000300: 86d4 67ed 4991 e4bf 483a 6223 d485 e3bf
00000310: 1473 f1f7 b16d e2bf 8ce8 a0ef 4249 e1bf
00000320: 0856 7ac3 f118 e0bf b89a a47a 68ba ddbf
00000330: 507e 3e0e 162d dbbf a454 96da 028b d8bf
00000340: e07d 0528 5ad5 d5bf c892 2f3f 5b0d d3bf
00000350: 5846 40a0 5834 d0bf 202b 3842 6e97 cabf
00000360: 5008 4ae6 d9a9 c4bf e0cd 6f45 0246 bdbf
00000370: 40d3 385f 1e0c b1bf 00d9 5356 58b2 92bf
00000380: 0007 c26a 5947 9f3f 80a5 fd09 3a68 b43f
00000390: 70bf 21a1 c087 c03f 40dd 66cd 3be0 c63f
000003a0: 902c 4026 e739 cd3f 9859 c2ad 88c8 d13f
000003b0: a016 c943 01f1 d43f 9025 6ccb 7f14 d83f
000003c0: 30e8 c2dd 2631 db3f 5020 77f4 1a45 de3f
000003d0: d8d3 8814 42a7 e03f d883 caf9 c725 e23f
000003e0: 50af 0973 399d e33f 1068 7531 b50c e53f
000003f0: 3882 aa25 5f73 e63f 70dd fd51 61d0 e73f
00000400: c0e0 a696 ec22 e93f 9078 ae76 396a ea3f
00000410: 8084 8fd4 88a5 eb3f 2830 80a5 24d4 ec3f
00000420: 200d 689a 60f5 ed3f 680b 95bd 9a08 ef3f
00000430: 24aa 2802 9e06 f03f 1cd0 c669 5c81 f03f
00000440: 7460 73bb 48f4 f03f 70c7 b044 295f f13f
00000450: 2819 a7a7 cac1 f13f b856 6d00 001c f23f
00000460: c027 7a02 a36d f23f 503f 180e 94b6 f23f
00000470: 0438 c73d baf6 f23f c09b 7e6b 032e f33f
00000480: 14be d52d 645c f33f 5420 20cd d781 f33f
00000490: d404 9b30 609e f33f b4aa d5c3 05b2 f33f
000004a0: e034 8a54 d7bc f33f 3076 29e9 e9be f33f
000004b0: a89b 6790 58b8 f33f 38ef 222a 44a9 f33f
000004c0: 8c85 082a d391 f33f 5895 6454 3172 f33f
000004d0: 6061 9575 8f4a f33f 08df 9f14 231b f33f
000004e0: 60b2 6c21 26e4 f23f a879 3a9f d6a5 f23f
000004f0: e4cf d74b 7660 f23f aac0 3b44 4a14 f23f
00000500: 92a6 16a7 9ac1 f13f 348d f735 b268 f13f
00000510: 222e a3f5 dd09 f13f 2670 39ce 6ca5 f03f
00000520: 800d c52b af3b f03f d816 9d3f ed99 ef3f
00000530: b849 1009 2bb3 ee3f 2c50 4744 bdc3 ed3f
00000540: 982c bbad 49cc ec3f be43 8484 75cd eb3f
00000550: d014 52e8 e4c7 ea3f f08e b93f 3abc e93f
00000560: b647 b0a7 15ab e83f 5895 f66c 1495 e73f
00000570: ec12 1d90 d07a e63f 0672 bb54 e05c e53f
00000580: 26c7 56dc d53b e43f 7218 5dcd 3e18 e33f
00000590: 8eeb 8206 a4f2 e13f d320 b65e 89cb e03f
000005a0: c48a 7fe3 da46 df3f 26dc 29f3 92f5 dc3f
000005b0: ea72 7a68 22a4 da3f d849 39ac 6553 d83f
000005c0: 20c3 ab10 2e04 d63f 9ca2 c5e5 41b7 d33f
000005d0: 683f d4a3 5c6d d13f 20da 0d57 5e4e ce3f
000005e0: f069 1e34 c0ca c93f 1036 dc5f 1851 c53f
000005f0: 70cb c291 8de2 c03f 60dc 148d 6900 b93f
00000600: c0a2 8cd4 2456 b03f 007e 10d1 dc20 9f3f
00000610: 00c0 ec88 21f2 64bf 001f 059c fdee a1bf
00000620: c044 8338 f325 b1bf 801a 3bc9 6231 b9bf
00000630: 00b2 f32d 298c c0bf 8040 401a aa6c c4bf
00000640: e04b 6789 8239 c8bf 800a cfab 04f2 cbbf
00000650: 20d8 a821 8595 cfbf 00dd 50d5 ac91 d1bf
00000660: e0a7 c2f4 6b4d d3bf f06b 941f aafd d4bf
00000670: c04c dc5f 10a2 d6bf 70b1 9f22 463a d8bf
00000680: 9038 fcd0 f0c5 d9bf 109a 577a b344 dbbf
00000690: 607c 8f90 2eb6 dcbf 80b0 f7b6 ff19 debf
000006a0: 2069 c9a4 c16f dfbf 2030 bc0d 865b e0bf
000006b0: a08e 9af8 b9f7 e0bf 4064 da97 458c e1bf
000006c0: e02b 94a3 f018 e2bf e051 8faa 819d e2bf
000006d0: 607f 6f3f be19 e3bf 30c0 4e2f 6b8d e3bf
000006e0: b03c 5fc1 4cf8 e3bf 009e 1aff 265a e4bf
000006f0: 0032 7104 beb2 e4bf 404d 5857 d601 e5bf
00000700: b003 0646 3547 e5bf 905e 184b a182 e5bf
00000710: 80cd d776 e2b3 e5bf 90d4 b7dc c2da e5bf
00000720: b006 2e04 0ff7 e5bf 6022 ee5b 9608 e6bf
00000730: d004 93ae 2b0f e6bf 50c4 b697 a50a e6bf
00000740: 5005 79f8 defa e5bf b04c 716a b7df e5bf
00000750: a0e5 0bb0 13b9 e5bf f08f 5221 de86 e5bf
00000760: 400a 2714 0749 e5bf 5030 fc3e 85ff e4bf
00000770: f005 2315 56aa e4bf 906a cb1b 7e49 e4bf
00000780: f072 e436 09dd e3bf 9038 16ed 0a65 e3bf
00000790: 4050 1ea2 9ee1 e2bf 6005 e9c6 e752 e2bf
000007a0: 008b d3fe 11b9 e1bf f0c4 9639 5114 e1bf
000007b0: 309d 6ec1 e164 e0bf 8041 4e7a 1056 dfbf
000007c0: 4055 9d4b 23ce ddbf 20bd c55f a632 dcbf
000007d0: e08b ca4f 5484 dabf 40f2 b684 f7c3 d8bf
000007e0: 2028 acbe 69f2 d6bf c097 6183 9310 d5bf
000007f0: 10ca a974 6b1f d3bf b05c bb8f f51f d1bf
-0.056201385303354376 -0.05996422635508779 -0.0639390833012424 -0.06813470264239589 -0.0725599411570859 -0.07722374530477301 -0.08213512857293494 -0.08730314670217862
-0.09273687072891496 -0.09844535779166708 -0.10443761965449304 -0.11072258890925436 -0.11730908282771255 -0.12420576484453608 -0.13142110366342258 -0.13896332999052724
-0.14684039091241105 -0.15505990194961322 -0.16362909683178112 -0.17255477505604644 -0.18184324730690257 -0.19150027883325704 -0.2015310308965368 -0.21194000042255873
-0.2227309580094361 -0.23390688446387797 -0.24546990605870245 -0.2574212287253603 -0.2697610714163654 -0.28248859889377176 -0.29560185422109986 -0.30909769125729464
-0.32297170747189646 -0.3372181774211671 -0.3518299872443991 -0.3667985705586955 -0.38211384614820776 -0.39776415786068 -0.4137362171393764 -0.4300150486322629
-0.4465839393322275 -0.4634243917122418 -0.48051608132711027 -0.497836819358961 -0.5153625205866059 -0.5330671772590047 -0.5509228393504669 -0.5688996016693079
-0.5869655982828008 -0.605087004708772 -0.623228048308362 -0.6413510272950619 -0.6594163387519579 -0.6773825160222312 -0.6952062758074323 -0.7128425752735443
-0.7302446794265961 -0.7473642389779603 -0.7641513788735432 -0.7805547976123287 -0.7965218774268822 -0.8119988053431791 -0.8269307050777863 -0.8412617796693812
-0.8549354646772118 -0.8678945917130343 -0.8800815620047602 -0.8914385296205073 -0.9019075939109085 -0.9114310006561692 -0.919951351332599 -0.9274118198421037
-0.9337563759771409 -0.9389300148247118 -0.9428789912448614 -0.9455510584942988 -0.946895710003175 -0.9468644232543614 -0.9454109046592007 -0.9424913342742884
-0.93806460915747 -0.9320925841224985 -0.9245403086178913 -0.9153762584289211 -0.9045725608814131 -0.8921052122143213 -0.8779542857828245 -0.8621041297583385
-0.8445435530029298 -0.8252659978174683 -0.8042696982920856 -0.7815578230264697 -0.7571386010354269 -0.7310254297118192 -0.7032369637850873 -0.673797184287952
-0.6427354466274131 -0.6100865069473196 -0.5758905260696303 -0.5401930504078947 -0.503044969361043 -0.4645024488149079 -0.424626840505856 -0.3834845671311291
-0.3411469832262508 -0.29769021196834133 -0.25319495820540316 -0.20774629815454038 -0.16143344635571788 -0.11434950061066429 -0.06659116577868662 -0.018258457440389897
0.030545613423334395 0.0797153734580629 0.1291428362633229 0.1787180664957564 0.2283295571108721 0.2778646180026043 0.32720977420499686 0.37625117173646405
0.4248749890936123 0.4729678523403935 0.5204172516883956 0.5671119574291152 0.612942433055176 0.6578012433994918 0.7015834556260137 0.7441870309257137
0.7855132048053051 0.8254668539045884 0.8639568473410151 0.9008963806568362 0.9362032905341131 0.9698003485467384 1.0016155323343208 1.0315822727106996
1.05963967535902 1.0857327159141867 1.1098124073919937 1.1318359390910882 1.151766786266748 1.1695747900557372 1.185236207314575 1.1987337302214058
1.2100564756800667 1.2191999447550375 1.2261659525541306 1.2309625291624515 1.2336037924135823 1.234109793461709 1.232506336289342 1.2288247724490713
1.2231017724919608 1.2153790756795697 1.2057032197099815 1.1941252523083126 1.1807004266403496 1.1654878826007948 1.1485503161065873 1.129953638588669
1.109766628922817 1.0880605800710557 1.0649089427196334 1.0403869681968074 1.0145713529353486 0.9875398867086131 0.9593711068176196 0.9301439603391422
0.8999374764620311 0.8688304508415212 0.836901143790465 0.8042269940019349 0.7708843493621689 0.7369482162654704 0.7024920286863483 0.6675874380994749
0.6323041251655226 0.596709633923423 0.5608692290473856 0.5248457765419751 0.48869964806196386 0.4524886488574701 0.41626796915970365 0.38009015864113627
0.34400512340566713 0.30806014479325383 0.27229991911825957 0.2367666173046965 0.2014999632345531 0.16653732948945832 0.13191384904129277 0.097662541335795
0.06381445111459083 0.030398798237113667 -0.002556863305834156 -0.035026479049120596 -0.06698532228189702 -0.0984098187719642 -0.1292773699164087 -0.15956617624079072
-0.189255063144258 -0.21832331074809375 -0.24675048965008362 -0.27451630431774277 -0.3016004457700756 -0.3279824551006518 -0.35364159928685623 -0.3785567606089648
-0.40270634087290436 -0.4260681814907068 -0.44861950032458786 -0.47033684604571846 -0.4911960705991465 -0.511172320200334 -0.5302400451223157 -0.5483730283623416
-0.5655444331072168 -0.5817268687483725 -0.5968924750304545 -0.6110130237557367 -0.624060037307478 -0.6360049231051903 -0.6468191229592435 -0.6564742761569633
-0.6649423949858058 -0.6721960512831675 -0.6782085724975531 -0.6829542456531659 -0.6864085275303378 -0.688548259307094 -0.6893518838552612 -0.6887996638453249
-0.68687389879066 -0.6835591391521998 -0.678842395630614 -0.6727133417921305 -0.6651645082095641 -0.6561914663484547 -0.6457930004909809 -0.6339712660659007
-0.6207319328419469 -0.6060843115426611 -0.5900414625525698 -0.5726202855077354 -0.553841588695235 -0.5337301373275789 -0.5123146799059324 -0.4896279520408129
-0.4657066572593358 -0.4405914244916449 -0.4143267420969874 -0.38696086845792266 -0.3585457193408974 -0.32913673238942565 -0.2987927092828224 -0.26757563625637726
