data/geyser-waiting-bw8.0-basegamma-lambda-exp(-8.0)/natparam-value-shift-110.0.npy (npy, 16128 bytes, 1 tensors)

array f8 [2000]
0	0xbfacd654c3ce486c	-0.056322716619562424
1	0xbfaec4a9e7f4ca60	-0.060094174923865706
2	0xbfb0676d8e21603c	-0.06407818527202463
3	0xbfb17b0764417b3c	-0.06828352162982027
4	0xbfb29db78817fdf3	-0.07271906921959452
5	0xbfb3d01490c8b9a3	-0.07739380392806665
6	0xbfb512b639959e34	-0.08231676965589757
7	0xbfb66634f7765bf2	-0.08749705354271933
8	0xbfb7cb29854d68ae	-0.09294375900700189
9	0xbfb9422c667eec02	-0.09866597654665557
10	0xbfbacbd55fb63c58	-0.10467275225367823
11	0xbfbc68bae5afa85c	-0.11097305400440532
12	0xbfbe197181e67573	-0.1175757352961762
13	0xbfbfde8b2d121714	-0.12448949671133064
14	0xbfc0dc4b4fb4ef34	-0.13172284500057574
15	0xbfc1d40f4b59c8aa	-0.13928404978975567
16	0xbfc2d6d48917d50b	-0.14718109792708164
17	0xbfc3e4db4242a4d9	-0.1554216455017812
18	0xbfc4fe607df01b08	-0.16401296757995731
19	0xbfc6239da04249c5	-0.1729619057192179
20	0xbfc754c7f51720fc	-0.18227481334020712
21	0xbfc8921036527864	-0.19195749905060489
22	0xbfc9dba20e0101d0	-0.20201516803537212
23	0xbfcb31a3949d0e39	-0.2124523616458747
24	0xbfcc9434cbc8d170	-0.223272895340084
25	0xbfce036f15dcded8	-0.23447979514616324
26	0xbfcf7f64aab4dad9	-0.24607523284222202
27	0xbfd084100517f424	-0.25806046006602146
28	0xbfd14ed1b672fa9e	-0.2704357415895319
29	0xbfd21ff419cf5d7a	-0.28320028801450514
30	0xbfd2f76f2b117c4e	-0.2963521881665131
31	0xbfd3d535e9060c7b	-0.3098883414861075
32	0xbfd4b9360d20e43e	-0.3238043907363738
33	0xbfd5a357c3f029f4	-0.338094655366745
34	0xbfd6937d66a6b04f	-0.3527520658924503
35	0xbfd789833625872d	-0.3677680996680575
36	0xbfd8853f17f1a88b	-0.38313271845130065
37	0xbfd9868055874d5a	-0.3988343081702702
38	0xbfda8d0f5e80a7a4	-0.41485962132230214
39	0xbfdb98ad8e098c10	-0.4311937224467224
40	0xbfdca914f41cdd8c	-0.447819937125552
41	0xbfddbdf8230b5773	-0.4647198049764178
42	0xbfded70201cd761a	-0.48187303710969476
43	0xbfdff3d5a3a3c298	-0.4992574785274342
44	0xbfe08a0712c4cd40	-0.5168490759446414
45	0xbfe11b9f48ff4abc	-0.5346218515135983
46	0xbfe1ae78e5d4faaa	-0.5525478829293509
47	0xbfe242553facf78b	-0.570597290388592
48	0xbfe2d6f18eef161f	-0.5887382308653207
49	0xbfe36c06ef1cbb4f	-0.6069369001541903
50	0xbfe4014a645113e6	-0.6251575431166401
51	0xbfe4966ce561d139	-0.6433624725455395
52	0xbfe52b1b6ad65e24	-0.6615120970408879
53	0xbfe5beff02e7cedc	-0.6795649582622576
54	0xbfe651bceab79c46	-0.6974777778931489
55	0xbfe6e2f6ace67e10	-0.7152055146179368
56	0xbfe7724a45af74b0	-0.7327014313738314
57	0xbfe7ff524ca55c9e	-0.7499171730986693
58	0xbfe889a6242b13c1	-0.7668028551494147
59	0xbfe910da2eb786dd	-0.7833071625174984
60	0xbfe9948009efb9eb	-0.7993774599142943
61	0xbfea1426cf994462	-0.8149599127447227
62	0xbfea8f5b5c5f9499	-0.8299996189276896
63	0xbfeb05a89c5de75a	-0.8444407514609609
64	0xbfeb7697dd5707b4	-0.8582267115636939
65	0xbfebe1b1267ad52e	-0.8713002921637434
66	0xbfec467b95902b14	-0.8836038514285485
67	0xbfeca47dc15032e5	-0.8950794959688123
68	0xbfecfb3e20b66ec0	-0.9056692732733254
69	0xbfed4a4376fef844	-0.9153153728618766
70	0xbfed91154402921b	-0.9239603355713969
71	0xbfedcf3c38965d43	-0.9315472703191648
72	0xbfee0442ae8b4163	-0.9380200776159139
73	0xbfee2fb523df9ae8	-0.9433236790326562
74	0xbfee5122b8ac6453	-0.9474042517569025
75	0xbfee681daf4e23a0	-0.9502094673090262
76	0xbfee743bee414942	-0.9516887334268989
77	0xbfee751783219996	-0.951793438068125
78	0xbfee6a4f26349d12	-0.9504771944238277
79	0xbfee5386bde043fb	-0.947696085788379
80	0xbfee3067e1688a60	-0.943408909083086
81	0xbfee00a25a499269	-0.9375774157929985
82	0xbfedc3eca37eff51	-0.9301665490420225
83	0xbfed7a046605b1b3	-0.9211446755048683
84	0xbfed22aef1e23902	-0.910483810833995
85	0xbfecbdb9b2f4b12e	-0.8981598372679735
86	0xbfec4afaa0e20724	-0.884152712082344
87	0xbfebca50a95b41f7	-0.8684466655486734
88	0xbfeb3ba4140cf04c	-0.8510303870784894
89	0xbfea9ee6df83da6e	-0.8318971982506136
90	0xbfe9f41516581861	-0.8110452114494927
91	0xbfe93b351bf507b4	-0.7884774728811323
92	0xbfe87457f05b2d13	-0.7642020887809927
93	0xbfe79f996a40d7c6	-0.7382323336848848
94	0xbfe6bd2066ff6fe4	-0.710586739699917
95	0xbfe5cd1eefc5919f	-0.6812891657869392
96	0xbfe4cfd253918ea0	-0.6503688461493375
97	0xbfe3c58335847750	-0.617860416914235
98	0xbfe2ae858f2b844a	-0.5838039203919234
99	0xbfe18b38a66c57be	-0.5482447863057514
100	0xbfe05c06f6d04dde	-0.5112337894992682
101	0xbfde42cc1bf6ef04	-0.47282698374668564
102	0xbfdbb7acb65aa1b8	-0.4330856114197803
103	0xbfd917c5e3764f4c	-0.3920759888944658
104	0xbfd664427d0da290	-0.3498693677161464
105	0xbfd39e61610eb110	-0.3065417716814105
106	0xbfd0c774a9196990	-0.2621738101348905
107	0xbfcbc1c191ed0bf0	-0.21685046792308027
108	0xbfc5d837293dd6e0	-0.1706608725905232
109	0xbfbfaaacba6ef9a0	-0.12369803954695735
110	0xbfb378937eb9f8c0	-0.07605859607608334
111	0xbf9c82bd8d6ce680	-0.027842485196038158
112	0x3f955901f0eee280	0.020847349481956545
113	0x3fb1e55042cb4900	0.06990529661860378
114	0x3fbe856d2d021040	0.1192234263308487
115	0x3fc597b1d6622160	0.16869185417113908
116	0x3fcbedf2de7b68f0	0.2181991182649834
117	0x3fd120e459953060	0.2676325678664906
118	0x3fd447bddb5b2c40	0.31687876149652894
119	0x3fd769a8886209e0	0.36582387274407147
120	0x3fda84c710fb62b0	0.4143541017379375
121	0x3fdd973dffaa78b0	0.4623560902345032
122	0x3fe04f9abc3b1bc4	0.509717338217222
123	0x3fe1cd6d7bc75358	0.5563266198683818
124	0x3fe34431867994d8	0.6020743967498232
125	0x3fe4b305896250c8	0.6468532260210162
126	0x3fe6190d6df7e870	0.6905581615276457
127	0x3fe775732c70e898	0.7330871456135979
128	0x3fe8c7679800d820	0.7743413895430002
129	0x3fea0e2323dbce78	0.8142257404674202
130	0x3feb48e69fed9828	0.8526490329356919
131	0x3fec76fbec3bc0c0	0.889524423020724
132	0x3fed97b6a1f62eb0	0.9247697032273745
133	0x3feeaa74b1484220	0.9583075964492913
134	0x3fefae9ef30c4ea0	0.9900660273583135
135	0x3ff051d4d6ca6b18	1.0199783697377764
136	0x3ff0c48a85e90778	1.0479836684102946
137	0x3ff12f36c317579c	1.0740268345593682
138	0x3ff191a61e4a62a0	1.0980588134026803
139	0x3ff1ebaba091256c	1.1200367233417081
140	0x3ff23d20e9967490	1.1399239658851776
141	0x3ff285e6452692b0	1.157690305824115
142	0x3ff2c5e2b8a12e58	1.1733119213194154
143	0x3ff2fd04084d60cc	1.1867714237505878
144	0x3ff32b3eb4923e90	1.1980578473630068
145	0x3ff3508def2395b8	1.2071666089408222
146	0x3ff36cf3883f6ca0	1.2140994379213126
147	0x3ff38077d425a224	1.218864277552833
148	0x3ff38b2988ff9ed0	1.221475157881219
149	0x3ff38d1d957a3f64	1.2219520415273672
150	0x3ff3866ef05fdf9c	1.220320643389619
151	0x3ff3773e618bb1c8	1.216612225568598
152	0x3ff35fb2449a290c	1.2108633689663888
153	0x3ff33ff645c428c8	1.20311572315636
154	0x3ff3183b195bdbdc	1.1934157362536473
155	0x3ff2e8b62e6a5524	1.1818143666362824
156	0x3ff2b1a15cf4908c	1.1683667784755327
157	0x3ff2733a9074cbec	1.1531320231267683
158	0x3ff22dc36f1aa038	1.1361727085113795
159	0x3ff1e180fe68999c	1.1175546586833667
160	0x3ff18ebb45c94d0c	1.0973465658215131
161	0x3ff135bcefb80c34	1.0756196369191118
162	0x3ff0d6d2ea1a5b20	1.0524472374579048
163	0x3ff0724c06671a08	1.0279045343501156
164	0x3ff008789a37183c	1.0020681404144076
165	0x3fef335441b096f4	0.9750157626155826
166	0x3fee4c65bcf2bedc	0.9468258562464729
167	0x3fed5ccb0afd6718	0.9175772871633141
168	0x3fec6529bd185644	0.8873490041029943
169	0x3feb6626e7910aa0	0.856219723013357
170	0x3fea60667faea732	0.8242676252168393
171	0x3fe9548ac1fc36de	0.7915700711034466
172	0x3fe84333a1bfbc84	0.7582033309135032
173	0x3fe72cfe426048fc	0.7242423340233297
174	0x3fe612847b67d5cc	0.6897604379907363
175	0x3fe4f45c67b6fd53	0.6548292184524293
176	0x3fe3d3180068f532	0.6195182807929653
177	0x3fe2af44c3cdc7bc	0.58389509432731
178	0x3fe1896b68c7bc3d	0.5480248495567889
179	0x3fe0620f9ebf6f00	0.5119703388731693
180	0x3fde735fb490e2be	0.4757918608989192
181	0x3fdc218a5ced5d9d	0.4395471484653742
182	0x3fd9cf866596bd0c	0.403291320045313
183	0x3fd77e2feb0ea168	0.36707685427474823
184	0x3fd52e57f42fc858	0.3309535870204221
185	0x3fd2e0c48678cbf4	0.2949687302781847
186	0x3fd09630d0d5c8ec	0.25916691202213715
187	0x3fcc9e9ad7980fb0	0.22359023596811545
188	0x3fc819815b84a750	0.18827836006794962
189	0x3fc39e4e23f67b60	0.15326859241482804
190	0x3fbe5c4ec2d0f3a0	0.11859600311522778
191	0x3fb594431af78600	0.08429355057116794
192	0x3fa9cd0256312f00	0.05039222051763481
193	0x3f9153c8e76cae00	0.016921176075966216
194	0xbf907a7168991a00	-0.016092082986029155
195	0xbfa8e4ec9d9e9900	-0.04862155365053589
196	0xbfb4a4fd9b9485c0	-0.08064255760520833
197	0xbfbcb4a77f756480	-0.11213156568318716
198	0xbfc24ffcc414b760	-0.14306602072013686
199	0xbfc632c34d623000	-0.17342416075223355
200	0xbfca01f602fcf760	-0.2031848444548201
201	0xbfcdbce752fede60	-0.23232738068121517
202	0xbfd0b17608700530	-0.2608313639066919
203	0xbfd279ad123ee3e0	-0.2886765173130339
204	0xbfd436c3a68b19d0	-0.31584254516601806
205	0xbfd5e863fdc7fa30	-0.3423089960414556
206	0xbfd78e372394e190	-0.368055138347267
207	0xbfd927e47fb59400	-0.3930598494683295
208	0xbfdab5116ef42560	-0.4173015197307759
209	0xbfdc3560ed0ef660	-0.44075797224272684
210	0xbfdda87350ac9760	-0.46340639952028617
211	0xbfdf0de61a24d4c0	-0.4852233176528209
212	0xbfe032a9eae12410	-0.5061845386018167
213	0xbfe0d72a08f91070	-0.5262651610614864
214	0xbfe1743db4d50c40	-0.5454395801429044
215	0xbfe209add18ed350	-0.5636815159728972
216	0xbfe29741f1567a40	-0.5809640611294711
217	0xbfe31cc078e4d6b0	-0.597259746666813
218	0xbfe399eeccafea90	-0.612540626315722
219	0xbfe40e91879229e0	-0.6267783782835146
220	0xbfe47a6cba7f87b0	-0.6399444239179868
221	0xbfe4dd4434ce8b30	-0.6520100623496088
222	0xbfe536dbd487a640	-0.6629466200803975
223	0xbfe586f7de1a5850	-0.6727256143519842
224	0xbfe5cd5d5ac649c0	-0.681318928999012
225	0xbfe609d27cf67c10	-0.6886990013771328
226	0xbfe63c1f09be4130	-0.6948390188499953
227	0xbfe6640cc69adad0	-0.6997131232263545
228	0xbfe68167ea91abc0	-0.7032966214586551
229	0xbfe693ff91b995f0	-0.7055662008467021
230	0xbfe69ba63236f5a0	-0.706500146937902
231	0xbfe6983211ac3440	-0.7060785622758274
232	0xbfe6897dba1daa00	-0.7042835841251076
233	0xbfe66f686d461fd0	-0.7010995992904956
234	0xbfe649d6955a0780	-0.696513454153532
235	0xbfe618b2323a2410	-0.6905146580694481
236	0xbfe5dbeb421b11f0	-0.6830955783012183
237	0xbfe5937824add140	-0.6742516247163977
238	0xbfe53f55f7ddfb20	-0.6639814225344232
239	0xbfe4df88ed44ae90	-0.6522869714876425
240	0xbfe4741c977b6e20	-0.63917378984792
241	0xbfe3fd242e87fea0	-0.6246510418713633
242	0xbfe37abacaa9a740	-0.6087316473251363
243	0xbfe2ed0394e12600	-0.5914323718836272
244	0xbfe25429ec9eabe0	-0.5727738973122278
245	0xbfe1b0618214b400	-0.5527808704988502
246	0xbfe101e664c2c770	-0.5314819305406058
247	0xbfe048fd05e09d60	-0.5089097132485385
248	0xbfdf0be45ccff260	-0.485100832592968
249	0xbfdd7235d12489c0	-0.46009583877653526
250	0xbfdbc5a8b96bc5c0	-0.4339391527892893
251	0xbfda0707430cc870	-0.40667897746892034
252	0xbfd8372affa44080	-0.3783671852588739
253	0xbfd656fc53ddb4b0	-0.3490591830257683
254	0xbfd46771ce3c1720	-0.3188137544642462
255	0xbfd2698f668fc100	-0.2876928807809378
