data/geyser-waiting-bw6.0-basegamma-lambda-exp(-12.0)/natparam-value-shift-210.0.npy (npy, 16128 bytes, 1 tensors)

array f8 [2000]
0	0xbfb409ff5322bf4c	-0.07827754764252609
1	0xbfb5ddf9dd303948	-0.08541833543879307
2	0xbfb7d38622ede1f4	-0.09307134964718228
3	0xbfb9ec01dda613a8	-0.10125743543001298
4	0xbfbc28ba0d928d2e	-0.10999644118651439
5	0xbfbe8ae66b5eaff0	-0.11930694695791977
6	0xbfc089d241b9d574	-0.12920597275994405
7	0xbfc1e1f93f3a9446	-0.13970866763443918
8	0xbfc34e54cde66e7a	-0.1508279805537887
9	0xbfc4cf3c325cecde	-0.16257431468134248
10	0xbfc664ee5005cfda	-0.1749551668868879
11	0xbfc80f8e883edb48	-0.18797475483526171
12	0xbfc9cf2184c5b55a	-0.2016336344053496
13	0xbfcba389f443c364	-0.21592831065165818
14	0xbfcd8c8540e21d48	-0.2308508459866323
15	0xbfcf89a849cec560	-0.24638846973315776
16	0xbfd0cd2e14cf51ec	-0.26252319366656596
17	0xbfd1deed8a3ac92a	-0.27923143862712385
18	0xbfd2f996ace91d1a	-0.2964836777286607
19	0xbfd41c934b611bdc	-0.3142441021086009
20	0xbfd54731930b3db4	-0.33247031554943907
21	0xbfd678a2ee756acc	-0.3511130646417484
22	0xbfd7affb113807a0	-0.37011601144342343
23	0xbfd8ec2f39304388	-0.3894155558091872
24	0xbfda2c15acea9598	-0.40894071470605686
25	0xbfdb6e657f275bc0	-0.42861306588514125
26	0xbfdcb1b69f574b68	-0.4483467632355116
27	0xbfddf4823ec37404	-0.4680486309933374
28	0xbfdf352391c9c078	-0.48761834370726076
29	0xbfe038ec7a14a52c	-0.5069486984622578
30	0xbfe0d462bb63736c	-0.5259259853297471
31	0xbfe16bf96e4c4d8c	-0.5444304613360358
32	0xbfe1feaa05c24b6c	-0.5623369324187997
33	0xbfe28b63fa7ac48c	-0.5795154468707024
34	0xbfe3110e7c58fa80	-0.5958321026481173
35	0xbfe38e8a6193af74	-0.611149969653964
36	0xbfe402b4536b1a54	-0.6253301266922997
37	0xbfe46c673770be98	-0.6382328112431024
38	0xbfe4ca7ed37c90c8	-0.6497186785313938
39	0xbfe51bdaa9753678	-0.6596501645778536
40	0xbfe55f61070e60e0	-0.6678929460349785
41	0xbfe594024492ea10	-0.6743174876531288
42	0xbfe5b8bc2cbbcd28	-0.6788006662085637
43	0xbfe5cc9d867cae50	-0.6812274576854609
44	0xbfe5cec9b896dd58	-0.6814926724681909
45	0xbfe5be7c7db01448	-0.6795027212944058
46	0xbfe59b0d9ea0a350	-0.6751773927872851
47	0xbfe563f4a7b14070	-0.6684516215555174
48	0xbfe518cc8c989fa0	-0.6592772241610767
49	0xbfe4b9572e3aada0	-0.6476245787538808
50	0xbfe44580b47ae050	-0.633484222888919
51	0xbfe3bd62ade6d750	-0.6168683430212045
52	0xbfe32146e69baf20	-0.5978121284547093
53	0xbfe271a9e79426d0	-0.5763749621412106
54	0xbfe1af3d0f8bc400	-0.5526414207107564
55	0xbfe0dae836da15b0	-0.5267220565153163
56	0xbfdfeb95a0341480	-0.4987539352881143
57	0xbfde0278f0428e80	-0.46890090430154174
58	0xbfdbfd99d177e2a0	-0.43735356765641065
59	0xbfd9e08685a776e0	-0.4043289475647338
60	0xbfd7af394c3b7e20	-0.37006981319970755
61	0xbfd56e141c4320a0	-0.33484366188032233
62	0xbfd321dadcc550c0	-0.2989413410152899
63	0xbfd0cfac13506680	-0.2626753033269793
64	0xbfccf9f00b2fde80	-0.2263774923919648
65	0xbfc85eeca0602380	-0.19039686041676518
66	0xbfc3da33f4149f80	-0.1550965253638843
67	0xbfbef01048e50f00	-0.12085058002145033
68	0xbfb689d3ae415600	-0.08804057125356479
69	0xbfad35e07f64a200	-0.05705167346087947
70	0xbf9cf270b2de8400	-0.0282685860798928
71	0xbf60f79a0c7da000	-0.002071190716311122
72	0x3f95ad960a1fac00	0.021169990890410162
73	0x3fa50adc89f02a00	0.041098491514350854
74	0x3fad607a61caa000	0.0573766941427607
75	0x3fb1d73f77b03200	0.06969067260815365
76	0x3fb3e7c0b7476700	0.07775501703818222
77	0x3fb4d13a9d8cb100	0.08131758066582861
78	0x3fb485a21e3bbb00	0.08016408193700997
79	0x3fb2f9b11803b900	0.07412249409000893
80	0x3fb0252b41dee780	0.06306715353175996
81	0x3fa8063a746edb00	0.04692251845647455
82	0x3f9a485259aa9600	0.02566651031761147
83	0xbf45d81296ae0000	-0.0006666270031558952
84	0xbfa060355c594100	-0.03198401214888413
85	0xbfb171203485efc0	-0.06813241274170334
86	0xbfbbe0af98f70ec0	-0.10889718517779112
87	0xbfc3b655adecf410	-0.1540019129987802
88	0xbfc9ff77f2f34c24	-0.2031087814599185
89	0xbfd05f59a9ec1700	-0.255819717349695
90	0xbfd3f289990b6220	-0.31167831369160304
91	0xbfd7b0e833bf81e0	-0.37017254880450245
92	0xbfdb91375e2fdf20	-0.4307382983965784
93	0xbfdf897074dd4580	-0.492763628125509
94	0xbfe1c76cbce89600	-0.5555938424701594
95	0xbfe3cb0ea3aee1a0	-0.6185372540413034
96	0xbfe5c9b34aaf02a0	-0.6808716257729266
97	0xbfe7bd3ec8cf9140	-0.7418512270055899
98	0xbfe99f73e01e2480	-0.8007144334125229
99	0xbfeb6a04e6c7d040	-0.8566917903358515
100	0xbfed16a578866b00	-0.9090144495015409
101	0xbfee9f1cbb8f1800	-0.9569228804837167
102	0xbfeffd5800136a00	-0.9996757508736778
103	0xbff095bebf141880	-1.0365588630679952
104	0xbff111ff79b67280	-1.0668940309907669
105	0xbff170d5f01d7980	-1.0900477771279782
106	0xbff1afe191bf3840	-1.105439729045898
107	0xbff1cd01da5406c0	-1.112550595135346
108	0xbff1c65e1e3d9200	-1.110929601790417
109	0xbff19a6ca7e68140	-1.1002012785539392
110	0xbff147f9094f2800	-1.0800714839592729
111	0xbff0ce298724a180	-1.050332572844212
112	0xbff02c83855ce500	-1.0108676156508523
113	0xbfeec5ddc0ceab00	-0.9616535917060389
114	0xbfece37042e7b200	-0.9027634913196039
115	0xbfeab32300544500	-0.8343672758511786
116	0xbfe8372550915e00	-0.756731660231651
117	0xbfe5726e7c06f000	-0.6702186987308778
118	0xbfe268b8410b3c00	-0.5752831716907849
119	0xbfde3cedba88b400	-0.472468788301569
120	0xbfd7319d59bd7e00	-0.36240323795024665
121	0xbfcf761de95ccc00	-0.24579213995602345
122	0xbfbf97ed15396000	-0.12341195839087504
123	0x3f6feec5c0a60000	0.003898035273948608
124	0x3fc14fb2628ee000	0.1352446538201093
125	0x3fd1429ba4ba2000	0.2696904286062818
126	0x3fda003a24edf400	0.406263862670869
127	0x3fe1683420539600	0.5439701682450391
128	0x3fe5d1532733d200	0.6818023458168341
129	0x3fea3338597c3c00	0.8187524554977017
130	0x3fee85b7a8e6b600	0.9538229273654792
131	0x3ff1606920342800	1.0860377557714855
132	0x3ff36e66b675ec00	1.2144534232490969
133	0x3ff5692451e00800	1.3381694029089886
134	0x3ff74d292c45cd00	1.4563380937004808
135	0x3ff9173dac713b00	1.5681740509059523
136	0x3ffac4743482b100	1.672962384337609
137	0x3ffc5230f1f46600	1.7700662089686148
138	0x3ffdbe309418ed00	1.8589330468228695
139	0x3fff068dd2273f00	1.9391000947106818
140	0x400014e2d740a380	2.010198289547077
141	0x4000935d34e5c800	2.071955121290557
142	0x4000fe5a8ec3f100	2.1241961625620434
143	0x400155b2fd92f100	2.1668453035800894
144	0x4001997198e29400	2.19992370072805
145	0x4001c9d341106180	2.223547466576008
146	0x4001e744c69a0c80	2.2379241481554004
147	0x4001f2607782db80	2.2433480583962933
148	0x4001ebeb1dca8980	2.240194542640154
149	0x4001d4d07c083e00	2.2289132776274982
150	0x4001ae1f57177080	2.210020714190307
151	0x400179051d5cb880	2.184091786758529
152	0x400136c93d770900	2.1517510225249907
153	0x4000e8c83f320f00	2.113663190570037
154	0x4000906eb23c8380	2.0705236363141353
155	0x40002f34067e1300	2.0230484492516325
156	0x3fff8d2ac3d86f00	1.9719646120274206
157	0x3ffeb0210ed89800	1.9180002765583595
158	0x3ffdca3dc35d9100	1.8618753081764794
159	0x3ffcde6187f8d900	1.8042922316940917
160	0x3ffbef51e36a9400	1.7459277041864425
161	0x3ffaffb0f788b600	1.6874246281907972
162	0x3ffa11f603235100	1.6293850061966282
163	0x3ff92866c22be200	1.5723636231251703
164	0x3ff84511bf3cc200	1.5168626280029684
165	0x3ff769c9a543ee00	1.463327069824004
166	0x3ff698219b8bce00	1.4121414257068636
167	0x3ff5d16ab1c38b80	1.363627142324475
168	0x3ff516b25d1bb400	1.3180411946334516
169	0x3ff468c2030bd380	1.2755756491653472
170	0x3ff3c81f8a109000	1.2363582032348859
171	0x3ff3350ee4a38980	1.200453656311396
172	0x3ff2af9486fa3900	1.167866256003947
173	0x3ff23778b4bf1ec0	1.1385428486263862
174	0x3ff1cc4b9114fc00	1.1123767535461866
175	0x3ff16d69d8c53540	1.0892122714606813
176	0x3ff11a022c8df1c0	1.0688497295769679
177	0x3ff0d11ad02309c0	1.05105096152748
178	0x3ff09197c1974990	1.0355451166293257
179	0x3ff05a410c94531e	1.022034691942458
180	0x3ff029c93cfc6188	1.0102016813526422
181	0x3feffda7aa8e7dc0	0.9997137385543553
182	0x3fefaff75c358fc0	0.9902302552186413
183	0x3fef67b24c7aba80	0.981408261655659
184	0x3fef22101803c880	0.9729080647505413
185	0x3feedc5a573d5d80	0.9643985465908571
186	0x3fee93f6e0fe2f80	0.9555620569603747
187	0x3fee467114d99f00	0.9460988433101818
188	0x3fedf18214c9d100	0.935730972864377
189	0x3fed9317dbe55b00	0.924205712780207
190	0x3fed295b25f62700	0.911298345702761
191	0x3fecb2b421c2d500	0.8968144091983561
192	0x3fec2dcdeda53400	0.8805913583288429
193	0x3feb9998e381d300	0.8624996608255913
194	0x3feaf54bbe3caf00	0.8424433436934748
195	0x3fea4063a7503e00	0.8203600185242408
196	0x3fe97aa33f234800	0.7962204201851364
197	0x3fe8a410b60bee00	0.7700274997327483
198	0x3fe7bcf30e9bc000	0.7418151173897058
199	0x3fe6c5cea3c90400	0.7116463850908303
200	0x3fe5bf610ed7c600	0.6796117105388362
201	0x3fe4aa9c8980c600	0.6458265958410152
202	0x3fe388a2e8cfcc00	0.6104292437652248
203	0x3fe25ac04c930000	0.5735780234899721
204	0x3fe122659e068000	0.5354488455232058
205	0x3fdfc245ed878400	0.49623249241091116
206	0x3fdd31440dcff800	0.4561319479834083
207	0x3fda95411e173400	0.4153597635129813
208	0x3fd7f1d5fffc6800	0.37413549421910375
209	0x3fd54aae9ef11000	0.3326832344212107
210	0x3fd2a3801c46f000	0.2912292743819762
211	0x3fcfffff21ebb000	0.249999896586246
212	0x3fcac7b2e5894000	0.20921932418650613
213	0x3fc5a5534ab38000	0.16910782954710157
214	0x3fc09fe876390000	0.12988000652876508
215	0x3fb77c7b96ba4000	0.09174320630904731
216	0x3fac1b5893088000	0.05489613337363153
217	0x3f93ff0ac3c08000	0.019527595708609624
218	0xbf8d0cd099430000	-0.014184598614860988
219	0xbfa7971748cb0000	-0.04607460750185055
220	0xbfb3740a761f0000	-0.07598939307990804
221	0xbfba91f1e1666000	-0.10378944161345771
222	0xbfc08e85314e2000	-0.12934937388877188
223	0xbfc3870910c37000	-0.1525584537365603
224	0xbfc62f61ef324000	-0.1733210008574133
225	0xbfc884ee2b463000	-0.19155671227451876
226	0xbfca858f15558000	-0.2072008947534414
227	0xbfcc2faa23fe9000	-0.22020460851229018
228	0xbfcd8229669f7000	-0.230534720524588
229	0xbfce7c7b2e3de000	-0.23817386396308393
230	0xbfcf1e90e20b2000	-0.2431202987411325
231	0xbfcf68dcf259f000	-0.24538766702232806
232	0xbfcf5c4fdb528000	-0.24500463685126306
233	0xbfcefa5428320000	-0.24201442682897323
234	0xbfce44c96903e000	-0.23647420528118346
235	0xbfcd3dfe0e7ae000	-0.22845435816793724
236	0xbfcbe8a8233fa000	-0.2180376216995228
237	0xbfca47dcde6a1000	-0.20531807766030852
238	0xbfc85f0710999000	-0.190400012116811
239	0xbfc631dc73dc9000	-0.17339664132407506
240	0xbfc3c451ededa000	-0.15442871205891606
241	0xbfc11a8edc8bd000	-0.13362298745016687
242	0xbfbc71bf17be2000	-0.11111063317923708
243	0xbfb6474dfeee8000	-0.08702552293698318
244	0xbfaf7d40fa440000	-0.06150248579979234
245	0xbfa1c0fd701c0000	-0.03467552178881306
246	0xbf7b584f22ea0000	-0.006676015020843806
247	0x3f96e7e7c0138000	0.022369023416899836
248	0x3faacc21a1468000	0.052338648735940296
249	0x3fb5475316882000	0.08311957645503298
250	0x3fbd56ed273ca000	0.11460764129571999
251	0x3fc2c75d0256f000	0.1467090856002642
252	0x3fc6f4aabe80f000	0.17934164335190417
253	0x3fcb3115329f3000	0.2124353882958303
254	0x3fcf7abe33215800	0.24593331810564223
255	0x3fd1e81b3d83ec00	0.2797916508422418
