data/geyser-waiting-bw2.0-basegamma-lambda-exp(-12.0)/natparam-value-shift-120.0.npy (npy, 16128 bytes, 1 tensors)

array f8 [2000]
00000000: d7d4 1dd8 c55e 58bb c227 c7fb 795b 71bb
00000010: ca19 4dfa db7c 88bb 0fdd f002 9a1b a1bb
00000020: a0e5 3ddc a7ac b7bb 7484 5618 3139 d0bb
00000030: f7d7 ae8f 6a05 e6bb 67b3 94c8 7b9a fdbb
00000040: 96f3 ba4e f3b4 13bc 2734 2faf 26fc 29bc
00000050: 228b 7e7e 76f7 40bc da34 56ff 6bf1 55bc
00000060: 0e7e a629 091b 6cbc 6d63 c461 6fd3 81bc
00000070: 0ef7 5c7b dd64 96bc 81a8 5224 7adc abbc
00000080: 3f50 8b88 0e2a c1bc 6d53 3bf3 bbf1 d4bc
00000090: 6c2e 293a 484f e9bc d5f2 616a 0a4a febc
000000a0: 5a3e 381c e7f2 11bd 9d40 a49c fb10 25bd
000000b0: 46bc 85b1 5a7c 38bd aade 6f77 2d2f 4cbd
000000c0: 8282 070b 3910 60bd baef a03f f021 72bd
000000d0: c6e9 085e fb44 84bd bd07 04d0 1870 96bd
000000e0: 8259 7018 ba98 a8bd 8d90 1b80 4eb3 babd
000000f0: 3d0e d8aa a2b3 ccbd 67d9 2550 518d debd
00000100: 0f41 dce0 1f1a f0bd ec5a d1d1 8fce 00be
00000110: ae69 da30 f75e 11be 4f75 954f 35c7 21be
00000120: 3a35 6a14 3c04 32be 26cb ebeb 3514 42be
00000130: 5488 2623 9df6 51be 0755 820d 43ac 61be
00000140: 4d4c 6c6f 4637 71be 864b 1cca f99a 80be
00000150: 26ad 6376 76b7 8fbe d18c fc28 81fd 9dbe
00000160: 4690 b511 b613 acbe 5716 ef77 6c06 babe
00000170: bf9e f34a 2de2 c7be 24cb 1c18 36b3 d5be
00000180: 6871 65d6 0885 e3be 1599 ced8 0d62 f1be
00000190: 7efc 7032 97a6 febe 601c b295 6cc0 0abf
000001a0: d1d9 01ce 2e1d 17bf 4863 77a9 17c5 23bf
000001b0: 8893 7f01 2cbd 30bf 357c 7028 010f 3cbf
000001c0: 4cd7 9966 2e47 47bf 7959 6b33 971d 53bf
000001d0: e02f 7134 1e13 5fbf 7ed5 d140 dbff 68bf
000001e0: 8e80 0cc2 d2e7 73bf 148e f1c7 735f 7fbf
000001f0: 1b4c be16 bd77 88bf 5f97 a4dd 70e2 92bf
00000200: 16f6 9399 e4d8 9cbf c9db 2775 78cd a5bf
00000210: e24e 53f5 294e b0bf ece8 37ce 8921 b8bf
00000220: 532c 6c1e c3aa c1bf c356 d183 f197 c9bf
00000230: 1941 f1dd ec56 d2bf ff4a 9365 f9ff d9bf
00000240: ff74 887a e83a e2bf 59a8 274b 0f49 e9bf
00000250: 86ed 10b9 bf57 f1bf 8891 418f cd86 f7bf
00000260: 828f e98f 0d8f ffbf c842 c1cb 9aed 04c0
00000270: d8b9 dd2a f070 0bc0 ead1 f6da a8c8 11c0
00000280: 4285 57c8 58c8 16c0 f98c eaaf e9d7 1cc0
00000290: 9041 6ec0 790a 22c0 2cc7 107b c64b 26c0
000002a0: 6b34 c290 9037 2bc0 87c9 6434 bd67 30c0
000002b0: 554a 7b84 a486 33c0 f649 cdcf 98f0 36c0
000002c0: a85c 42fc 3598 3ac0 f6ad ad5f 1e6a 3ec0
000002d0: 0209 b404 6b26 41c0 50b4 7f44 8610 43c0
000002e0: a607 9e2e 34e1 44c0 768d 7350 6f84 46c0
000002f0: ea50 55e1 4ae5 47c0 709c fae8 21ef 48c0
00000300: f466 70b1 f48e 49c0 d149 e872 ddb4 49c0
00000310: 00f0 89bf 7e55 49c0 4403 14fa 496b 48c0
00000320: b046 a1fb 7af7 46c0 8beb 86a2 a802 45c0
00000330: 00ca e498 d09c 42c0 705e 50f3 9db9 3fc0
00000340: 4eea 5da3 7fbe 39c0 df44 2916 af89 33c0
00000350: d861 fdc8 39c1 2ac0 686b d9e4 4620 1ec0
00000360: 480d de9e f3fa 01c0 6845 fdbb 1f21 0240
00000370: 0cdb 16cb 5e6b 1740 b2ba b293 04db 2040
00000380: d815 83e0 2ced 2340 6c59 cb4a fd03 2540
00000390: d4f0 ebf0 de56 2440 5af7 3796 de36 2240
000003a0: f8d2 15e5 8d0d 1e40 a08d 0a20 2e64 1640
000003b0: 8087 187c fb8e 0c40 003c 9430 4eec f93f
000003c0: 00c4 7af2 e17e b7bf c0bc c45a c92c f7bf
000003d0: 402a 0c3a e107 03c0 60a6 edb9 90df 06c0
000003e0: 20f8 e5d8 9a44 07c0 c03c 9d0e 77a6 04c0
000003f0: 807d 3b76 7c50 ffbf 4038 00ac 4e13 f2bf
00000400: 0074 e923 dc04 c9bf 00f1 da60 c831 e83f
00000410: 00de 6ccc 8c66 fa3f 3cf0 f89f 4773 0340
00000420: d085 8cd3 8f88 0840 80c9 955b 585b 0c40
00000430: c07e 8a40 7afa 0e40 c063 6688 4849 1040
00000440: c0be 961a 9ab1 1040 00f2 0f0a e0d9 1040
00000450: 00f8 c5fb 81e4 1040 00a9 5833 72ee 1040
00000460: 0066 ac3a 530c 1140 0055 2eae 1949 1140
00000470: 8022 3a32 20a6 1140 8089 ba50 781c 1240
00000480: 0050 3b96 229f 1240 00fb c5d8 c51d 1340
00000490: 00a1 477d 7a87 1340 80d9 3a2b 4acd 1340
000004a0: 80d5 caf8 1be4 1340 002d f840 e4c5 1340
000004b0: 8008 7977 1072 1340 807f d2a7 44ed 1240
000004c0: 80f5 54fe 9440 1240 40f4 02c7 6e78 1140
000004d0: 00c5 9c51 61a3 1040 40c1 24f3 d4a1 0f40
000004e0: e0d9 e88a b120 0e40 8863 9feb 87df 0c40
000004f0: 70d9 58ee 23f6 0b40 a0e3 e087 fa75 0b40
00000500: 002c 9964 3768 0b40 8009 f2bf edcb 0b40
00000510: 40c3 faa6 b894 0c40 8036 ed4e 37aa 0d40
00000520: 80ae f8d8 dae8 0e40 c0bb fed8 3012 1040
00000530: c079 6cc3 0f96 1040 003c 1884 6be8 1040
00000540: 0045 af95 c2f5 1040 40b9 e597 11b2 1040
00000550: 0047 4fdb 961b 1040 0096 6e63 bf78 0e40
00000560: 8028 4577 4e54 0c40 00e6 b0a9 9a08 0a40
00000570: 8075 fcc4 00e0 0740 80ed fcf4 1d26 0640
00000580: 80dd eac0 481c 0540 0028 6014 c6ee 0440
00000590: 808d 2290 abac 0540 00fe 6369 0b44 0740
000005a0: 00b0 7885 5a83 0940 0097 1331 1b20 0c40
000005b0: 806d 02e6 dfc1 0e40 e02b 4e21 f187 1040
000005c0: e86f 9f94 6f5f 1140 6bcf 8b9c 64ce 1140
000005d0: 985a 9ba2 1ccc 1140 20fb 0b27 2261 1140
000005e0: c0ba 468b 32a5 1040 0075 2481 4275 0f40
000005f0: 80a4 8aa6 1390 0d40 80e7 5102 05e3 0b40
00000600: 8045 1e70 2da5 0a40 4038 9ff0 4bf4 0940
00000610: c0f6 127d c0d1 0940 c009 3a28 2225 0a40
00000620: c03d 9d97 b2c3 0a40 003b 0e04 f67a 0b40
00000630: a009 05f2 1a1c 0c40 60f9 b259 be85 0c40
00000640: 209c c9b7 fea9 0c40 00c2 347f a58f 0c40
00000650: 4055 bc04 464e 0c40 00b1 421a 5006 0c40
00000660: 80e4 2ac3 fdd6 0b40 00f6 5e01 84d4 0b40
00000670: 0086 3b8b e900 0c40 0066 7727 5a49 0c40
00000680: 0060 6b08 d688 0c40 0059 4bb3 ec8f 0c40
00000690: 0021 03ab 0a30 0c40 00f1 9eda ff47 0b40
000006a0: 00b4 9f9d fcce 0940 001e f1fb 6ddb 0740
000006b0: 00e2 5add daa3 0540 002e be91 0979 0340
000006c0: 0064 46e4 0dba 0140 001d ca1e 27c4 0040
000006d0: 0075 4229 48e1 0040 8028 dc4d 8f38 0240
000006e0: 006b b24d bec3 0440 806e 5df5 f44b 0840
000006f0: 0041 c02a ad6e 0c40 0003 79c6 3d55 1040
00000700: 285c c454 d538 1240 7c0f 70b6 d69f 1340
00000710: 20a5 106e ea56 1440 607a 1d39 e441 1440
00000720: e0e7 39f1 7960 1340 a0ca ed87 a7ce 1140
00000730: 40b1 dc54 5d81 0f40 0008 857d bbf6 0a40
00000740: 0081 bcf1 cc93 0640 80a0 afcf dae5 0240
00000750: 0042 8f62 245d 0040 00ec a0de e87b fe3f
00000760: c0cb 1cd1 c431 ff3f 0006 248d 274b 0140
00000770: 6caa 8080 9806 0440 8014 4cb4 9f5f 0740
00000780: 009b fb5d b6de 0a40 4036 b865 7112 0e40
00000790: 8059 470d a84f 1040 2033 b890 8325 1140
000007a0: 00dd 8dcd f180 1140 006a 119a f66a 1140
000007b0: 809d 0d24 39fc 1040 4093 555e be57 1040
000007c0: 001b 93ba 3149 0f40 0060 080c 430f 0e40
000007d0: 0099 fc10 613c 0d40 00da 81b6 19f5 0c40
000007e0: 009b 716d e044 0d40 009b 637e 3e1f 0e40
000007f0: 00ad 73c8 8264 0f40 00a6 96d8 6674 1040
-8.06342489095411e-23 -2.2972235072150087e-22 -6.481848582365004e-22 -1.811360770162992e-21 -5.0132568980162106e-21 -1.374175887464028e-20 -3.730529144774407e-20 -1.0030039436877109e-19
-2.6707745144194394e-19 -7.04323895099235e-19 -1.839528077037598e-18 -4.7581413981796444e-18 -1.2188864744630082e-17 -3.092303896099233e-17 -7.769481081207075e-17 -1.9332617962940365e-16
-4.764045897141802e-16 -1.1626407692864189e-15 -2.8099407078341547e-15 -6.725558205642112e-15 -1.594177142498651e-14 -3.742133588357579e-14 -8.699089048098848e-14 -2.0026140756007219e-13
-4.565484462198175e-13 -1.0307173938564662e-12 -2.3043708734993012e-12 -5.101782928623373e-12 -1.1185233957546888e-11 -2.428388740678138e-11 -5.220808972248434e-11 -1.111476085101389e-10
-2.3431565096228266e-10 -4.89144644611253e-10 -1.011122910583775e-09 -2.0696498930204785e-09 -4.194803010710772e-09 -8.418666095385234e-09 -1.6729659610443687e-08 -3.291833800091014e-08
-6.41342941916177e-08 -1.2371967721881534e-07 -2.3630746710050978e-07 -4.468895804401673e-07 -8.367597134459585e-07 -1.551216399540801e-06 -2.847135497686118e-06 -5.173693695503441e-06
-9.307702111876259e-06 -1.6577743327105926e-05 -2.9230827888190602e-05 -5.1024736159859625e-05 -8.817289517701962e-05 -0.00015083230822090566 -0.00025541614877360634 -0.00042814043303169024
-0.0007103897634823469 -0.0011667229243151596 -0.0018966479272135503 -0.0030516893662546054 -0.004859755776834741 -0.007659389753004859 -0.011947133308956073 -0.01844192841340175
-0.028171131013541816 -0.04258324079631099 -0.0636926864565868 -0.09426175388935903 -0.13802374825931682 -0.19994944511807064 -0.28655549692213494 -0.40624842566937497
-0.5696909325812668 -0.7901684253568063 -1.083923075594471 -1.470410880655523 -1.9724250432563797 -2.6160179060319457 -3.4301455830493346 -4.445956631960579
-5.69565117868598 -7.210852383318746 -9.02046014161968 -11.14799866275606 -13.608524821955333 -16.405230784040693 -19.525947837925134 -22.939831721896518
-26.59457375164189 -30.414525966551047 -34.30014094153195 -38.12909752116741 -41.759404971278215 -45.0346470417234 -47.79134766259979 -49.86822235333318
-51.116842441448085 -51.413008082792324 -50.66793054805021 -48.83819509484468 -45.933440641162974 -42.02077132785697 -37.22511588260022 -31.725066382523835
-25.744135103634385 -19.537827858996817 -13.37739399045033 -7.53152043892883 -2.247534981872068 2.2661738096873485 5.854853795309065 8.427769294326342
9.96323300933993 10.507791840861238 10.169669655610427 9.10716695244962 7.513236598450696 5.597832203525655 3.5698156065927265 1.620191755067708
-0.09177982492361991 -1.448434214176629 -2.3788475546801067 -2.859162762227058 -2.908498472707848 -2.581281770871641 -1.9571499460651864 -1.1297136992248085
-0.195460813078995 0.7560769931510833 1.6500366196977438 2.431288957390306 3.066680577016747 3.5446021227919005 3.8723034899010997 4.071565753220909
4.173439422083618 4.212768704627251 4.223152097662023 4.2328575156082024 4.262036244175306 4.3213870254305675 4.412232193754448 4.527802716622659
4.655405375833652 4.779075038036126 4.882303197380907 4.950478244273086 4.97276295412064 4.943253531596611 4.861390940439492 4.731707212660581
4.5630683650355195 4.367610082202248 4.15955092925401 3.954019450720949 3.7659636356649884 3.6091459663406944 3.4951857205261874 3.4326067557817197
3.4258869036907527 3.4745745654810776 3.5726178212429716 3.708113304723895 3.8636986685649504 4.017764463947003 4.146544507499527 4.226972640971326
4.240000094244579 4.173895238300531 4.026942660058694 3.8089587944148207 3.541165286825219 3.254201245985996 2.9843764676613205 2.768611825913183
2.638810641448515 2.616588744339424 2.709311605505434 2.9082248910560793 3.189137499566641 3.5156768640616747 3.844665333699311 4.132755775829509
4.343199083548804 4.451555677445735 4.449327984554337 4.344856844049701 4.1613256227416855 3.932255753445702 3.6953499804554326 3.485849397778054
3.3306530722845196 3.244285468920708 3.227417924061996 3.26813155581587 3.3455554814206323 3.4350395504801554 3.513723269251571 3.56530447080074
3.583005367126603 3.5701398790336043 3.538219487187831 3.503082471046696 3.4799762008156563 3.478767405233839 3.5004454495945083 3.5358164866745483
3.5668144853370904 3.570275688874176 3.5234578476266734 3.410155971503741 3.226067763744595 2.98214337186414 2.705007294975303 2.4341002832568392
2.2158468088132395 2.0957777409963683 2.110000917759521 2.277617080956645 2.5955778188775867 3.037088314927871 3.5540412273331867 4.083243466506929
4.555501293644774 4.90609250124896 5.084878654256755 5.064347164558598 4.844215172919547 4.451810954941408 3.9381662969446154 3.3704747968886295
2.8221682439472033 2.3622337556335538 2.045479555127031 1.905251378672574 1.9496505897957235 2.161696531926964 2.503220561911169 2.9216913305013463
3.3587462751778503 3.7590053507654204 4.077789504508814 4.286634694330843 4.37592240503659 4.3544563363197994 4.2463117249784545 4.085687135670753
3.9107393814223315 3.75745210075911 3.6544820143782317 3.619677949750667 3.6586311865133894 3.7652559160372903 3.9240775738049933 4.113673576540805
