data/geyser-waiting-bw10.0-basegamma-lambda-exp(-12.0)/natparam-value-shift-90.0.npy (npy, 16128 bytes, 1 tensors)

array f8 [2000]
-0.44488518010644373 -0.4762230240452556 -0.5089477946768692 -0.5430815250351655 -0.5786441936297217 -0.6156535532677081 -0.6541249578673085 -0.6940711878126766
-0.7355022744350457 -0.778425324245382 -0.8228443435702362 -0.8687600642857474 -0.9161697713689083 -0.9650671330197316 -1.0154420341348143 -1.0672804139396748
-1.120564108609864 -1.1752706997323736 -1.2313733694789697 -1.2888407633725318 -1.3476368615452277 -1.407720859391885 -1.4690470585227349 -1.5315647689273018
-1.5952182232481782 -1.6599465040597483 -1.725683485029978 -1.7923577868284681 -1.8598927486145964 -1.9282064159161845 -1.9972115456734265 -2.066815629182047
-2.13692093362726 -2.2074245628513207 -2.2782185379366675 -2.349189898136113 -2.420220822607187 -2.491188773340183 -2.5619666596010173 -2.6324230241126862
-2.7024222511411873 -2.7718247965327194 -2.8404874396804902 -2.908263557294413 -2.9750034187395666 -3.0405545026230536 -3.1047618341911196 -3.1674683429929678
-3.2285152401685693 -3.28774241459523 -3.344988847022959 -3.4000930412308037 -3.4528934710964254 -3.503229042399852 -3.5509395680474043 -3.595866255314986
-3.6378522035967933 -3.676742911062684 -3.7123867885168345 -3.7446356786854444 -3.7733453790517757 -3.798376166312373 -3.8195933204299806 -3.8368676462194102
-3.850075990340091 -3.8591017515251416 -3.8638353818434936 -3.8641748767658513 -3.8600262517920783 -3.851304003386282 -3.837931551978855 -3.8198416648152147
-3.7969768564410558 -3.7692897646814316 -3.736743500002234 -3.699311966212406 -3.6569801505499484 -3.6097443812628995 -3.557612550921178 -3.5006043037816568
-3.4387511856639463 -3.3720967549285206 -3.300696653283538 -3.2246186352984267 -3.1439425556813205 -3.058760313523976 -2.9691757529172094 -2.8753045195101095
-2.7772738727924775 -2.6752224540631317 -2.569300010262637 -2.4596670740460667 -2.3464946006773744 -2.2299635625517027 -2.110264502339291 -1.9875970459750079
-1.8621693769051149 -1.7341976732253102 -1.6039055095367019 -1.4715232255164494 -1.3372872634422777 -1.201439477024934 -1.0642264141189628 -0.9258985760200176
-0.7867096562143558 -0.6469157615773611 -0.5067746191383264 -0.3665447716519452 -0.22648476529221284 -0.08685233286621497 0.05209642397193193 0.1901078500257256
0.3269315458201163 0.46232116730820394 0.5960352124683084 0.7278377913087013 0.8574993758109883 0.9847975264308104 1.1095175918605662 1.2314533788412518
1.3504077889614905 1.4661934194928676 1.5786331254986976 1.6875605405889758 1.792820553919995 1.8942697412129519 1.9917767477986956 2.08522262191633
2.1745010967478606 2.2595188198962433 2.340195529313263 2.416464174908981 2.4882709853874587 2.555575480095939 2.6183504259826123 2.6765817400308833
2.7302683378076438 2.7794219290664444 2.8240667615970096 2.8642393148055874 2.899987944749398 2.931372482631076 2.9584637889757346 2.981343265962124
3.0001023305976275 3.014841851624084 3.025671553232627 3.0327093888449497 3.0360808883554284 3.0359184823833516 3.0323608071749675 3.025551993907385
3.015640946206105 3.002780609739631 2.9871272377837954 2.9688396566482425 2.9480785348329874 2.925005659761325 2.899783225840679 2.872573137542858
2.8435363310681936 2.8128321180367806 2.7806175544991873 2.7470468383825875 2.712270738307751 2.676436056499597 2.639685128300137 2.6021553605433283
2.563978810816401 2.5252818093588782 2.486184625081571 2.4468011769196503 2.407238791421392 2.367598007215907 2.3279724266809367 2.2884486148547936
2.24910604533396 2.2100170926110962 2.1712470700185236 2.13285431216768 2.0948903004970845 2.0573998302823355 2.020421217216253 1.9839865414258213
1.948121926578665 1.9128478515080758 1.8781794916293109 1.8441270872217217 1.810696335520646 1.7778888034333988 1.7457023575697121 1.7141316082300762
1.6831683638931167 1.6528020927361808 1.6230203876883138 1.5938094315480953 1.5651544586939394 1.5370402100154479 1.5094513777268048 1.4823730368616452
1.4557910603407436 1.4296925146624062 1.404066033420463 1.378902166031196 1.3541936992499473 1.3299359492676217 1.3061270224057466 1.2827680426535721
1.2598633445674636 1.2374206302728226 1.2154510896087913 1.1939694827011067 1.1729941845347867 1.1525471913856222 1.1326540892017647 1.1133439843666224
1.0946493974797136 1.0766061210985072 1.0592530426235953 1.0426319337612995 1.0267872082287113 1.011765649605593 0.9976161114234969 0.9843891917963674
0.9721368850754288 0.9609122131553818 0.9507688392085356 0.9417606667601035 0.9339414270861539 0.9273642580360502 0.9220812773977514 0.9181431539904565
0.9155986796782258 0.9144943454843428 0.9148739249479831 0.9167780678350255 0.9202439072302582 0.9253046829384175 0.93198938401855 0.9403224131480101
0.9503232753257294 0.9620062933305462 0.975380352070033 0.9904486738503238 1.0072086263167535 1.025651564628788 1.0457627091931272 1.0675210600325045
1.0908993486190184 1.115864027751627 1.1423752998070427 1.1703871834196207 1.1998476183970297 1.2306986084349774 1.262876400908624 1.296311702809703
00000000: 5010 c2b0 ff78 dcbf 201a 7822 707a debf
00000010: 7045 b0e2 4c49 e0bf 98cf a281 ec60 e1bf
00000020: 481e f5d3 4084 e2bf 986e 9e14 6fb3 e3bf
00000030: f032 b176 97ee e4bf d00a 98c7 d435 e6bf
00000040: e0a0 da10 3c89 e7bf 3863 c039 dce8 e8bf
00000050: e8a5 2aa9 bd54 eabf 58b3 05e8 e1cc ebbf
00000060: d09f b344 4351 edbf 9074 d877 d4e1 eebf
00000070: e07b 7925 403f f0bf 1484 98a0 9413 f1bf
00000080: e8cf 78a1 d4ed f1bf e4c2 34a6 e8cd f2bf
00000090: 703d f18f b4b3 f3bf b8fc 067e 179f f4bf
000000a0: 8888 73ab eb8f f5bf 38c3 cf4e 0686 f6bf
000000b0: 083e 0a7d 3781 f7bf 18fa 230f 4a81 f8bf
000000c0: b058 2d8b 0386 f9bf 08bd c010 248f fabf
000000d0: 8c37 3749 669c fbbf 208c d25b 7fad fcbf
000000e0: 38e0 15e6 1ec2 fdbf 18c2 84f8 eed9 febf
000000f0: 90c6 fd17 94f4 ffbf a496 f1a1 d688 00c0
00000100: f288 a000 6a18 01c0 0cab 8e35 cea8 01c0
00000110: a2a1 0ca4 ca39 02c0 96b4 c412 24cb 02c0
00000120: 9591 11bc 9c5c 03c0 7e44 2d61 f4ed 03c0
00000130: 0c6e 4360 e87e 04c0 4869 6ecd 330f 05c0
00000140: a212 a58e 8f9e 05c0 90cc 9a7a b22c 06c0
00000150: 0703 917a 51b9 06c0 34d3 15af 1f44 07c0
00000160: 0ccc a797 cecc 07c0 c2c5 333d 0e53 08c0
00000170: 38c2 5d5f 8dd6 08c0 2e29 82a4 f956 09c0
00000180: f04a 59cc ffd3 09c0 62de 22e5 4b4d 0ac0
00000190: 3c96 3b83 89c2 0ac0 408c fbfa 6333 0bc0
000001a0: d472 b79c 869f 0bc0 c009 bcf2 9c06 0cc0
000001b0: 10b0 1601 5368 0cc0 5cf1 fa86 55c4 0cc0
000001c0: c009 9141 521a 0dc0 3483 f62f f869 0dc0
000001d0: 1842 36d8 f7b2 0dc0 281c fb8c 03f5 0dc0
000001e0: 2052 bcb3 cf2f 0ec0 70bd 210b 1363 0ec0
000001f0: 7022 5af1 868e 0ec0 30be 1caa e7b1 0ec0
00000200: 0801 0da4 f4cc 0ec0 f8e4 35bd 70df 0ec0
00000210: f029 5186 22e9 0ec0 90df 8d84 d4e9 0ec0
00000220: 0030 8971 55e1 0ec0 d0fb 2b79 78cf 0ec0
00000230: 2049 2075 15b4 0ec0 803c 9225 098f 0ec0
00000240: 70aa f066 3560 0ec0 60a2 6364 8127 0ec0
00000250: c066 b0c6 d9e4 0dc0 80ab 44df 3098 0dc0
00000260: 90dd 25cf 7e41 0dc0 208d 83a9 c1e0 0cc0
00000270: 605d b091 fd75 0cc0 20d5 47d4 3c01 0cc0
00000280: 2010 4cfb 8f82 0bc0 00ed 0add 0dfa 0ac0
00000290: a0f4 9ea5 d367 0ac0 606e e5da 04cc 09c0
000002a0: 403b c95a cb26 09c0 001b c753 5778 08c0
000002b0: 40d8 9637 dfc0 07c0 00b2 eaa7 9f00 07c0
000002c0: 806e 3d5d db37 06c0 e0ce ad07 db66 05c0
000002d0: 2086 ed29 ed8d 04c0 609b 50ee 65ad 03c0
000002e0: 0033 11f6 9ec5 02c0 2073 e322 f7d6 01c0
000002f0: e0a7 fb5a d2e1 00c0 006c 618f 32cd ffbf
00000300: 00b9 d61d 72cb fdbf 00d5 340f 46bf fbbf
00000310: 8059 d5d2 98a9 f9bf 805c 0ef0 5b8b f7bf
00000320: 8078 5d54 8765 f5bf 8020 df99 1839 f3bf
00000330: 80e2 c246 1207 f1bf 0068 ed0c f6a0 edbf
00000340: 006b 9cba b92c e9bf 00bc e7ae 88b3 e4bf
00000350: 008b f467 7f37 e0bf 00f4 b033 7875 d7bf
00000360: 0074 fce9 73fd ccbf 00e0 3d59 f43b b6bf
00000370: 0060 65ea 61ac aa3f 0064 493b 7455 c83f
00000380: 0000 554a 72ec d43f 0096 7585 ab96 dd3f
00000390: 001b 1a70 b812 e33f 00d7 ce7a 724a e73f
000003a0: 005b ee87 a270 eb3f 0077 261a 7683 ef3f
000003b0: 800b b684 95c0 f13f 00c0 4a75 08b4 f33f
000003c0: 00a7 9d32 459b f53f 0051 253b 8775 f73f
000003d0: 0063 e6ce 1442 f93f 8098 3d7b 3f00 fb3f
000003e0: 80ed ea9a 64af fc3f 00fe c4c9 ed4e fe3f
000003f0: 80a8 8b4b 51de ff3f 8014 b032 89ae 0040
00000400: 802f bdd4 6065 0140 0035 619a 7e13 0240
00000410: c02a 056f b8b8 0240 8084 592b eb54 0340
00000420: 4099 4e9e fae7 0340 c0c5 ab8e d171 0440
00000430: 0081 48b5 61f2 0440 0007 f4af a369 0540
00000440: 4081 21ed 96d7 0540 4001 7990 413c 0640
00000450: 003d 7650 b097 0640 400f 484d f6e9 0640
00000460: 80f1 2be1 2c33 0740 c05b 8a6a 7373 0740
00000470: 8068 2010 efaa 0740 40a8 8b7f cad9 0740
00000480: c08f 94a6 3500 0840 40b3 9a67 651e 0840
00000490: c092 8c49 9334 0840 c0e3 da23 fd42 0840
000004a0: 40fa dbc6 e449 0840 8044 19a1 8f49 0840
000004b0: c0e8 0362 4642 0840 4070 919a 5434 0840
000004c0: 4078 435c 0820 0840 4028 1fd7 b105 0840
000004d0: 802d 1af7 a2e5 0740 00fa 8201 2fc0 0740
000004e0: a02d e932 aa95 0740 8051 0a5e 6966 0740
000004f0: 00cd 438c c132 0740 e0ea 08a0 07fb 0640
00000500: e067 d7f9 8fbf 0640 e0d9 2020 ae80 0640
00000510: 600f 9a6a b43e 0640 a077 5bb1 f3f9 0540
00000520: c06f 3700 bbb2 0540 0002 a44e 5769 0540
00000530: 104b 8e3c 131e 0540 5028 65d4 36d1 0440
00000540: 50bf a052 0783 0440 6c0a 03f3 c633 0440
00000550: d258 c4c3 b4e3 0340 4279 d57e 0c93 0340
00000560: 208a 5669 0642 0340 6889 5839 d7f0 0240
00000570: d0ac f401 b09f 0240 d005 bb25 be4e 0240
00000580: e08f 6f4f 2bfe 0140 e0ec 0271 1dae 0140
00000590: 801f aac8 b65e 0140 6024 efeb 1510 0140
000005a0: a0bd 8ad8 55c2 0040 60de ce0a 8e75 0040
000005b0: e0b4 6099 d229 0040 800c f2ab 68be ff3f
000005c0: 006a b4e5 812b ff3f 8037 4759 069b fe3f
000005d0: 800d 49f0 050d fe3f 808f 9467 8b81 fd3f
000005e0: 80c5 80b8 9cf8 fc3f 80bc aa87 3b72 fc3f
000005f0: 00fe 6498 65ee fb3f 8035 e643 156d fb3f
00000600: 0053 49f3 41ee fa3f 00ff 709b e071 fa3f
00000610: 00cd dd39 e4f7 f93f 00e3 8851 3e80 f93f
00000620: 0077 d466 df0a f93f 0074 aa79 b797 f83f
00000630: 00d2 e37c b626 f83f 00b0 1cca ccb7 f73f
00000640: 0090 1f91 eb4a f73f 00fa 1c42 05e0 f63f
00000650: 0072 eff1 0d77 f63f 00cd b7b7 fb0f f63f
00000660: 00a5 2b03 c7aa f53f 0011 feea 6a47 f53f
00000670: 0079 da72 e5e5 f43f 00d1 78c8 3786 f43f
00000680: 008b 6577 6628 f43f 00ae 2693 79cc f33f
00000690: 001e 7cd7 7c72 f33f 00f9 89be 7f1a f33f
000006a0: 009a cf8c 95c4 f23f 0091 e152 d570 f23f
000006b0: 00d6 ece4 591f f23f 00d9 20c8 41d0 f13f
000006c0: 002f 2c16 af83 f13f 00aa 0c57 c739 f13f
000006d0: 001c 8451 b3f2 f03f 0052 94d2 9eae f03f
000006e0: 00b2 746c b86d f03f 005b 842d 3130 f03f
000006f0: 00da 909f 78ec ef3f 00a4 29c3 1d80 ef3f
00000700: 004c 14d0 be1b ef3f 008a 3af8 cabf ee3f
00000710: 009c cec5 b26c ee3f 009a 0c44 e722 ee3f
00000720: 00de b621 d9e2 ed3f 00d0 f7ce f7ac ed3f
00000730: 00ac 5598 b081 ed3f 00ee 6dc0 6d61 ed3f
00000740: 0052 2f9a 954c ed3f 006e 47a5 8943 ed3f
00000750: 00ac 73ae a546 ed3f 0054 61f5 3e56 ed3f
00000760: 00b6 bc59 a372 ed3f 00cc 0191 189c ed3f
00000770: 0086 9266 dbd2 ed3f 0054 8507 1f17 ee3f
00000780: 00da 845b 0c69 ee3f 00d4 0c6c c1c8 ee3f
00000790: 00a8 29db 5036 ef3f 00b8 d16a c1b1 ef3f
000007a0: 0079 e4ca 861d f03f 00c0 729d 1169 f03f
000007b0: 00c6 b5ad 71bb f03f 0018 8af6 9014 f13f
000007c0: 00be 18e0 5274 f13f 009e 1f3d 94da f13f
000007d0: 00df 8652 2b47 f23f 001e 47e9 e7b9 f23f
000007e0: 002e 936a 9332 f33f 0060 2706 f1b0 f33f
000007f0: 00af 8ce2 bd34 f43f 00d6 0f57 b1bd f43f
