data/geyser-waiting-bw10.0-basegamma-lambda-exp(-12.0)/natparam-value-shift-110.0.npy (npy, 16128 bytes, 1 tensors)

array f8 [2000]
0	0xbfdda4b52ba22480	-0.46317796002455935
1	0xbfdfb1e4f9bcc450	-0.495232814678336
2	0xbfe0eb12cb217be0	-0.5286954848669403
3	0xbfe208ea44cf31e8	-0.5635882705624313
4	0xbfe332a35840ad80	-0.5999314044651527
5	0xbfe46863c1988c80	-0.6377428799791147
6	0xbfe5aa4c2d52dc08	-0.6770382771709373
7	0xbfe6f877da0bdb38	-0.7178305872647348
8	0xbfe852fc39cdfb98	-0.7601300362583627
9	0xbfe9b9e8933d6290	-0.8039439082886748
10	0xbfeb2d45a2fab8e8	-0.849276369399175
11	0xbfecad153d9d0280	-0.8961282924065728
12	0xbfee3951f2a5a2c0	-0.9444970835875992
13	0xbfefd1eeb0d66b18	-0.9943765119417973
14	0xbff0bb6b362a9960	-1.0457565418124304
15	0xbff193f5e38628e4	-1.0986231696756983
16	0xbff272845ddd24a0	-1.1529582659298185
17	0xbff356ff261304c8	-1.208739422538473
18	0xbff4414a1977eef0	-1.2659398074019315
19	0xbff531444cbc3c90	-1.324528026339781
20	0xbff626c7e92d0538	-1.3844679935867372
21	0xbff721aa0c77e048	-1.4457188117066995
22	0xbff821baab343d18	-1.508234661832665
23	0xbff926c476711a8c	-1.5719647051461463
24	0xbffa308cc4851bc8	-1.6368529964981793
25	0xbffb3ed37d5ea0c4	-1.7028384110690675
26	0xbffc51530a906e60	-1.7698545849479146
27	0xbffd67c04b566dd8	-1.837829870498231
28	0xbffe81ca8ccbf578	-1.906687307345548
29	0xbfff9f1b868b84f8	-1.9763446098007176
30	0xc0005fabadf6af24	-2.0467141714961077
31	0xc000f10e510bd18e	-2.1177030879718535
32	0xc00183823587cf5a	-2.1892131979056275
33	0xc00216d12afc5492	-2.2611411436324227
34	0xc002aac25254638a	-2.3333784515384126
35	0xc0033f1a2b5bdc7d	-2.405811632862934
36	0xc003d39aa5140bf9	-2.4783223053686894
37	0xc004680330e2b6f7	-2.5507873362720335
38	0xc004fc10d8a6bf40	-2.6230790067565124
39	0xc0058f7e57ba2d44	-2.695065198296705
40	0xc006220436e75cb2	-2.7666096009594066
41	0xc006b358eb530495	-2.8375719437322666
42	0xc0074330f85a631e	-2.907808246858976
43	0xc007d13f14614ee1	-2.977171096057518
44	0xc0085d3450882982	-3.045509938388194
45	0xc008e6c0433ec275	-3.1126713994529447
46	0xc0096d9135a528aa	-3.1784996214892844
47	0xc009f15453a7cb03	-3.2428366218167652
48	0xc00a71b5dec0d79d	-3.3055226709938794
49	0xc00aee61634499d0	-3.366396689921409
50	0xc00b6701f01af998	-3.425296665023051
51	0xc00bdb4250c4d44a	-3.4820600805346986
52	0xc00c4acd49873218	-3.5365243667968222
53	0xc00cb54dd593c550	-3.5885273633690886
54	0xc00d1a6f6701907c	-3.6379077956535735
55	0xc00d79de28658bcc	-3.684505763625088
56	0xc00dd3473fd7384c	-3.728163241153231
57	0xc00e2659132a413c	-3.768724584319129
58	0xc00e72c38d226a90	-3.8060370470169076
59	0xc00eb8386364db80	-3.839951302066254
60	0xc00ef66b5ce60970	-3.87032196595208
61	0xc00f2d129891fe20	-3.8970081252625874
62	0xc00f5be6d3e94e28	-3.9198738627981307
63	0xc00f82a3b14bbb10	-3.938788781283968
64	0xc00fa107fda750c8	-3.953628522556844
65	0xc00fb6d5f5415050	-3.9642752800519148
66	0xc00fc3d3874cfb60	-3.970618302380373
67	0xc00fc7ca98039630	-3.9725543857664647
68	0xc00fc28940f04e50	-3.969988353093676
69	0xc00fb3e20f2275f0	-3.9628335173026628
70	0xc00f9bac3ef8dbb0	-3.9510121268935663
71	0xc00f79c3f539bf80	-3.934455791306334
72	0xc00f4e0a752b3a40	-3.913105883962345
73	0xc00f186653623aa0	-3.8869139208175767
74	0xc00ed8c3a4ff4ea0	-3.8558419123090317
75	0xc00e8f142b12c840	-3.8198626866442567
76	0xc00e3b4f79e4ca20	-3.7789601824708967
77	0xc00ddd731bdff9c0	-3.733129709026997
78	0xc00d7582afe20180	-3.6823781720015063
79	0xc00d038802b7e900	-3.6267242634177137
80	0xc00c87932390f460	-3.566198613988078
81	0xc00c01ba73375f00	-3.5008439065239827
82	0xc00b721aade2d520	-3.4307149491165916
83	0xc00ad8d6ef7dd0c0	-3.3558787069578955
84	0xc00a3618b23d2200	-3.2764142918497328
85	0xc0098a0fc76df0a0	-3.1924129085947044
86	0xc008d4f24a655ec0	-3.1039777576623635
87	0xc00816fc8d82dae0	-3.011223893695714
88	0xc0075071013d2580	-2.9142780396256853
89	0xc006819815388260	-2.8132783563490165
90	0xc005aac0136be700	-2.708374168138903
91	0xc004cc3cf561ac40	-2.599725644152869
92	0xc003e66833a78ee0	-2.4875034366140056
93	0xc002f9a08f894d00	-2.371888276460254
94	0xc0020649d737dd60	-2.2530705274509017
95	0xc0010ccca486e600	-2.131249699942373
96	0xc0000d961670dd00	-2.006633925742449
97	0xbffe122f0b333700	-1.8794393956663384
98	0xbffbff8c681c0580	-1.7498897616172542
99	0xbff9e435f10a4800	-1.6182155051833433
100	0xbff7c123cadf2900	-1.4846532749821222
101	0xbff59753d84b9800	-1.349445195106
102	0xbff367c8f91b7000	-1.2128381472348337
103	0xbff1338a4328d200	-1.0750830291191278
104	0xbfedf7446b795200	-0.9364339923000102
105	0xbfe9823bd0545b00	-0.7971476620612918
106	0xbfe50a1868f76400	-0.6574823427318961
107	0xbfe090f9be1e7e00	-0.5176972115768308
108	0xbfd831fef01cf600	-0.378051504598119
109	0xbfce911e9bc6a800	-0.23880369764566467
110	0xbfb9a7685472a800	-0.10021068631854746
111	0x3fa32faa4c92e000	0.037473031852130134
112	0x3fc64581a88c3000	0.1739961693750729
113	0x3fd3c87b65a62e00	0.3091114514033677
114	0x3fdc532bfccdaa00	0.44257640540914167
115	0x3fe25f787dc89500	0.5741541344365544
116	0x3fe68401a7b36700	0.703614070454222
117	0x3fea955cc0a5b700	0.8307327044146575
118	0x3fee91c5548bbb00	0.9552942897115315
119	0x3ff13bc450334800	1.07709151581048
120	0x3ff3228375247a00	1.195926148975218
121	0x3ff4fc5a63091c80	1.3116096371248034
122	0x3ff6c88e22b48a80	1.4239636760400174
123	0x3ff8866f08c5cb00	1.53282073427971
124	0x3ffa355936d37500	1.638024534381941
125	0x3ffbd4b510419b80	1.739430488110628
126	0x3ffd63f7a2376680	1.8369060837343625
127	0x3ffee2a2fe393400	1.9303312235454086
128	0x40002823437ebfc0	2.0195985100799305
129	0x4000d63f97915a00	2.1046134797318246
130	0x40017b7bd4bfe700	2.1852947827400158
131	0x400217b4456ce5c0	2.2615743087633007
132	0x4002aacc2e6eb200	2.333397257569459
133	0x400334add1264740	2.400722154598867
134	0x4003b54a6632d040	2.463520811486916
135	0x40042c9a10cda340	2.5217782318835873
136	0x40049a9bcae42c40	2.5754924631960705
137	0x4004ff554a0f4e80	2.624674395172235
138	0x40055ad2dd90a4c0	2.669347506500884
139	0x4005ad274587f800	2.7095475608939523
140	0x4005f66b839ba740	2.745322254359877
141	0x400636bea5585880	2.7767308156572312
142	0x40066e458893e740	2.8038435621391784
143	0x40069d2a9a27f6c0	2.8267414134450917
144	0x4006c39d8f604e00	2.845515365721212
145	0x4006e1d31a7fbb40	2.8602659292440933
146	0x4006f8049ac519c0	2.871102532520325
147	0x4007066fc8602840	2.878142896112905
148	0x40070d565cca9000	2.8815123795811814
149	0x40070cfdb7ff23c0	2.881343305085892
150	0x400705ae830c4a00	2.8777742612958264
151	0x4006f7b450828940	2.8709493913494555
152	0x4006e35d3b425300	2.8610176686873956
153	0x4006c8f9842dffc0	2.848132164624957
154	0x4006a8db2f45f800	2.8324493115642326
155	0x40068355a0b53100	2.8141281657500485
156	0x400658bd3a533680	2.79332967344709
157	0x40062966fa2073a0	2.7702159444001637
158	0x4005f5a81a3e2c00	2.7449495363448477
159	0x4005bdd5b2e1a2e0	2.717692754279014
160	0x400582445ebd8e60	2.6886069680784175
161	0x40054347e258f2a0	2.657851951922865
162	0x40050132d6c552c0	2.6255852488487506
163	0x4004bc5658202660	2.5919615635691997
164	0x40047501b8456180	2.5571321865247114
165	0x40042b8236119eb0	2.5212444519164237
166	0x4003e022b98b10d0	2.48444123225827
167	0x4003932b95400a80	2.4468604717415587
168	0x400344e24d21b1d0	2.408634760466363
169	0x4002f58963183290	2.3698909513244146
170	0x4002a560298486be	2.3307498210495785
171	0x400254a29bdaac8c	2.2913257766827595
172	0x400203893d7477e8	2.251726608387788
173	0x4001b248feb438c0	2.2120532892941753
174	0x40016113288370e0	2.1723998227226815
175	0x400110154e3036b0	2.1328531368697767
176	0x4000bf7945a183e0	2.0934930267253407
177	0x40006f6525d0c460	2.054392142709318
178	0x40001ffb4b6cff80	2.0156160252226414
179	0x3fffa2b4c704eb40	1.9772231840313026
180	0x3fff073af7efea00	1.9392652211232644
181	0x3ffe6db833545d00	1.9017869954166713
182	0x3ffdd654a7c99000	1.8648268274491784
183	0x3ffd4131e9e15780	1.8284167419382982
184	0x3ffcae6b3eced680	1.7925827458797414
185	0x3ffc1e15efe7fc80	1.7573451396308712
186	0x3ffb9041a6471000	1.7227188582628514
187	0x3ffb04f8cdc3d480	1.6887138402646826
188	0x3ffa7c40fe72dd00	1.6553354205514665
189	0x3ff9f61b6bcffe00	1.6225847445892896
190	0x3ff9728558b0c980	1.5904592003322193
191	0x3ff8f1788f17a680	1.55895286460364
192	0x3ff872ebdaf9b600	1.528056960461413
193	0x3ff7f6d387082b80	1.49776032206384
194	0x3ff77d21da8bd000	1.4680498635252661
195	0x3ff705c79762c800	1.4389110482702563
196	0x3ff690b47730aa00	1.410328355394654
197	0x3ff61dd7a6d74e00	1.3822857396343124
198	0x3ff5ad203f50fd00	1.3547670815749484
199	0x3ff53e7dbb0d8400	1.3277566248655148
200	0x3ff4d1e066fa8700	1.3012393972971381
201	0x3ff46739ce693a00	1.2752016127520847
202	0x3ff3fe7d210ed300	1.2496310511898514
203	0x3ff3979f9268a500	1.2245174140064705
204	0x3ff33298b1da7500	1.1998526523014448
205	0x3ff2cf62baebcc00	1.1756312657932995
206	0x3ff26dfadd18f500	1.1518505703564301
207	0x3ff20e617abab900	1.12851093236128
208	0x3ff1b09a5e9ca400	1.1056159683014357
209	0x3ff154ace7e65e00	1.0831727083767646
210	0x3ff0faa42c139700	1.0611917230357335
211	0x3ff0a28f0ec4fa00	1.0396872116976965
212	0x3ff04c804f499100	1.0186770531809657
213	0x3feff11d17a5fc00	0.9981828176386216
214	0x3fef4da874af8a00	0.9782297400491302
215	0x3feeaedf2e7b1a00	0.9588466556386379
216	0x3fee150513e82800	0.9400658978277079
217	0x3fed8064ff7db600	0.9219231596050008
218	0x3fecf15079f6b800	0.9044573194603345
219	0x3fec681f4a892800	0.8877102332855884
220	0x3febe52ef5c69800	0.8717264938647986
221	0x3feb68e22c18b800	0.856553159833993
222	0x3feaf3a028f58000	0.8422394561748661
223	0x3fea85d40404b200	0.8288364485247826
224	0x3fea1febf58a3e00	0.8163966937735836
225	0x3fe9c2588f7ca600	0.804973869560115
226	0x3fe96d8becc51a00	0.7946223854458481
227	0x3fe921f8d8391600	0.7853969786744415
228	0x3fe8e011ece91800	0.7773522975119249
229	0x3fe8a848b1701000	0.770542475278944
230	0x3fe87b0caff25200	0.7650206982094119
231	0x3fe858ca8c869000	0.760838770355349
232	0x3fe841eb1bc28600	0.758046678751441
233	0x3fe836d27b267000	0.7566921620632456
234	0x3fe837df2d1ca800	0.7568202859013127
235	0x3fe845693a3fd800	0.7584730279620544
236	0x3fe85fc1598f3200	0.7616888760763345
237	0x3fe88730212b3600	0.7665024421527846
238	0x3fe8bbf541280000	0.7729440949042328
239	0x3fe8fe46c9f0b800	0.7810396141192086
240	0x3fe94e507f9ffe00	0.7908098690676866
241	0x3fe9ac333ba29e00	0.8022705235243279
242	0x3fea18045dd59a00	0.8154317696287876
243	0x3fea91cd4e418400	0.8302980926929422
244	0x3feb198b106fac00	0.8468680687923325
245	0x3febaf2de93a9000	0.8651341967820372
246	0x3fec529917dc6a00	0.8850827661547669
247	0x3fed03a2a2db3400	0.9066937619005557
248	0x3fedc213394f5200	0.9299408072789106
249	0x3fee8da628e0e600	0.9547911451729192
250	0x3fef660968b36800	0.9812056584298716
251	0x3ff0256edca92800	1.0091389293252178
252	0x3ff09ddb6cc78400	1.0385393380349797
253	0x3ff11c0de80e3a00	1.0693491997404863
254	0x3ff19fc3a4c7d800	1.1015049397224175
255	0x3ff228b405267600	1.134937305563085
