data/geyser-waiting-bw2.0-basegamma-lambda-exp(-10.0)/natparam-value-shift-104.0.npy (npy, 16128 bytes, 1 tensors)

array f8 [2000]
00000000: b3b0 9367 73f1 2abb 87d8 0e96 9a31 43bb
00000010: 8342 5e68 8b15 5bbb 92d4 f1ef fcec 72bb
00000020: a1c0 6de4 1c32 8abb f834 13b1 82f4 a1bb
00000030: 010b ca8f 8e60 b8bb 3b61 92b9 9a63 d0bb
00000040: 5475 c7c3 46d3 e5bb c847 88e5 ffc8 fcbb
00000050: bdd9 c3b3 b0cc 12bc 8e49 1d9f d151 28bc
00000060: 9d4c 710c 5128 3fbc 9f9c ae2e 45c4 53bc
00000070: dceb 40b7 b3d6 68bc 484d 36d1 3ee9 7ebc
00000080: 02c2 ca97 680c 93bc 6446 d006 ff3f a7bc
00000090: 1a08 3a13 a81a bcbc 39e1 d763 5bd2 d0bc
000000a0: a837 9b5a 49f1 e3bc c949 01a5 e069 f7bc
000000b0: 4927 0ae7 0039 0bbd 16b2 c5f5 4658 1fbd
000000c0: 6d15 4d4e e4de 31bd 68da 3957 fa2d 44bd
000000d0: a882 bd77 cf90 56bd 729a 71aa 1efd 68bd
000000e0: ef61 2ba5 2c67 7bbd 8705 cc23 1ac2 8dbd
000000f0: 5527 73d0 2600 a0bd 0497 fc2d f809 b1bd
00000100: 9496 1366 bcf7 c1bd 5fb6 6897 1dc3 d2bd
00000110: aeee a6f5 7b66 e3bd b980 8e93 2fdd f3bd
00000120: 5c70 4999 c023 04be a413 8937 1238 14be
00000130: ca92 8a73 7d19 24be 72bd 4bf3 d9c8 33be
00000140: d0da 0126 7448 43be e3fa d568 f19b 52be
00000150: 09cd dffe 23c8 61be 308e 73c2 d1d2 70be
00000160: 23e3 ac8c e284 7fbe ae54 f83d c33b 8dbe
00000170: d221 736c 42d8 9abe 3cd9 34be 0f68 a8be
00000180: 07df 64c8 0ff8 b5be b282 4b20 f293 c3be
00000190: 0753 f594 df45 d1be 2204 f3a2 852c debe
000001a0: 7b87 ed70 5717 eabe e2ac 370e 9855 f6be
000001b0: baa8 dab2 14ed 02bf 58cd 7760 9ec0 0fbf
000001c0: 3213 14d1 c85d 1abf 12dd 8775 09ac 25bf
000001d0: 32d2 a11e eaa1 31bf 8126 958c 4066 3cbf
000001e0: 4eab e74e 04a3 46bf bf42 5554 c7db 51bf
000001f0: b630 b9ba 4fe3 5bbf 3f2c 3d5b de8c 65bf
00000200: 21bb 1182 fb7a 70bf 2c19 4d79 c8f1 78bf
00000210: b044 716f 43ae 82bf 421d 3734 b6af 8bbf
00000220: f112 626a fa4c 94bf a407 10be 9874 9dbf
00000230: 8772 7628 5c24 a5bf 6ed9 2e7b 7e06 aebf
00000240: 65b4 c45d 5f17 b5bf 72d8 c252 794f bdbf
00000250: 40a1 8ac6 f624 c4bf b5ef 5459 c062 cbbf
00000260: ca02 d3e2 c768 d2bf ca3c d069 7479 d8bf
00000270: 3673 6e93 0316 e0bf b88f 65b5 c1e7 e4bf
00000280: 1b5b 9cb2 64db eabf d41b d206 380d f1bf
00000290: bd88 96fb fc65 f5bf 4907 efb2 c188 fabf
000002a0: 46be 3fea cd40 00c0 1d94 9f84 edaa 03c0
000002b0: 0b5d 82c0 e780 07c0 fee2 9c46 4dbb 0bc0
000002c0: 0114 0424 0f26 10c0 b674 96f7 068f 12c0
000002d0: 1f49 7116 110a 15c0 6581 e373 e784 17c0
000002e0: 1558 3f8d d3e9 19c0 1a83 75fc 5a20 1cc0
000002f0: ddc4 e4e9 420e 1ec0 8b98 e05d e598 1fc0
00000300: b1bf eb3f 6553 20c0 6f89 114f b790 20c0
00000310: c732 82b8 8a7b 20c0 391c 0448 420e 20c0
00000320: bcb9 349a 7b8e 1ec0 58dd 9c01 c152 1cc0
00000330: da58 9648 9f78 19c0 99b7 85d3 b718 16c0
00000340: 6a8f 86b8 1d54 12c0 4c9e 5233 76a5 0cc0
00000350: c28c 8e11 2a82 04c0 28a4 f658 4b36 f9bf
00000360: 58bc 1840 e02b e5bf 406a 48fa b7c2 c13f
00000370: 204f 648a 7a58 e93f 3c54 d5e7 1d63 f43f
00000380: f087 1ade da26 f93f f87f 1c6c 6af1 fa3f
00000390: 9c00 8d41 bcec f93f 3045 3809 f36e f63f
000003a0: 00f0 4de3 43f3 f03f d085 e24c 3320 e43f
000003b0: c077 1173 b25a c33f 003c 16b9 2f49 d5bf
000003c0: 0069 1dcf 5313 e9bf a067 bcb1 71b0 f2bf
000003d0: 30ec d6a2 435a f7bf 0099 c973 0a3f fabf
000003e0: 6064 a182 1c3e fbbf f0b1 bf4b 015e fabf
000003f0: 7022 834c 00c9 f7bf c0d1 98be e3c6 f3bf
00000400: 40bf ea5c 2969 edbf 2091 6fc6 c4f4 e1bf
00000410: 80d8 1f15 0b0f c8bf a051 ce8e 5e9d c63f
00000420: 50c6 46d7 ff6a e03f 00cc fcc3 a8d2 e93f
00000430: f041 9e78 b3ce f03f a051 42d5 5adf f33f
00000440: a057 de10 bd2c f63f 4035 fd83 ffda f73f
00000450: 8039 4e43 181a f93f 80e8 5255 e61d fa3f
00000460: 40cf 3960 3c16 fb3f 000c f098 d727 fc3f
00000470: 80dc c929 2067 fd3f 00af 1907 58d5 fe3f
00000480: 0012 5fbd 4730 0040 00a4 4c7d 2ef3 0040
00000490: 00ca 54bb 7d9c 0140 807f 7273 1113 0240
000004a0: 8084 de73 5a3f 0240 600f c522 1d0f 0240
000004b0: e04e 451c 9978 0140 a00e 2d1c ac7c 0040
000004c0: c0e2 2406 454f fe3f 00cb 9bc5 2221 fb3f
000004d0: 4094 1e6e 88ae f73f 00a1 2f6b eb41 f43f
000004e0: 50d8 9055 6428 f13f c0e1 67b0 7851 ed3f
000004f0: c8a9 294f abf5 e93f 9019 29fd fd80 e83f
00000500: a010 292d 4001 e93f 00d9 78d1 dc4a eb3f
00000510: e0f0 0cfd 07fc ee3f 20ef f109 4ec3 f13f
00000520: 2051 57ce e01f f43f e026 c1c3 dd39 f63f
00000530: 60cc d3cd cbbd f73f 8065 3ddd 1269 f83f
00000540: c04d cee3 c412 f83f c073 2029 82b1 f63f
00000550: a0b2 99fb 955d f43f 807c ee96 db4e f13f
00000560: 00cc 7933 0aad eb3f 00f8 b1ca dbaa e43f
00000570: 0054 46c8 89c0 dc3f 8085 6ab6 9508 d33f
00000580: 0067 cf2d 2391 ca3f 0091 dc54 dc45 c83f
00000590: 0014 eacb bb58 cf3f 80ba 8dc4 fa68 d73f
000005a0: 0011 324d 492e e13f c0a1 d0d6 ee95 e73f
000005b0: 4006 5571 f424 ee3f e031 dfd0 cc0a f23f
000005c0: 0069 91d0 cc5d f43f f879 05cb 53cc f53f
000005d0: 3289 cd62 f034 f63f 944b 0167 4a96 f53f
000005e0: a029 29cc 110d f43f b878 5d44 08ce f13f
000005f0: 0068 effd 8e3a ee3f a0f6 e4de 8488 e83f
00000600: 80ef b02c 3010 e33f c090 b3bd 8186 dc3f
00000610: 80c1 43ec cde0 d43f 0097 b877 e4fc ce3f
00000620: c0a7 0603 aac8 c83f 00e5 a084 01b5 c63f
00000630: 80eb 66c1 26fe c73f 4022 9f71 85b4 cb3f
00000640: 90bd 0f10 886f d03f 3894 b1c4 4d49 d33f
00000650: ac17 27f1 3cfe d53f 50f5 1fd3 1931 d83f
00000660: c01d 0208 938d d93f 80e2 a9be 2bc5 d93f
00000670: 80f0 c016 4e8f d83f 80ff 31ff 9cae d53f
00000680: 0032 bf7c 01fc d03f 00e7 318a 15ec c43f
00000690: 0028 48a4 db8b a23f 00c8 8931 2be5 bbbf
000006a0: 00e6 e49f 8ea8 d0bf 0062 3199 02b7 d9bf
000006b0: 00cd 0ee0 8677 e0bf 00a4 56e7 9785 e2bf
000006c0: 8041 7738 3370 e2bf 00a6 8dd4 0c8d dfbf
000006d0: 0039 f4ca 08a5 d4bf 00fe d81e 6a4e b1bf
000006e0: 80bf 7d1c 0394 d03f 80bb 2828 ed4d e43f
000006f0: 8033 21dd fa71 f03f 50fd bd82 1072 f63f
00000700: 605e bc41 b68e fb3f c8f1 77a3 393d ff3f
00000710: 0cf2 8eed 3089 0040 0ee5 0bcb 7468 0040
00000720: 6f71 cfc7 9c72 fe3f 1a39 8ffb a52a fa3f
00000730: 44e1 c07d 8a60 f43f 48d0 149c c048 eb3f
00000740: 0063 b77c 0b77 da3f 0072 f8d2 d164 60bf
00000750: 1038 0125 c3cc d6bf 98f4 3439 20d7 e3bf
00000760: 30c2 4efa b6d2 e8bf c038 2eb0 d535 eabf
00000770: 00fc 7233 a448 e8bf e02b 04d0 e3af e3bf
00000780: 80f7 ed83 9da5 dabf 00ba 102b a9e6 c8bf
00000790: 0000 754e 6fc4 923f 009c 0b5b 0fee c83f
000007a0: 00a8 85ce 8028 d43f 801d 4209 f39a d73f
000007b0: 00a0 9a19 b1d0 d63f 8051 e0a5 1d66 d23f
000007c0: 00af de01 4ddf c63f 00d8 fd55 e04d aa3f
000007d0: 00cc fd2e 8476 b2bf 00fa 19a1 64f7 c5bf
000007e0: 007c d79d c3a9 cdbf 00a9 7464 5634 cfbf
000007f0: 0071 a22a c669 cabf 0091 d734 e000 c0bf
-1.1143432767858378e-23 -3.175342065865931e-23 -8.961396308383245e-23 -2.504800107281004e-22 -6.933958179794872e-22 -1.9010721914747923e-21 -5.1620676639521575e-21 -1.3882090450970205e-20
-3.697349388490071e-20 -9.752789759735187e-20 -2.54781700046727e-19 -6.591842095194475e-19 -1.6890507386588207e-18 -4.286215618307533e-18 -1.0772060216917366e-17 -2.6811118225673696e-17
-6.608765951700325e-17 -1.6132918020475284e-16 -3.9002311273076263e-16 -9.337923212964198e-16 -2.214065102608016e-15 -5.198860021108659e-15 -1.20892940196513e-14 -2.7839804030451232e-14
-6.348937791861427e-14 -1.433846900506787e-13 -3.2067739690564407e-13 -7.102229680217481e-13 -1.5576816270814746e-12 -3.383116946017784e-12 -7.276226942195437e-12 -1.5496828537568204e-11
-3.268308953298083e-11 -6.825637785210138e-11 -1.4115597130919648e-10 -2.8905934898863406e-10 -5.86141179493555e-10 -1.176902323983042e-09 -2.3398979666446213e-09 -4.60645548505472e-09
-8.979356980388794e-09 -1.7331123693723442e-08 -3.312118211631602e-08 -6.267247042477128e-08 -1.1741772991132678e-07 -2.1780615976132105e-07 -4.0001814878264135e-07 -7.273700898594621e-07
-1.3094538942724943e-06 -2.333869135604253e-06 -4.1181904884737456e-06 -7.194021733159869e-06 -1.2441243169628493e-05 -2.1299697335591744e-05 -3.609866540206634e-05 -6.056292846414829e-05
-0.00010057962596838886 -0.00016534438579161225 -0.0002690502721016979 -0.0004333407965374306 -0.0006908198391192084 -0.0010899969650674383 -0.0017021444899852196 -0.0026306479357223462
-0.004023535207223345 -0.006089957333477874 -0.009121443594411666 -0.01351873728607578 -0.019824898474797462 -0.028765093422414303 -0.04129302972726117 -0.058643295800197545
-0.08238788642184287 -0.11449392576727904 -0.15737805075083067 -0.21395115243819665 -0.28764531279379624 -0.3824130090078596 -0.5026872519989414 -0.6532906096367617
-0.8392814148417956 -1.0657272592959446 -1.3373994662911592 -1.6583878507230614 -2.031642751760759 -2.458460842246963 -2.93794203183973 -3.466455985701372
-4.037167132138166 -4.639675015028095 -5.259830809273153 -5.879789171944457 -6.478346068373885 -7.0315970846866325 -7.513927130306198 -7.8993124645550195
-8.162881848838738 -8.282648535624245 -8.241292730229715 -8.02784943628477 -7.639143380611525 -7.08081438560415 -6.367795118500192 -5.5241387415279855
-4.582144625866798 -3.5807918557727927 -2.5635568019511945 -1.575755450738379 -0.6616059543502031 0.1387548420032818 0.792050619408176 1.2741984420765808
1.5719860721514998 1.683939382848619 1.6202967224672085 1.4020872459553395 1.0593909148292369 0.6289307119042693 0.15120535486761177 -0.33259194445503226
-0.7836092992031638 -1.1680771773157872 -1.4595371590537631 -1.6403908274601804 -1.7026639082671622 -1.6479504546106192 -1.4865725506553211 -1.236057037848795
-0.9190871062073498 -0.5611289859485034 -0.1879590848108741 0.17667753193803737 0.5130614475840023 0.8069652393227216 1.0504641257904233 1.2420299845153764
1.3859224947859516 1.4909663348983742 1.5688707951663616 1.632299741073922 1.692928672678093 1.7597270940902945 1.8376771576274962 1.9270859029156213
2.0235743326795728 2.1187410153402197 2.2014116893053597 2.259310628825858 2.2809342434198356 2.2573797909152944 2.1838857849742084 2.0608751488924355
1.894352935791332 1.6955898017010327 1.4801105786839486 1.2660936533885092 1.0723613111890877 0.9161952443528705 0.8112389131686593 0.7657461113492889
0.7814026720084435 0.8528884974719233 0.9682655279534877 1.1101818455198966 1.2577827511023045 1.3891275068912634 1.4838369407778131 1.5256527559452877
1.5045823000590275 1.418337021495276 1.2728481128826061 1.0817523856892706 0.8648730283151735 0.6458567580118597 0.44925159986570407 0.2973989755065176
0.20755424248527987 0.18963197845108226 0.24489543396717295 0.36578244394960535 0.5369001872755064 0.7370523639302107 0.9420110906141375 1.1276367339188411
1.2729004046619252 1.362384598781885 1.387924562405328 1.3491920493731628 1.2531908011465944 1.1128008528244617 0.9446482619925973 0.7666649201780338
0.5957260964273559 0.44570964360742593 0.3262209708473378 0.24209266515497774 0.19362378261331337 0.17739886260986992 0.18744358485659163 0.2164465718071984
0.25680734222893253 0.301349107822094 0.34364245939320415 0.3779968797460542 0.39926601202065726 0.4026593553494777 0.3837466451839262 0.3387825481549882
0.26538121397314285 0.16345471618461005 0.0362232816733723 -0.1089655872290507 -0.26028791060124945 -0.40179505310291574 -0.5145906807069025 -0.5788077848748117
-0.5761962988708973 -0.49298401600989905 -0.32257289714551973 -0.06760276082149375 0.2590339449152381 0.6345124992711675 1.0278271329763982 1.4028477770915124
1.72234178236058 1.9524475465287754 2.066987853932238 2.05100401525545 1.9029815487948232 1.6354121996442417 1.273569575523724 0.8526309059584571
0.41351592234927637 -0.0020011995436688412 -0.35624769796129474 -0.6200104825326376 -0.7757220162221241 -0.8190716210390505 -0.7588673596254694 -0.615220934182954
-0.4163583553671444 -0.19453920939254488 0.01832746425975529 0.19476501412938774 0.314972116166814 0.3688323583996507 0.3564875364340878 0.2874826545605842
0.1786895999078908 0.05137539910985822 -0.07212091586352187 -0.17161233774454843 -0.2317432900153733 -0.24378471283973369 -0.20635296899570932 -0.12502672748735932
