data/geyser-waiting-bw4.0-basegamma-lambda-exp(-10.0)/natparam-value-shift-120.0.npy (npy, 16128 bytes, 1 tensors)

array f8 [2000]
-3.112123804939507e-05 -3.984708001497235e-05 -5.0889454672571586e-05 -6.482598705935273e-05 -8.236806505530145e-05 -0.00010438912616898362 -0.00013195825640581216 -0.0001663799401826618
-0.0002092408967011574 -0.00026246503754168653 -0.0003283776803962748 -0.00040978025209992524 -0.0005100368070158916 -0.0006331737701606061 -0.0007839943831360305 -0.0009682093789673038
-0.0011925854323544373 -0.0014651129166927074 -0.0017951944395902893 -0.0021938555147035205 -0.0026739785489168343 -0.003250561068986439 -0.003940998769125028 -0.0047653935189319995
-0.005746885918186092 -0.0069120113107324676 -0.008291077364795247 -0.009918560384344409 -0.011833516431231764 -0.014080002109864976 -0.01670749849887006 -0.019771330216542947
-0.023333069994269227 -0.027460917427064746 -0.032230038803565994 -0.03772285312853148 -0.04402924768783515 -0.05124670482725362 -0.059480320089850186 -0.06884269055943773
-0.07945365127484016 -0.09143983700399715 -0.1049340465961821 -0.12007438766539018 -0.1370031805989736 -0.15586560292962476 -0.17680805804497948 -0.199976256113766
-0.22551300003942312 -0.25355567524719425 -0.2842334491758816 -0.31766419445386684 -0.35395115882435857 -0.39317941483681645 -0.43541213298263515 -0.48068673311482213
-0.5290109803944435 -0.5803591033401908 -0.634668022463222 -0.6918337880452126 -0.7517083344257917 -0.8140966652422494 -0.8787545889328889 -0.945387125999707
-1.013647708570387 -1.0831382882853018 -1.1534104601031308 -1.2239676969899027 -1.2942687734541443 -1.3637324344605204 -1.4317433404848048 -1.4976592896088237
-1.5608196840129849 -1.6205551716003868 -1.6761983545556642 -1.7270954163548213 -1.7726184782121117 -1.8121784564357375 -1.8452381550358883 -1.871325294642211
-1.890045150827223 -1.9010924537778409 -1.9042621883103212 -1.899458929767411 -1.886704358458239 -1.8661426138448634 -1.8380431801793033 -1.8028010379315216
-1.760933869897571 -1.713076176683638 -1.659970232217641 -1.60245389447909 -1.5414453777562316 -1.477925188017192 -1.4129155196474237 -1.3474575067904668
-1.282586812570572 -1.2193081212076828 -1.1585691681114758 -1.1012349982584428 -1.0480631805809058 -0.9996807232077911 -0.9565634291866107 -0.9190184034406519
-0.8871703685501267 -0.8609523697038455 -0.8401013489182576 -0.8241589473218305 -0.8124777547979689 -0.8042330722218916 -0.7984400873206576 -0.7939761958555696
-0.7896080308592744 -0.7840225998407591 -0.7758617790669011 -0.7637592809729421 -0.746379100836025 -0.722454366862638 -0.6908254678083434 -0.6504763171976915
-0.6005676350304476 -0.5404661871645988 -0.4697690186308634 -0.3883218478451056 -0.29623095060524207 -0.19386805114445238 -0.08186794652801055 0.03888118648920624
0.16725462388097156 0.30191466027733327 0.4413402848686445 0.5838621436468401 0.7277017893367983 0.8710140771151771 1.0119314582751855 1.148608859641385
1.279267816509126 1.4022385522743193 1.5159987681071883 1.6192080186657591 1.7107367009293881 1.7896888672780165 1.8554182841161833 1.9075373858213283
1.9459190120128653 1.970691055142808 1.982224376271347 1.9811145609909886 1.9681582769544832 1.944325152473283 1.9107262166966734 1.8685800219644477
1.81917760579816 1.7638474431780296 1.7039214905390665 1.6407033343864441 1.5754393341247663 1.5092934966128624 1.4433266460910872 1.3784802652691681
1.315565189682232 1.2552551461270625 1.198084944962993 1.1444529725148698 1.0946274899648927 1.0487561339954574 1.0068779355687951 0.9689371286447148
0.9347980107196214 0.9042601406304218 0.8770732134162866 0.8529510331646675 0.831584107546175 0.8126505062289621 0.7958247530486906 0.7807846520101087
0.7672160733047786 0.7548158414032944 0.7432929674594302 0.7323685482489317 0.7217747103273489 0.7112530089527205 0.7005526958845181 0.68942924908729
0.6776435125774576 0.6649617292879348 0.6511566679804588 0.6360099518156588 0.6193155965909547 0.6008846665214911 0.5805508603793292 0.5581767561084021
0.533660372399936 0.5069416550683066 0.4780084673209686 0.44690165797205594 0.4137188009007602 0.37861624196898447 0.3418091543605577 0.30356938695442537
0.2642209890189662 0.2241334035400513 0.18371243566407713 0.14338921653441616 0.10360749065158359 0.06480965144977802 0.027422030164778732 -0.00815999691663194
-0.041586481394269015 -0.07256634403887574 -0.10087918919341377 -0.12638494059949323 -0.1490308160775342 -0.16885525071106144 -0.1859884899606925 -0.2006497009939352
-0.2131405872973815 -0.22383563265807993 -0.23316923993814953 -0.24162016181321633 -0.24969373912811932 -0.2579025626074838 -0.2667462509125471 -0.2766910889594385
-0.2881502925792887 -0.30146565774582257 -0.3168913147184327 -0.3345802407389016 -0.35457409180932586 -0.37679679802590726 -0.4010522324133916 -0.42702611535619894
-0.4542921613196569 -0.48232231761690514 -0.510500792632385 -0.5381414290642823 -0.564507851894021 -0.5888357157927118 -0.6103562965292753 -0.6283206186998314
-0.642023289658681 -0.6508252176818985 -0.6541744306651935 -0.6516242785081232 -0.6428483950394934 -0.6276519103027312 -0.6059785367649511 -0.5779132984539075
-0.5436808246944196 -0.503639284249985 -0.45827018563988986 -0.4081644097078936 -0.35400496618285615 -0.2965470726021948 -0.23659623798204166 -0.1749850923192895
00000000: 3648 d998 0551 00bf ac9d 793e 2fe4 04bf
00000010: 963d 2659 44ae 0abf 3c1b 37fa 65fe 10bf
00000020: 3392 2495 a097 15bf a50a 2588 6f5d 1bbf
00000030: a235 99ca c84b 21bf f511 b8cd c8ce 25bf
00000040: 07c0 db9d f56c 2bbf 5d68 a9c0 6e33 31bf
00000050: 37d7 e565 4385 35bf 2e50 04c8 f8da 3abf
00000060: 0e30 f4b3 7fb6 40bf 9fe0 5851 72bf 44bf
00000070: e93f 2f1e 9fb0 49bf 26ee 25cf edb9 4fbf
00000080: b45b 7fdb 108a 53bf e923 fa03 2101 58bf
00000090: a7b1 1c5a 9769 5dbf f776 0236 d9f8 61bf
000000a0: 1ca5 5e4d bde7 65bf bcb0 84af eba0 6abf
000000b0: 0f43 3bcd 6f24 70bf eee7 0f95 e084 73bf
000000c0: a2c3 28f1 0b8a 77bf 6583 77e8 c44f 7cbf
000000d0: ea0f 0b91 e9fa 80bf 9f14 cba3 2e50 84bf
000000e0: 02f1 8cb0 2b3c 88bf da41 b7e4 f9d5 8cbf
000000f0: 153b 9a3e c51b 91bf 76c0 b682 ef3e 94bf
00000100: 26a4 29d2 9fe4 97bf 30d1 11f9 b61e 9cbf
00000110: 8e62 38a5 7480 a0bf ca69 ffe8 6850 a3bf
00000120: 3502 c665 008b a6bf 268a 8512 023d aabf
00000130: e441 155b 3474 aebf a27c 85b0 ac9f b1bf
00000140: 38f2 c511 1357 b4bf 47d6 7be5 9968 b7bf
00000150: 4017 5e2a f5dc babf fb2d 1cf0 31bd bebf
00000160: f26e 0ffa 5189 c1bf 3eb8 9371 67f3 c3bf
00000170: 7579 7c7d a5a1 c6bf 3b19 fe6b d298 c9bf
00000180: 65ff fe27 9cdd ccbf aab8 3995 413a d0bf
00000190: adf0 287e e130 d2bf de87 9233 9c54 d4bf
000001a0: 020b e2c2 22a7 d6bf 91cf 0bfe d929 d9bf
000001b0: 124a dcd9 cadd dbbf f859 9649 92c3 debf
000001c0: e99b 806f a8ed e0bf 2d06 1941 4d92 e2bf
000001d0: 307d 0950 334f e4bf e480 bd9c 8023 e6bf
000001e0: 37a9 0fa3 fe0d e8bf 9cf0 1f73 140d eabf
000001f0: 60a7 95f1 c11e ecbf 314d 8780 9c40 eebf
00000200: 389a dfa8 e637 f0bf 52b1 53d0 8854 f1bf
00000210: bc1d d086 5e74 f2bf c2e9 de26 5f95 f3bf
00000220: 6983 632c 53b5 f4bf d309 e819 d9d1 f5bf
00000230: 545e 7ab4 6be8 f6bf 54ba 5696 69f6 f7bf
00000240: 069f 9c0f 1ef9 f8bf 8032 7642 cbed f9bf
00000250: 38cf a65d b5d1 fabf 210c a5cd 2ea2 fbbf
00000260: 0a4d 8331 a55c fcbf 1c84 4ed6 aefe fcbf
00000270: 485e 9371 1886 fdbf 5da7 caca f2f0 fdbf
00000280: ce42 ecfb 9f3d febf 1a5f baeb df6a febf
00000290: e8d5 dca0 db77 febf 9923 f70b 2f64 febf
000002a0: e0c7 cce8 f02f febf 9a2b 825b b8db fdbf
000002b0: 5818 38f7 9f68 fdbf 98c5 b1e6 45d8 fcbf
000002c0: 820f 5afe c82c fcbf 6a9b a690 c268 fbbf
000002d0: 2c55 3bf2 3c8f fabf 1e2b e2b1 a6a3 f9bf
000002e0: ba88 e0a0 c2a9 f8bf f07e c7e1 94a5 f7bf
000002f0: 3058 ce4d 4d9b f6bf d4a2 469a 2f8f f5bf
00000300: 0458 e4bf 7985 f4bf e458 853b 4982 f3bf
00000310: 5c15 f3d2 7f89 f2bf a8b0 eb96 a89e f1bf
00000320: a8c9 cbe5 ddc4 f0bf 98cf 936d 62fd efbf
00000330: d0fe 9ce8 2a9c eebf 3864 6648 9968 edbf
00000340: e0e5 dc1c b363 ecbf c055 e9fb eb8c ebbf
00000350: a8bd 5d39 1ce2 eabf 607f ae95 825f eabf
00000360: 8cb6 3259 d1ff e9bf 88bf f1fe 46bc e9bf
00000370: 8871 db39 d28c e9bf b611 60c4 4068 e9bf
00000380: a762 a60f 7844 e9bf b482 3490 b616 e9bf
00000390: 04e1 e914 dcd3 e8bf c872 b94d b770 e8bf
000003a0: 9046 906c 56e2 e7bf 98e0 d09e 581e e7bf
000003b0: 3062 ef02 3e1b e6bf b0f8 a5b5 b3d0 e4bf
000003c0: 20bd ef9d d937 e3bf 90e7 cebe 7f4b e1bf
000003d0: 8063 ec12 b210 debf 004a 34e1 43da d8bf
000003e0: 8066 3aa9 72f5 d2bf 80cc b315 abd0 c8bf
000003f0: 00b1 ed38 4cf5 b4bf 0038 cd20 3ce8 a33f
00000400: 0037 d679 9968 c53f 00be 04de 9152 d33f
00000410: 00c3 7a52 eb3e dc3f 80bd 8aa9 ffae e23f
00000420: c026 4e43 5549 e73f 0017 f2e9 58df eb3f
00000430: 405e 710a df30 f03f c0e3 00af b360 f23f
00000440: 60b6 ab87 e177 f43f 6056 33b1 916f f63f
00000450: 20bf 9cec 8741 f83f 4072 d9aa 46e8 f93f
00000460: 40f0 6872 2d5f fb3f 0097 2fcb 90a2 fc3f
00000470: 00df 2a15 cbaf fd3f c0ff ffeb 4585 fe3f
00000480: 8028 54f9 7b22 ff3f c0ba 0558 f387 ff3f
00000490: 00b6 56e8 30b7 ff3f 005f 912e a5b2 ff3f
000004a0: 80f0 8d88 937d ff3f 809b eab0 f41b ff3f
000004b0: 0027 45a7 5592 fe3f 80bd 442a b4e5 fd3f
000004c0: 804c 28fa 591b fd3f 6053 b918 b838 fc3f
000004d0: e011 4d2e 4343 fb3f 000c ba23 5240 fa3f
000004e0: c05d 0ee0 ff34 f93f a048 00f0 1026 f83f
000004f0: 6081 66ae dd17 f73f 2033 9852 410e f63f
00000500: 400f 9715 8e0c f53f e005 8c6b 8615 f43f
00000510: e022 871e 5b2b f33f 802e 8ceb ad4f f23f
00000520: 803a 6b1d 9883 f13f 90d6 0f83 b4c7 f03f
00000530: c04f c509 2c1c f03f 2018 ed6f 8801 ef3f
00000540: 2003 8d84 dde9 ed3f 50b0 62f6 b2ef ec3f
00000550: 3042 fad7 fb10 ec3f 5803 11f7 5f4b eb3f
00000560: e817 3946 569c ea3f 7d99 6aa2 3b01 ea3f
00000570: f81f f678 6577 e93f e044 3318 30fc e83f
00000580: f0e7 f9b8 088d e83f 508e 2a8d 7327 e83f
00000590: b0b8 5255 0ec9 e73f 2024 6b2a 906f e73f
000005a0: 60f2 fd46 c718 e73f e045 94ab 95c2 e63f
000005b0: 405b be7c ed6a e63f 408b b7ed cd0f e63f
000005c0: 60bc 9b72 41af e53f e043 0cd2 5d47 e53f
000005d0: 808c 3182 46d6 e43f 4052 df8a 315a e43f
000005e0: 2059 28f1 6ed1 e33f e015 ec7a 723a e33f
000005f0: e0cd df65 df93 e23f 40ef 1b80 95dc e13f
00000600: 0020 d4ea be13 e13f a0f3 afb4 dd38 e03f
00000610: 80b2 96d3 b097 de3f 8029 6169 099a dc3f
00000620: 80fb e66b 5e7a da3f 0070 3f9e 3f3b d83f
00000630: c0ed dc80 33e0 d53f 404e 424b ae6d d33f
00000640: 0035 b026 ffe8 d03f 00a6 1243 67b0 cc3f
00000650: 00da 859b e383 c73f 00a4 ceed 935a c23f
00000660: 001c f83f 0586 ba3f 0024 7185 5d97 b03f
00000670: 0098 fd4a 8514 9c3f 00a0 233f 30b6 80bf
00000680: 0094 16c3 d24a a5bf 00f0 6f3a b593 b2bf
00000690: 00c6 6ef2 37d3 b9bf 0076 4ab9 612d c0bf
000006a0: 0019 9318 7113 c3bf 00ec c781 0c9d c5bf
000006b0: 0024 e888 78ce c7bf 004e dcaf e3ae c9bf
000006c0: 003d f2d5 3048 cbbf 0014 f960 a5a6 ccbf
000006d0: 00d8 fb59 7dd8 cdbf 0060 85d2 68ed cebf
000006e0: 001e c9e5 f6f5 cfbf 000a fdbf 7981 d0bf
000006f0: 0000 00de 5e12 d1bf 003a 8b8a 4eb5 d1bf
00000700: 007f bdec 0d71 d2bf 00ab 389d 364b d3bf
00000710: 0089 4682 f247 d4bf 0021 f73d c369 d5bf
00000720: 001e 1588 57b1 d6bf 0090 3051 701d d8bf
00000730: 0003 8dfb d6aa d9bf 008a ff57 6554 dbbf
00000740: 009d ec6d 1f13 ddbf 00ea 126d 5ede debf
00000750: 8005 1ec2 0556 e0bf 8085 ce5f 7438 e1bf
00000760: 800a 47c5 7210 e2bf 807c c1ff bdd7 e2bf
00000770: 8007 90ed 0988 e3bf 00fc 96d7 331b e4bf
00000780: 0057 0b6d 748b e4bf 0063 2b68 8fd3 e4bf
00000790: 00c4 3237 ffee e4bf 801a af28 1bda e4bf
000007a0: 0062 1fcc 3692 e4bf 80b5 8075 b915 e4bf
000007b0: 0078 af19 2d64 e3bf 800e 9907 447e e2bf
000007c0: 80cb 3054 d565 e1bf 80b4 da21 d01d e0bf
000007d0: 0088 0379 4c54 ddbf 008a c59d 5d1f dabf
000007e0: 0020 1872 04a8 d6bf 0043 a392 a0fa d2bf
000007f0: 00a8 3e18 c948 cebf 0042 6658 e965 c6bf
