data/geyser-waiting-bw4.0-basegamma-lambda-exp(-10.0)/natparam-value-shift-105.0.npy (npy, 16128 bytes, 1 tensors)

array f8 [2000]
000000 2f 73 a3 ff 5a 68 00 bf ca 72 e3 a9 63 02 05 bf
       -3.1295086914551156e-05 -4.007212304355452e-05
000010 40 5b c7 7e 45 d5 0a bf 0d 1e f1 6b 85 17 11 bf
       -5.118006069764489e-05 -6.520034638512352e-05
000020 fd 97 7e 79 e9 b7 15 bf 6b 0b 5c c1 d2 86 1b bf
       -8.284914508624448e-05 -0.0001050058493455138
000030 c5 80 51 99 3f 66 21 bf 3f 64 04 a9 8b f0 25 bf
       -0.00013274694780119313 -0.00016738610111913414
000040 69 99 10 cf ec 97 2b bf a1 e7 0b b5 b4 4e 31 bf
       -0.000210521371202431 -0.00026409065053167353
000050 f9 be 88 b4 cd a7 35 bf b8 73 d1 e2 9b 06 3b bf
       -0.00033043644046680494 -0.0004123812275958444
000060 eb 0c ee 24 ff d1 40 bf 06 f9 b2 7b 04 e2 44 bf
       -0.0005133148023194455 -0.0006372949495910003
000070 1d 5b 80 aa fa db 49 bf 41 02 f9 85 2c f0 4f bf
       -0.0007891630129986702 -0.0009746758841587337
000080 02 76 3b 8e ea ab 53 bf 90 49 96 e9 45 2b 58 bf
       -0.001200655992696809 -0.0014751608599437895
000090 c2 49 64 e1 ee 9d 5d bf 55 7e ba d4 45 19 62 bf
       -0.0018076737229121152 -0.002209316624273853
0000a0 4f 3a c3 2c d0 0f 66 bf 14 13 40 d1 53 d2 6a bf
       -0.002693087188254929 -0.0032741200502662913
0000b0 e4 56 3f aa d1 42 70 bf 60 c2 30 0e 27 aa 73 bf
       -0.003969973567981209 -0.00480094200160916
0000c0 9d e3 4b bb aa b7 77 bf 18 be 64 4c 77 87 7c bf
       -0.005790392799775027 -0.006965127953932469
0000d0 03 b1 e2 23 d4 1c 81 bf cb fb 4a 27 63 79 84 bf
       -0.008355767579211198 -0.00999715293562344
0000e0 dd c3 00 bd 1b 6e 88 bf 46 59 9c 43 59 12 8d bf
       -0.011928765015996429 -0.014195153594795184
0000f0 5d 6f 44 c5 2c 40 91 bf db 65 a2 33 bb 6a 94 bf
       -0.01684637025856205 -0.019938397432815207
000100 25 5d 77 bb 2e 19 98 bf c5 52 78 43 a2 5d 9c bf
       -0.02353356379702833 -0.027700934761088165
000110 44 6f 96 38 06 a6 a0 bf b9 4b d5 e0 29 7d a3 bf
       -0.0325166648937896 -0.03806429738565193
000120 cf 56 b5 fa 2e c0 a6 bf 8e 8c 7f c9 0c 7c aa bf
       -0.044434993843123764 -0.05172767600722593
000130 ee ce da 14 c0 be ae bf 25 81 98 f9 a3 cb b1 bf
       -0.06004905943464488 -0.06951355785031817
000140 93 aa c3 be ce 8a b4 bf 58 cf f2 d3 52 a5 b7 bf
       -0.08024303586322849 -0.09236638712428424
000150 9f 53 3b 3c 0e 24 bb bf 1d a6 e4 6d 3c 10 bf bf
       -0.10601891489507274 -0.12134149249018163
000160 b1 f1 b9 17 b2 b9 c1 bf 19 6d 4b 8a a0 2b c4 bf
       -0.138479482255105 -0.15758139374416016
000170 3d 4d 29 2a d4 e2 c6 bf ea 82 3a 61 34 e4 c9 bf
       -0.1787972646585362 -0.2022767519711331
000180 f1 e6 a8 e5 92 34 cd bf bd b6 9c 5a 4b 6c d0 bf
       -0.22816692556244036 -0.2566097626575859
000190 a1 eb c8 4c 52 6a d2 bf 17 d2 20 a9 62 96 d4 bf
       -0.28773934839744625 -0.32167879597116794
0001a0 66 55 72 ca 44 f2 d6 bf 4f a4 8c 14 76 7f d9 bf
       -0.35853690881898215 -0.3984046173741875
0001b0 e7 76 7a 3e 19 3f dc bf 71 f8 56 13 e6 31 df bf
       -0.4413512334957503 -0.487420576940969
0001c0 20 d8 32 78 0c 2c e1 bf 56 26 aa 29 b1 d8 e2 bf
       -0.5366270396832569 -0.5889516652834554
0001d0 fe 88 ad 6b 6b 9e e4 bf f4 b3 6f 05 70 7c e6 bf
       -0.6443383315165929 -0.7026901346376904
0001e0 fc 9f 69 48 97 71 e8 bf 1e 0d 66 04 57 7c ea bf
       -0.763866082602362 -0.8276782117758648
0001f0 d4 ef 18 9f bd 9a ec bf 43 a2 b6 90 6e ca ee bf
       -0.8938892466899184 -0.9622109247621399
000200 73 3a 4a 43 50 84 f0 bf 49 03 45 b5 0e a9 f1 bf
       -1.0323031071199267 -1.1037737923472426
000210 10 5e af 44 a2 d1 f2 bf 74 e9 f0 85 07 fc f3 bf
       -1.17618014173593 -1.2490306121895545
000220 b4 72 a2 76 0b 26 f5 bf e1 04 f4 46 50 4d f6 bf
       -1.321788276115666 -1.393875386391578
000230 9e b0 03 7a 53 6f f7 bf 8a 65 e2 5d 75 89 f8 bf
       -1.4646792188823734 -1.533559195266522
000240 e2 08 0b d3 01 99 f9 bf a6 99 40 51 3a 9b fa bf
       -1.5998552554961454 -1.6628974126739222
000250 08 95 57 0d 61 8d fb bf ae f3 9d 18 c5 6c fc bf
       -1.7220163842369534 -1.7765551530458015
000260 8a 31 b0 47 cf 36 fd bf fa 33 e7 a3 0f e9 fd bf
       -1.8258812713930603 -1.8693996813265117
000270 0f 8c 88 20 4b 81 fe bf 14 8e e4 43 89 fd fe bf
       -1.906565787395042 -1.9368984844267105
000280 bd 08 fa 6c 21 5c ff bf 39 fc 73 58 c7 9b ff bf
       -1.9599928147222692 -1.9755319075773186
000290 4b 1b 43 84 96 bb ff bf 5b b6 0b 10 1c bb ff bf
       -1.98329784073731 -1.983181059530941
0002a0 c4 31 6c ba 5e 9a ff bf e0 f1 fa 9f e4 59 ff bf
       -1.9751879961141734 -1.959446549342026
0002b0 80 2b ea 68 b6 fa fe bf 3a 7b 91 9d 5f 7e fe bf
       -1.9362091158133978 -1.9058529047976678
0002c0 50 ec a1 e8 eb e6 fd bf fa 28 55 1f e1 36 fd bf
       -1.8688773238379959 -1.8258982871944327
0002d0 36 95 30 fc 35 71 fc bf a2 68 8e 8f 45 99 fb bf
       -1.7776393748438983 -1.7249198539416644
0002e0 82 81 80 81 bf b2 fa bf 74 39 25 5a 95 c1 f9 bf
       -1.668639665476889 -1.609761573915958
0002f0 98 05 70 1f e5 c9 f8 bf 18 f5 e3 b0 e1 cf f7 bf
       -1.5492907741575888 -1.4882523450645007
000300 f4 28 ed 61 b9 d7 f6 bf f4 2a 81 69 7b e5 f5 bf
       -1.427667028927826 -1.368525898101038
000310 08 89 8e d0 fc fc f4 bf d0 05 ae 97 bd 21 f4 bf
       -1.3117645403622777 -1.2582374501219995
000320 ac 02 b1 d6 ce 56 f3 bf 68 98 63 9d ba 9e f2 bf
       -1.2086933504471444 -1.1637521884927313
000330 f8 71 9a 5b 6e fb f1 bf a4 84 0f 8f 28 6e f1 bf
       -1.1238845422986952 -1.0893941486649874
000340 08 3c 79 67 6a f7 f0 bf 2c ec ba fc ed 96 f0 bf
       -1.060404209321634 -1.0368480560562245
000350 72 a7 53 98 a1 4b f0 bf 72 10 cf 72 a8 13 f0 bf
       -1.018464655901394 -1.0047993168564315
000360 a8 1c 69 41 c2 d8 ef bf ec 41 7c 82 e3 a4 ef bf
       -0.9952098157454161 -0.9888780163328739
000370 94 f5 5c aa b3 83 ef bf 8e 6f 8c ed 12 6c ef bf
       -0.9848268821148616 -0.9819426192875527
000380 f9 70 24 fd fa 53 ef bf 2f 79 4c ea bf 30 ef bf
       -0.9790015167414189 -0.9747008873125987
000390 ec ea c2 12 58 f7 ee bf 68 ef 41 3e a9 9c ee bf
       -0.9676933638032472 -0.9566236701934772
0003a0 b0 ca 6f d9 d8 15 ee bf 40 60 e2 0e 9d 58 ed bf
       -0.9401668783960613 -0.917067078657972
0003b0 50 68 ae 63 8c 5b ec bf b0 06 a7 74 69 16 eb bf
       -0.8861753413104996 -0.8464858320587236
0003c0 c0 0f df 7c 68 82 e9 bf 10 e6 81 6d 6c 9a e7 bf
       -0.7971689642804378 -0.7376005305115445
0003d0 40 1d 55 92 39 5b e5 bf 60 6a 06 04 9c c3 e2 bf
       -0.6673858507209971 -0.5863781050314394
0003e0 80 92 fa ff 00 a9 df bf 40 7f 67 44 fd 21 d9 bf
       -0.4946901798050831 -0.3926995437632179
0003f0 80 9b fd da a7 fc d1 bf 00 e4 1a 18 3e 8f c4 bf
       -0.28104587922864965 -0.1606214158726118
000400 00 10 59 c7 ef aa a0 bf 00 f8 6e ed 97 10 ba 3f
       -0.03255414303251314 0.10181569620814912
000410 00 58 fd ac f2 d7 ce 3f 80 53 8f d3 bc 86 d8 3f
       0.2409652084995173 0.3832237306608519
000420 40 5b 59 d2 a4 db e0 3f 80 74 99 71 b1 6f e5 3f
       0.5268119915370804 0.6698844164599365
000430 00 8a 9e 7a 37 f0 e9 3f 40 f9 a5 b5 19 4e ee 3f
       0.8105733294399329 0.9470337436503442
000440 60 d8 5b 70 63 3d f1 3f c0 5a e1 e2 48 34 f3 3f
       1.0774874104513614 1.2002648222457282
000450 40 6f 9a 37 81 05 f5 3f 80 92 27 10 8f ab f6 3f
       1.3138439342501016 1.4168844824827431
000460 40 26 ac 03 d2 21 f8 3f c0 33 31 81 9e 64 f9 3f
       1.5082569259124199 1.5870652243204262
000470 40 14 fa 9f 4e 71 fa 3f c0 d0 ad 7f 4b 46 fb 3f
       1.652662873181967 1.7046618449649458
000480 80 85 12 1a 0f e3 fb 3f 40 8d 2c a8 1e 48 fc 3f
       1.742934324116817 1.7676073617265757
000490 80 f1 7b fa fd 76 fc 3f 80 89 80 5d 1c 72 fc 3f
       1.7790508064782387 1.7778590824533183
0004a0 c0 e3 83 d6 bb 3c fc 3f c0 7c 10 af d3 da fb 3f
       1.7648275737285388 1.7409245336964858
0004b0 40 9c fd 65 ef 50 fb 3f 00 28 7c 32 0b a4 fa 3f
       1.7072595581064576 1.6650497409887066
0004c0 60 3f 7f 4f 6f d9 f9 3f a0 67 12 44 8b f6 f8 3f
       1.6155846696237504 1.5601914080675456
0004d0 c0 5c 06 50 d2 00 f8 3f 80 98 a7 0c 9a fd f6 3f
       1.500200569722253 1.4369144911120486
0004e0 00 18 27 30 fc f1 f5 3f 40 e3 98 39 bc e2 f4 3f
       1.3715783959355576 1.3053552865878402
0004f0 c0 62 cd 9c 31 d4 f3 3f 40 eb e8 d2 36 ca f2 3f
       1.2393051266755464 1.1743686903634654
000500 e0 45 a9 80 1d c8 f1 3f 60 5a f7 af a7 d0 f0 3f
       1.1113562608555796 1.0509411691361024
000510 00 43 a1 d3 0b cc ef 3f 60 9c 61 a3 b3 13 ee 3f
       0.9936579831502002 0.93990499411019
000520 20 11 36 7c 79 7a ec 3f c0 80 1a 58 93 01 eb 3f
       0.8899505067825295 0.8439423294803632
000530 40 97 f3 ab 53 a9 e9 3f 00 1e d1 55 46 71 e8 3f
       0.8019197805813079 0.7638274837599397
000540 60 05 67 bf 4f 58 e7 3f 60 53 42 b5 cc 5c e6 3f
       0.729530214150298 0.6988280811516283
000550 60 c4 64 90 b1 7c e5 3f 38 52 79 7b a7 b5 e4 3f
       0.6714713878810805 0.647174588356001
000560 e8 cd fb d3 26 05 e4 3f 05 7a 46 e7 8d 68 e3 3f
       0.6256288662247558 0.6065129773231211
000570 f0 bb 03 90 33 dd e2 3f 60 85 69 7e 75 60 e2 3f
       0.5895021260056392 0.5742747754085649
000580 00 d5 5a 39 c2 ef e1 3f 80 61 c6 24 9f 88 e1 3f
       0.5605174179278549 0.5479274481067904
000590 40 e6 67 0f ab 28 e1 3f 00 d4 09 f5 9d cd e0 3f
       0.5362143803496977 0.5250997339159085
0005a0 a0 40 bc c0 46 75 e0 3f 80 e2 0d eb 87 1d e0 3f
       0.5143159641611597 0.5036048499014925
0005b0 a0 45 99 a5 a7 88 df 3f c0 3c 09 47 53 cf de 3f
       0.49271575137853496 0.48140413224332335
0005c0 40 1a d2 09 27 0b de 3f 40 30 70 56 4d 38 dd 3f
       0.4694306941895867 0.45656140748247154
0005d0 00 22 68 69 0b 53 dc 3f 80 52 36 1c cb 57 db 3f
       0.4425686387408234 0.42723348383996296
0005e0 40 06 02 c5 29 43 da 3f 80 f2 35 ca 0b 12 d9 3f
       0.41034931410840514 0.3917264437402892
0005f0 c0 3b e9 20 b4 c1 d7 3f c0 06 ea 91 de 4f d6 3f
       0.37119773115130883 0.34862484216146683
000600 00 32 4c 56 db ba d4 3f 80 24 d4 65 aa 01 d3 3f
       0.3239048331022616 0.2969766611500475
000610 00 d0 90 b2 14 24 d1 3f 00 3a d6 0e 83 45 ce 3f
       0.2678272002988251 0.23649633621649002
000620 80 c9 02 a8 8c fe c9 3f 00 ec 4c bc 5e 78 c5 3f
       0.2030807323804531 0.16773590273245986
000630 00 05 b2 2d 00 ba c0 3f 00 9c 72 a9 a8 98 b7 3f
       0.13067629080982357 0.09217313897043766
000640 00 c0 01 69 d6 e7 aa 3f 00 a0 1b 89 c7 ef 88 3f
       0.052550030058114316 0.012176092979146347
000650 00 48 8d c8 61 3a 9d bf 00 a8 0a b1 87 b5 b1 bf
       -0.028543022027697873 -0.06917617866807291
000660 00 dc e3 50 bd f9 bb bf 00 d6 b7 0d 1b ff c2 bf
       -0.10927947258811344 -0.14841020746068523
000670 00 d8 84 1d 7d d3 c7 bf 00 d5 93 bd 0b 6d cc bf
       -0.18614162389138755 -0.22207781559669826
000680 80 f3 bd 24 25 60 d0 bf 00 dc 8a cc d4 61 d2 bf
       -0.2558682307060778 -0.2872211453899922
000690 00 b7 99 b3 f5 37 d4 bf 00 98 83 ba 39 e0 d5 bf
       -0.3159155134115821 -0.34181063856374294
0006a0 80 98 5e 2d c1 59 d7 bf 80 39 d9 5d 2b a5 d8 bf
       -0.3648531859456696 -0.38508114018340933
0006b0 80 89 5a 42 99 c4 d9 bf 80 29 a3 75 a1 bb da bf
       -0.40262443046426455 -0.4177020691683069
0006c0 80 38 6a 85 35 8f db bf 80 f2 0d 16 79 45 dc bf
       -0.4306157877807735 -0.4417402949691578
0006d0 00 69 4e f7 8b e5 dc bf 80 9e cd d3 48 77 dd bf
       -0.45151042128567553 -0.46040554698854663
0006e0 00 71 a3 a4 fa 02 de bf 00 30 2b 7e 0b 91 de bf
       -0.468931828288774 -0.47760283776437973
0006f0 00 8e 8a 9e af 29 df bf 00 65 83 dd 8f d4 df bf
       -0.4869193123106186 -0.49734875328211103
000700 80 0f a8 5a 3b 4c e0 bf 80 51 19 8a 81 bd e0 bf
       -0.5093056460031988 -0.5231330582851541
000710 00 45 ff fe 31 40 e1 bf 80 c3 c0 de 8f d5 e1 bf
       -0.5390863399899501 -0.5573195791858865
000720 80 08 ee 80 f4 7d e2 bf 00 2c aa e3 c1 38 e3 bf
       -0.5778753774796002 -0.6006783911301454
000730 00 ed 5b ad 5d 04 e4 bf 80 ce c2 13 35 de e4 bf
       -0.6255329500121718 -0.6521249185520475
000740 00 e2 07 ad c9 c2 e5 bf 00 df fc da c6 ad e6 bf
       -0.6800278071887647 -0.7087129857163461
000750 00 6a c6 2e 1f 9a e7 bf 00 8e d2 d6 30 82 e8 bf
       -0.7375636972022335 -0.7658924289466427
000760 80 c4 30 e5 ef 5f e9 bf 80 70 c3 03 15 2d ea bf
       -0.7929610706688806 -0.8180031846527669
000770 00 24 7c 00 4f e3 ea bf 00 98 87 7f 75 7c eb bf
       -0.84024763197624 -0.8589427462400181
000780 80 e1 06 15 bb f2 eb bf 80 65 1d 0c dd 40 ec bf
       -0.873380223339197 -0.8829179035775923
000790 00 e2 78 35 4f 62 ec bf 00 e1 38 3b 62 53 ec bf
       -0.8870006603602292 -0.8851786762889162
0007a0 00 65 c7 29 63 11 ec bf 00 f0 e1 1a b3 9a eb bf
       -0.8771224800103994 -0.8626342320490039
0007b0 80 40 58 37 d6 ee ea bf 80 7c 2b 92 79 0e ea bf
       -0.8416548806144561 -0.814266953933739
0007c0 00 05 cc b1 6f fb e8 bf 00 61 1e ef a3 b8 e7 bf
       -0.7806929085346894 -0.7412891073500134
0007d0 00 76 a7 22 05 4a e6 bf 00 f1 d1 63 68 b4 e4 bf
       -0.6965356518591648 -0.6470224332438477
0007e0 80 1c fb e1 64 fd e2 bf 80 c9 7d 18 2a 2b e1 bf
       -0.5934318937005543 -0.5365190962168498
0007f0 00 e4 ae 98 a3 88 de bf 00 ea a0 c3 5e 9f da bf
       -0.4770897856756733 -0.41597718338348955
