data/geyser-waiting-bw6.0-basegamma-lambda-exp(-6.0)/natparam-value-shift-180.0.npy (npy, 16128 bytes, 1 tensors)

array f8 [2000]
0	0xbf45f90c7d0bcbd6	-0.000670558069116085
1	0xbf489079625fb9a1	-0.0007496445366522061
2	0xbf4b6fa80c08aad5	-0.0008372850935008622
3	0xbf4e9d906f493a12	-0.0009343104598629767
4	0xbf5110e023ffa6ba	-0.0010416211007346203
5	0xbf53023289205c00	-0.0011601918708998848
6	0xbf55272b3268ba26	-0.001291076836092872
7	0xbf578490539e6e56	-0.0014354142608458318
8	0xbf5a1f880e704c2a	-0.0015944317508498431
9	0xbf5cfd9e1e4a5cab	-0.0017694515346755961
10	0xbf601264d2b3b06e	-0.001961895866420752
11	0xbf61cdb98a88d1a3	-0.002173292527255026
12	0xbf63b43d14f8894e	-0.0024052803999136457
13	0xbf65c99dfa0ca09e	-0.0026596150859355535
14	0xbf6811cc70a352e0	-0.0029381745308490886
15	0xbf6a90fd5f2f950f	-0.003242964617572348
16	0xbf6d4bad51eb6168	-0.003576124683018534
17	0xbf702351afc37a8e	-0.003939932907285238
18	0xbf71c379fa478520	-0.004336811518869582
19	0xbf738901be742e49	-0.004769331753105962
20	0xbf7576c470ec80ec	-0.005240218494492615
21	0xbf778fc7e914a6c7	-0.005752354526785636
22	0xbf79d73d6477b9c8	-0.006308784307732691
23	0xbf7c5082634e47cc	-0.0069127171781406364
24	0xbf7eff2157707668	-0.007567529907672822
25	0xbf80f3690f3eb4fe	-0.008276768472422532
26	0xbf8285bd1fc04f99	-0.009044148951978847
27	0xbf84389671ef6ee6	-0.009873557426480283
28	0xbf860e15416c7764	-0.010769048747132089
29	0xbf8808701b3e25bc	-0.01173484404695812
30	0xbf8a29f35835c98d	-0.012775326852282354
31	0xbf8c750062420f55	-0.013895037649724587
32	0xbf8eec0cbf86f785	-0.015098666758486487
33	0xbf90c8d06ef68f97	-0.01639104535355748
34	0xbf92342b4cdf7e6c	-0.01777713448234268
35	0xbf93b96bbcecd8f8	-0.019262011915281513
36	0xbf9559ed4df918b4	-0.020850856670471443
37	0xbf97171125bc2555	-0.022548931053312533
38	0xbf98f23c9edcb854	-0.02436156005494923
39	0xbf9aecd7b7073e24	-0.026294107957992932
40	0xbf9d084b4a8df475	-0.028351952004858256
41	0xbf9f45ff1b3e6c70	-0.03054045299323288
42	0xbfa0d3abd02609e1	-0.032864922674906934
43	0xbfa216d9ceb76119	-0.03533058784859317
44	0xbfa36d34bfd021bf	-0.03794255105464427
45	0xbfa4d7623f1e7dac	-0.04070574779984368
46	0xbfa65600bfd966a1	-0.04362490026387645
47	0xbfa7e9a5e0af54a5	-0.046704467465738454
48	0xbfa992dca15e74fc	-0.049948591898308664
49	0xbfab52237a519ef5	-0.05336104267263223
50	0xbfad27ea56ee0746	-0.05694515525011794
51	0xbfaf149073958b72	-0.0607037678808159
52	0xbfb08c3110602de3	-0.0646391549091088
53	0xbfb199cb367b386e	-0.06875295715437499
54	0xbfb2b3265bee927c	-0.0730461096232577
55	0xbfb3d845187f773d	-0.0775187668618544
56	0xbfb5091ba2b4ea62	-0.08217022631007745
57	0xbfb6458e7fddfcb1	-0.08699885007625842
58	0xbfb78d712f59b7e7	-0.09200198560731075
59	0xbfb8e084d36b3d2b	-0.09717588578790941
60	0xbfba3e76da24e4b7	-0.10251562906059318
61	0xbfbba6dfa9351140	-0.1080150402168032
62	0xbfbd19414f9e2588	-0.11366661256592725
63	0xbfbe9506409fb934	-0.11946143224460998
64	0xbfc00cc00da87aeb	-0.1253891054811541
65	0xbfc0d2f34150f238	-0.13143768967883473
66	0xbfc19cab04d5352b	-0.13759362922648086
67	0xbfc269679c2c6524	-0.14384169698386373
68	0xbfc3389ad65abdd3	-0.15016494242216413
69	0xbfc409a7ae871930	-0.1565446474252865
70	0xbfc4dbe1ffb65f37	-0.1629602907748848
71	0xbfc5ae8e4d638f00	-0.16938952234988136
72	0xbfc680e1a329cdd6	-0.17580814806897987
73	0xbfc752018dae981a	-0.18219012659136596
74	0xbfc821042eec6082	-0.18850757876566965
75	0xbfc8ecf06fe93805	-0.19473081077961765
76	0xbfc9b4be51c92c10	-0.20082835191200887
77	0xbfca775760089b4d	-0.2067670077242049
78	0xbfcb3397457fa9ba	-0.21251192944994363
79	0xbfcbe84c859d12aa	-0.21802670024967102
80	0xbfcc94395b0bdb8b	-0.22327343888875037
81	0xbfcd3614bcb4f448	-0.22821292127801684
82	0xbfcdcc8b89c3c7aa	-0.23280472018046555
83	0xbfce5641dd037569	-0.2370073632400065
84	0xbfced1d487924824	-0.2407785093278686
85	0xbfcf3ddab28a8439	-0.24407514303041625
86	0xbfcf98e7a6db870d	-0.2468537869199782
87	0xbfcfe18cba252236	-0.24907073105920724
88	0xbfd00b2daf7d0809	-0.25068227899112167
89	0xbfd01af3ab3f2459	-0.25164500926309114
90	0xbfd01f648071fe5f	-0.25191605132565614
91	0xbfd017cfe4eba58a	-0.2514533744384485
92	0xbfd0038a56bb4f7c	-0.250216088007839
93	0xbfcfc3dcd2057d4f	-0.24816475157693182
94	0xbfcf64bc321ab809	-0.24526169249060129
95	0xbfcee88852a30d08	-0.24147132906919233
96	0xbfce4e2affafa092	-0.23676049694700346
97	0xbfcd94a50aae15da	-0.23109877606854817
98	0xbfccbb110457a87f	-0.22445881568939183
99	0xbfcbc0a5ec5f36c0	-0.2168166546020327
100	0xbfcaa4b9d0acf318	-0.20815203370320812
101	0xbfc966c455cad144	-0.19844869793963416
102	0xbfc806612207fa89	-0.18769468461683328
103	0xbfc6835224ccc5de	-0.17588259503240428
104	0xbfc4dd81b39cbdd5	-0.16300984640245866
105	0xbfc31504765a0ddc	-0.14907890108962263
106	0xbfc12a1b1c85dcfe	-0.13409747021407975
107	0xbfbe3a67aae7f4f5	-0.11807868883620982
108	0xbfb9ddd70b6c4534	-0.10104126004104758
109	0xbfb5401d68c7cccf	-0.0830095654308025
110	0xbfb0633456af544b	-0.06401373974161222
111	0xbfa692ed17fb0010	-0.04408970754366248
112	0xbf97d67f578bb598	-0.023279180258148097
113	0xbf5ab316979e4c00	-0.001629612028840155
114	0x3f954e236b775430	0.020805886682712493
115	0x3fa6831008de3290	0.04396867855311826
116	0x3fb15aff89e01138	0.06779477230162889
117	0x3fb79b67a0e62630	0.0922150390453218
118	0x3fbdfde6a77d8af0	0.11715547169800877
119	0x3fc23eab19ac448e	0.14253748658714865
120	0x3fc58a2468a2069e	0.168278266039171
121	0x3fc8de8836a8945c	0.1942911402594828
122	0x3fcc38e2ad62d886	0.22048600641364063
123	0x3fcf9626f889ad98	0.2467697824061872
124	0x3fd17999ac586c08	0.2730468924580127
125	0x3fd3266ab9a67804	0.2992197812071711
126	0x3fd4cfe76c1841d8	0.3251894527066077
127	0x3fd6746cda02c545	0.35085603036994356
128	0x3fd81256d354cf74	0.3761193336279043
129	0x3fd9a80259e4ca42	0.40087946680720077
130	0x3fdb33d021d30a1c	0.4250374155346053
131	0x3fdcb42714c86184	0.448495645805018
132	0x3fde2776d2b8c426	0.4711587007360002
133	0x3fdf8c3a2abfb826	0.4929337899656069
134	0x3fe0707cc35439e3	0.513731366636247
135	0x3fe11226a1df2f4e	0.5334656869467638
136	0x3fe1aa6ff9ce166d	0.5520553473476874
137	0x3fe238b83fec06a6	0.5694237946010687
138	0x3fe2bc6a15d1099a	0.5854998041252657
139	0x3fe334fc37576135	0.6002179222951215
140	0x3fe3a1f2528ceace	0.613518868666995
141	0x3fe402ddc8261bf8	0.625349894443274
142	0x3fe4575e52ad5da6	0.6356650938786756
143	0x3fe49f2292e4291b	0.6444256657571573
144	0x3fe4d9e8800a9473	0.651600122528761
145	0x3fe5077dbb054a6b	0.6571644451854132
146	0x3fe527bfc3a076e7	0.6611021824680535
147	0x3fe53a9c0f773570	0.6634044935287147
148	0x3fe540100251bc14	0.6640701337145196
149	0x3fe53828c817ead0	0.6631053836893788
150	0x3fe5230310c147da	0.660523922657599
151	0x3fe500caaef5dbb2	0.6563466469950667
152	0x3fe4d1ba1a5bf8f0	0.650601436121887
153	0x3fe49619d6d4f229	0.6433228679594026
154	0x3fe44e3fc22d3e67	0.6345518867983174
155	0x3fe3fa8e4a02d2d2	0.6243354268577497
156	0x3fe39b738bddce78	0.6127259952322239
157	0x3fe3316861ab55e8	0.599781218300163
158	0x3fe2bcef5cf81300	0.5855633559991418
159	0x3fe23e93b36eb72c	0.570138788656299
160	0x3fe1b6e81f3eb744	0.5535774812940208
161	0x3fe12685b627e71b	0.5359524305087889
162	0x3fe08e0ab9f8617a	0.5173390991431426
163	0x3fdfdc32caa66788	0.4978148440364909
164	0x3fde8ead6f2edd77	0.4774583421489846
165	0x3fdd34d285716e8c	0.4563490203051763
166	0x3fdbcfeffb988627	0.4345664937010007
167	0x3fda61523def4a0a	0.4121900181609425
168	0x3fd8ea41fea48ed2	0.3892979609247337
169	0x3fd76c02164e7dc4	0.36596729448680443
170	0x3fd5e7cd81b7be8b	0.34227311771153585
171	0x3fd45ed581213b54	0.31828820810635716
172	0x3fd2d23fdcbc0be8	0.294082608758059
173	0x3fd1432551aee6b6	0.2697232530295922
174	0x3fcf6520550684ae	0.24527362968095673
175	0x3fcc42f60ab2cb48	0.22079349062331688
176	0x3fc9219f93833e23	0.19633860304610193
177	0x3fc602cd9f2a9702	0.17196054717822312
178	0x3fc2e80c6f4b54f4	0.14770656046190533
179	0x3fbfa585da498296	0.12361942843700499
180	0x3fb98864465d78b6	0.09973742216013445
181	0x3fb37aea328c52de	0.07609428152165829
182	0x3faafe04445f21c1	0.05271924337972989
183	0x3f9e5930fc799a22	0.029637113008357592
184	0x3f7c2203e6bed610	0.006868376960416991
185	0xbf8fe38095abcaa0	-0.015570644919966015
186	0xbfa3492b4a29f87c	-0.037667610934463774
187	0xbfae6b80da31f848	-0.05941393531337319
188	0xbfb4af9b255730ac	-0.08080453549991046
189	0xbfba12069cae7394	-0.10183755231123676
190	0xbfbf5d149f255698	-0.1225140465297393
191	0xbfc2488144b37e4a	-0.14283767561481603
192	0xbfc4d719cb8fe1d2	-0.16281435432007513
193	0xbfc75a957e5accb4	-0.18245190305387882
194	0xbfc9d342ee72b822	-0.20175968783354487
195	0xbfcc417a9558acd2	-0.22074825565628103
196	0xbfcea59bc3e1b0dc	-0.23942896904498567
197	0xbfd08004cbbea706	-0.2578136434263886
198	0xbfd1a893fe9120fc	-0.27591419086503755
199	0xbfd2ccac648c004e	-0.2937422735121843
200	0xbfd3ec7c753506a4	-0.31130896993645707
201	0xbfd5082ee02d9a4e	-0.32862445728679723
202	0xbfd61fe94bd5ffea	-0.3456977120004
203	0xbfd733cb2a7daf18	-0.36253623151309133
204	0xbfd843eca87a268c	-0.3791457791599917
205	0xbfd9505db5308b18	-0.3955301541738421
206	0xbfda592528cf4ac8	-0.41169098840070406
207	0xbfdb5e400824ba24	-0.42762757106075555
208	0xbfdc5fa0e7af3770	-0.4433367025893551
209	0xbfdd5d2f6eb3857c	-0.4588125783030461
210	0xbfde56c7fad7948e	-0.4740467023496614
211	0xbfdf4c3b6473a21c	-0.48902783212409573
212	0xbfe01ea771c0ffe6	-0.5037419530635787
213	0xbfe094de0a67d12b	-0.5181722834809411
214	0xbfe108988f66a080	-0.5322993088530126
215	0xbfe179a87a916788	-0.5461008447557427
216	0xbfe1e7d9dcf6dc76	-0.5595521274289144
217	0xbfe252f39daef882	-0.5726259307628114
218	0xbfe2bab7c61b4899	-0.5852927083272049
219	0xbfe31ee3dac6739c	-0.5975207589104801
220	0xbfe37f313ffe0d28	-0.6092764139033635
221	0xbfe3db55a93228de	-0.6205242447479369
222	0xbfe4330392191a38	-0.6312272885778105
223	0xbfe485eac08b557c	-0.6413472900991759
224	0xbfe4d3b8ce036b68	-0.6508449577043907
225	0xbfe51c19b7a87330	-0.6596802317686521
226	0xbfe55eb873c5cd3c	-0.6678125630554983
227	0xbfe59b3f8b91d684	-0.6752011991472533
228	0xbfe5d159b825b43a	-0.6818054768206203
229	0xbfe600b2818abb3c	-0.6875851183047881
230	0xbfe628f6dec5d95e	-0.6925005293876827
231	0xbfe649d5d5cebc8a	-0.6965130973748199
232	0xbfe663011a66ff72	-0.69958548695284
233	0xbfe6742daacd3a28	-0.7016819320650187
234	0xbfe67d14695067be	-0.7027685219684299
235	0xbfe67d72b1d148a4	-0.7028134797094663
236	0xbfe6750aea495ec2	-0.701787431326885
237	0xbfe663a50d797d40	-0.6996636641669411
238	0xbfe6490f2eecb37e	-0.6964183727737774
239	0xbfe6251df78775d2	-0.6920308908990427
240	0xbfe5f7ad19e63548	-0.6864839082569825
241	0xbfe5c09fbdda2100	-0.6797636707351842
242	0xbfe57fe0e25e6ab0	-0.6718601628557135
243	0xbfe53563b56c3558	-0.6627672713672537
244	0xbfe4e123e11f39b4	-0.6524829289353904
245	0xbfe48325cda93936	-0.641009236985872
246	0xbfe41b76d79e8d13	-0.6283525668444859
247	0xbfe3aa2d7a3290a0	-0.6145236384077357
248	0xbfe32f696d07560b	-0.5995375756708098
249	0xbfe2ab53b54118f6	-0.5834139385340495
250	0xbfe21e1ea99b4c58	-0.5661767304067196
251	0xbfe18805e94aff07	-0.54785438122778
252	0xbfe0e94e4588b52a	-0.5284797056280344
253	0xbfe042459daad3f4	-0.5080898360671413
254	0xbfdf26855b92a8a8	-0.48672613089241645
255	0xbfddb9499fe79994	-0.46443405738536936
