data/geyser-waiting-bw4.0-basegamma-lambda-exp(-8.0)/natparam-value-shift-390.0.npy (npy, 16128 bytes, 1 tensors)

array f8 [2000]
00000000: 42a6 90f6 7f0e d1be b065 15db 29d5 d5be
00000010: a6cc 99d8 efdf dbbe a9c9 0821 c0bf e1be
00000020: a62c d0a7 978b e6be 8fdf 3b3b 7390 ecbe
00000030: 1469 861d 740c f2be a282 33f5 f7bf f6be
00000040: 8134 a13b 149a fcbe dec5 bc87 e9ee 01bf
00000050: 43a2 9622 1a6e 06bf de5e e58e 62fb 0bbf
00000060: e25e fd31 a868 11bf 6546 248b f99a 15bf
00000070: 5ecb 6a0a 6cbe 1abf 7985 62ba 5382 20bf
00000080: cd02 4211 3f54 24bf b03b 78b5 b0f7 28bf
00000090: 6acf b624 8295 2ebf a0b5 ccd5 cbae 32bf
000000a0: bc3b 6b36 f2c3 36bf c744 abc8 c4aa 3bbf
000000b0: 53a3 db59 84c4 40bf 67cc 57b1 3145 44bf
000000c0: 918b 291d 8a70 48bf 3b04 8bef 5d63 4dbf
000000d0: b6ed 1d0c 4c9f 51bf 0478 84e9 d613 55bf
000000e0: 77a4 498c 8924 59bf def9 a74a 59e9 5dbf
000000f0: 7fbb 4ee5 99be 61bf fe1a 7efd 1dff 64bf
00000100: cda4 9af3 02c7 68bf 2444 f704 e828 6dbf
00000110: e3aa 8423 ae1c 71bf 1c5a 8b2e 7b07 74bf
00000120: 837b 1224 3461 77bf c14f cf1f 4737 7bbf
00000130: 8c2b e7b6 3b98 7fbf b790 26d7 d949 82bf
00000140: dcad 8eb5 331d 85bf 6690 1fbf 0e4f 88bf
00000150: 0475 4458 cee8 8bbf 7b76 effe 4bf4 8fbf
00000160: d5cb 41ff e43d 92bf 3109 f851 f1c4 94bf
00000170: 5ea2 35e5 b994 97bf 1c1a d355 c3b2 9abf
00000180: 460c 55fa 9924 9ebf a5f2 b40e e1f7 a0bf
00000190: 9f16 9942 d30c a3bf d4d0 63ba c253 a5bf
000001a0: feb5 d233 2ecf a7bf dc07 ee6c 6981 aabf
000001b0: 4a13 f441 926c adbf c05d 40e1 4249 b0bf
000001c0: 48e8 86c2 6afa b1bf 06f2 74c4 5eca b3bf
000001d0: 189f 527f 8db9 b5bf 58e7 9f2a 32c8 b7bf
000001e0: 7104 4d77 51f6 b9bf 82dd a66f b743 bcbf
000001f0: bad9 528e f6af bebf 434d 9d1d 349d c0bf
00000200: 658a 6a6c 17f1 c1bf 1c48 d2c2 1c53 c3bf
00000210: b142 75d6 a4c2 c4bf 78cc 363b fd3e c6bf
00000220: 1775 e00b 65c7 c7bf f641 f17c 125b c9bf
00000230: cced 3a4a 39f9 cabf 77f5 52e6 11a1 ccbf
00000240: 1acd a148 e151 cebf 32d2 2196 8005 d0bf
00000250: fd2c a643 f4e5 d0bf fa57 d8fb 19ca d1bf
00000260: da8b c0ec d6b1 d2bf e74a dbd8 2a9d d3bf
00000270: 74a8 0249 338c d4bf 79b3 b80a 2e7f d5bf
00000280: 38b5 9ac9 7a76 d6bf bad3 2993 9b72 d7bf
00000290: bb00 2616 3474 d8bf 6080 9b72 077c d9bf
000002a0: 8a95 9575 f48a dabf 401f 3823 f0a1 dbbf
000002b0: 76e5 cb7b fec1 dcbf a1b5 f973 29ec ddbf
000002c0: 7425 df25 7621 dfbf 4735 cc27 6c31 e0bf
000002d0: acec fd21 92d8 e0bf 3aea 97c1 7f86 e1bf
000002e0: 4680 0121 683b e2bf fed0 fb1b 56f7 e2bf
000002f0: 6205 188e 23ba e3bf 4dba 1da4 7083 e4bf
00000300: 4e43 4282 9b52 e5bf fe0e 1986 b826 e6bf
00000310: d2c3 856e 8bfe e6bf 8735 6ab5 81d8 e7bf
00000320: 1386 0f66 aeb2 e8bf 5d2c 32b8 c78a e9bf
00000330: 40a6 03b2 265e eabf c497 540b c929 ebbf
00000340: 02f3 7581 55ea ebbf c208 55be 229c ecbf
00000350: f6e3 19e6 403b edbf ce31 6dcd 85c3 edbf
00000360: 803c e6c7 9b30 eebf 4cc5 71ea 127e eebf
00000370: ebf7 5189 74a7 eebf ec28 3fa5 58a8 eebf
00000380: f9da d3e7 7c7c eebf 1b73 75bd dc1f eebf
00000390: e5ad fe0a ca8e edbf 7cbc 33f0 05c6 ecbf
000003a0: 6c42 10fe d8c2 ebbf fa04 d141 2a83 eabf
000003b0: 63c1 a183 9405 e9bf aeab 611a 7949 e7bf
000003c0: e234 2bbd 0f4f e5bf 5224 3dc7 7217 e3bf
000003d0: 6ecf 6b73 a7a4 e0bf 904a 3152 43f3 dbbf
000003e0: d8c9 c81a 8634 d6bf a0c3 9d4e aa16 d0bf
000003f0: 20eb 1910 fa49 c3bf 80fe 3e8f 2e63 a7bf
00000400: 00e0 b4ee 0913 b03f a0e7 d98c c73d c63f
00000410: b062 88c6 6051 d23f 90c0 d80a d88a d93f
00000420: 58fb 034f b55c e03f 38ae a168 83e5 e33f
00000430: a8e8 eec6 da56 e73f f0cb 7b3b f4a7 ea3f
00000440: 10a0 e18b 63d0 ed3f 082f b856 1e64 f03f
00000450: b89c ed64 1bc4 f13f 78c5 db1e e604 f33f
00000460: 404f eb69 ab23 f43f 801a 05cc 131e f53f
00000470: f0ad 05dc 4cf2 f53f 60c1 9504 109f f63f
00000480: 80db 1b76 a623 f73f e813 bb36 ea7f f73f
00000490: f8e7 e451 44b4 f73f 903d 573b a8c1 f73f
000004a0: 50bf e78a 8ca9 f73f 001c b646 e16d f73f
000004b0: 7841 d0ff 0311 f73f 102d 9811 b295 f63f
000004c0: 5897 005e f9fe f53f d000 c2e7 2750 f53f
000004d0: 44ff d9af ba8c f43f 649a f23c 4cb8 f33f
000004e0: 9c78 c631 83d6 f23f 1c38 6053 01eb f13f
000004f0: f421 6c59 53f9 f03f 0859 0ada e104 f03f
00000500: 48dd 0430 c721 ee3f 203d a0dc a240 ec3f
00000510: f8d6 540e b86b ea3f b0d6 a5fe c6a7 e83f
00000520: 144b 3112 e2f8 e63f b8bf e02a 6562 e53f
00000530: 24ba 61fa f0e6 e33f 44e5 6a32 6a88 e23f
00000540: e8cd 4b5c fc47 e13f a852 3110 2026 e03f
00000550: c42b 4f6d 4845 de3f 8031 a0e8 7379 dc3f
00000560: 0987 f6b0 05e6 da3f 901f 6dc6 4187 d93f
00000570: 78a0 5fec 8f58 d83f 200d 768a a054 d73f
00000580: 1054 e6bd 9275 d63f aa87 ded6 1ab5 d53f
00000590: 28c1 e08b a80c d53f 24c9 b03c 8c75 d43f
000005a0: a41e 87af 1ae9 d33f 04c9 ddc4 ce60 d33f
000005b0: 9020 c8af 68d6 d23f 78b2 ee51 0a44 d23f
000005c0: 78be ad6a 50a4 d13f 302b 4d58 68f2 d03f
000005d0: 1036 c938 222a d03f b0f9 7b8a fe8f ce3f
000005e0: 50db ca9f 7892 cc3f 806a deb1 b057 ca3f
000005f0: 7050 1a75 2edd c73f 10e3 39f1 0022 c53f
00000600: 20b9 3499 b426 c23f 40cd 9f4c 84da bd3f
00000610: c0ed 5236 edf1 b63f c001 a4ba 5339 af3f
00000620: 80cb 85d4 8f97 9f3f 0070 c282 9ab4 42bf
00000630: c0ad b990 96ed a0bf 403f fef4 b9fe b0bf
00000640: 001b 3b82 fcac b9bf 40d8 5bd0 8838 c1bf
00000650: 00d6 a494 4b9d c5bf 4026 00ae d7fc c9bf
00000660: 6049 4395 b04f cebf 207b 0548 7c47 d1bf
00000670: b027 3924 4c5a d3bf f0b8 1239 b05d d5bf
00000680: c045 0542 924f d7bf 10fd 10da 662e d9bf
00000690: 60ac efc8 32f9 dabf 90a2 9ae8 8baf dcbf
000006a0: f014 4d8a 9551 debf d088 6d62 f8df dfbf
000006b0: 4068 3212 ebad e0bf 2867 a88c 5c63 e1bf
000006c0: 50dd cc0e 4011 e2bf 48e2 4ac8 a3b8 e2bf
000006d0: 309a bbee a75a e3bf 90c3 542e 71f8 e3bf
000006e0: 4066 c3af 1a93 e4bf c0d5 8c22 a82b e5bf
000006f0: 20a5 633e f8c2 e5bf 702e 652d b859 e6bf
00000700: 9044 124d 58f0 e6bf c076 0dac 0287 e7bf
00000710: a00d 5f9f 931d e8bf e02c 76bb 94b3 e8bf
00000720: 10b7 ba6b 3a48 e9bf 90e4 c24f 64da e9bf
00000730: a0ac b96f a068 eabf 00cf e142 31f1 eabf
00000740: 004a 1d6c 1672 ebbf 3049 b9f9 17e9 ebbf
00000750: d053 34e0 d353 ecbf d024 0254 cdaf ecbf
00000760: 90b7 2495 7dfa ecbf 60f4 68b1 6531 edbf
00000770: f083 b2b7 2052 edbf f0be 6cd0 755a edbf
00000780: d02d 34ad 6948 edbf 1091 3fc4 4e1a edbf
00000790: 005a f5d2 d3ce ecbf 30d9 4b2e 1065 ecbf
000007a0: 30b3 c176 8ddc ebbf e091 7b58 4e35 ebbf
000007b0: c0e1 d515 d26f eabf 40df d5b2 148d e9bf
000007c0: 3060 a0b1 8b8e e8bf 803b aa6a 1f76 e7bf
000007d0: f0dd e225 2146 e6bf 7070 cf33 3e01 e5bf
000007e0: 7011 9c5d 70aa e3bf a0ae cc18 ec44 e2bf
000007f0: a02d befd 0cd4 e0bf a006 f21d 82b6 debf
-4.066619887979597e-06 -5.205314140021967e-06 -6.645859124898535e-06 -8.463394835710207e-06 -1.0750428595349072e-05 -1.3620499749830514e-05 -1.7212530879364798e-05 -2.1695973669080334e-05
-2.7276869993199136e-05 -3.42049615639319e-05 -4.278199441937584e-05 -5.3371377236542095e-05 -6.640936453316705e-05 -8.241794674670453e-05 -0.00010201963832904895 -0.00012595436164012841
-0.00015509862771880545 -0.00019048721399924978 -0.0002333375326607449 -0.0002850768703862253 -0.00034737265961564865 -0.00042216591161288144 -0.0005117079014925564 -0.0006186001434670519
-0.0007458376297332249 -0.0008968552275164862 -0.0010755770349238753 -0.0012864683868154545 -0.0015345900766539336 -0.0018256542194873197 -0.0021660810256984293 -0.002563055586452533
-0.0030245835922256604 -0.0035595447186343044 -0.004177742223229616 -0.004889947108230899 -0.005707935023706481 -0.006644513920907203 -0.00771354032481043 -0.00892992198789276
-0.010309604623976058 -0.01186954041254058 -0.013627636021335217 -0.015602678029547725 -0.017814233855869183 -0.020282526615127586 -0.023028282751882727 -0.026072551835364263
-0.02943649855047805 -0.03314116768385603 -0.03720722377742657 -0.041654668095277764 -0.046502536607800224 -0.051768583819480546 -0.05746895842643214 -0.06361787795355323
-0.07022731064981358 -0.07730667396840127 -0.08486255987611135 -0.09289849796905736 -0.10141476786249527 -0.11040827251314592 -0.11987248396585573 -0.1297974724389893
-0.14017002862699993 -0.1509738875652723 -0.16219006034454744 -0.17379727736770056 -0.1857725437156794 -0.19809180355743167 -0.2107307064487557 -0.2236654638890447
-0.23687377974020124 -0.25033583318080155 -0.2640352879177071 -0.2779602965759974 -0.2921044647247847 -0.30646773507503017 -0.32105714921875195 -0.335887442083553
-0.3509814232628119 -0.36637009974884516 -0.3820924965184635 -0.39819513504153825 -0.41473113520472593 -0.4317589134156954 -0.449340458769789 -0.46753918004727707
-0.48641732881932076 -0.5060330178545563 -0.5264368690399315 -0.5476683407899323 -0.5697518009801648 -0.5926924273067298 -0.6164720320959243 -0.641044922389321
-0.666333918010517 -0.6922266596888844 -0.7185723456042246 -0.7451790374049531 -0.7718116753932825 -0.7981909368112486 -0.8239930607644013 -0.8488507481858893
-0.8723552254228653 -0.8940595357346626 -0.9134830946123873 -0.9301175129162915 -0.943433657101096 -0.9528898791306033 -0.9579413110766358 -0.9580500819659199
-0.9526962783700973 -0.9413894367567964 -0.9236803259604441 -0.8991727534720577 -0.8675351106813429 -0.8285113606908958 -0.7819311686453542 -0.7277188792480638
-0.6659010595991754 -0.5966123477347856 -0.520099378044035 -0.4367225935613215 -0.3469558011594507 -0.25138337781305076 -0.1506950930232387 -0.045678572641461024
0.06279050901218852 0.17376036050319232 0.2862169207378811 0.3990993600773516 0.511316923453573 0.6217667621217009 0.7293523679175182 0.8330022012509044
0.9316880924279776 1.0244429957846837 1.1103776876932852 1.1886960225495766 1.2587083947627917 1.3198430985954985 1.3716553301445593 1.4138336352444512
1.4462036718011575 1.4687292230530549 1.4815104674330524 1.4847795789718 1.4788937974917253 1.4643261682665525 1.4416542046274952 1.411546772697708
1.374749533840676 1.3320693066635165 1.2843577260209296 1.2324945812958044 1.177371210512809 1.1198743111485845 1.0608705037176351 1.0011919514850565
0.9416233003493426 0.8828901585674522 0.8256492881689317 0.7704806302633269 0.7178812365840224 0.6682611310443383 0.6219410791653144 0.5791522011487946
0.54003732706627 0.504653960825256 0.4729786937211282 0.44491288869246404 0.4202894428400304 0.3988804281002496 0.3804054077468275 0.36454022904963956
0.35092609925169516 0.3391787622768968 0.3288976064677791 0.31967454840482135 0.31110255376231977 0.30278367257336947 0.2943364826792356 0.2854028511162947
0.2756539384635981 0.26479538558185123 0.25257163568025565 0.23876935731818838 0.22321994593013494 0.20580109295845617 0.18643742292318022 0.165100209985916
0.14180619698294894 0.11661555166920312 0.08962900711315225 0.06098424580887096 0.030851600023605652 -0.00057084602805757 -0.03306265370050765 -0.06638681632307186
-0.10029581241097318 -0.13453779386299125 -0.16886276968004665 -0.2030286407100892 -0.2368069390127614 -0.26998812707272357 -0.3023863176100532 -0.33384328435467037
-0.36423164794276985 -0.3934571389726935 -0.42145986197164653 -0.4482145091556413 -0.47372950082747334 -0.4980450593194634 -0.5212302546890513 -0.5433790919516683
-0.5646057404582425 -0.5850390350306691 -0.6048164046049518 -0.6240774063972925 -0.6429570610882323 -0.6615791964347224 -0.6800500124492466 -0.6984520804048326
-0.7168389802265143 -0.7352307663347446 -0.7536104309769378 -0.7719215070113954 -0.7900669197167378 -0.807909160407819 -0.8252718145498825 -0.8419424349108056
-0.8576767074212626 -0.8722038152139131 -0.8852328661911262 -0.8964602127827224 -0.9055774605710543 -0.9122799363173151 -0.9162753665769952 -0.917292506293931
-0.915089453018874 -0.9094613869642973 -0.9002474899560298 -0.8873368171905778 -0.8706729239907869 -0.8502570846727018 -0.826149981162466 -0.7984717839126247
-0.7674005955950687 -0.733169277505894 -0.6960607280697655 -0.6564017307205301 -0.6145555332482626 -0.570913361012078 -0.5258851009288499 -0.4798894207416229
