data/geyser-waiting-bw2.0-basegamma-lambda-exp(-6.0)/natparam-value-shift-104.0.npy (npy, 16128 bytes, 1 tensors)

array f8 [2000]
0	0xbad0436289e42904	-2.1019722201957816e-25
1	0xbae72d7785ce2cd2	-5.991270474702395e-25
2	0xbb005b83fe90c406	-1.6913240828402473e-24
3	0xbb16ddf2f98781c4	-4.728782440379421e-24
4	0xbb2fa907c55a0b9f	-1.309438276150648e-23
5	0xbb45b5059ecc64c9	-3.591141268864273e-23
6	0xbb5d7aec03011b00	-9.754167964644018e-23
7	0xbb73d3789f0845b8	-2.623957098055469e-22
8	0xbb8a69246151d29e	-6.990857090113696e-22
9	0xbba16c0bcda0cfd3	-1.8446318351479264e-21
10	0xbbb6c3a343a49b05	-4.8205089645267116e-21
11	0xbbcd75548702a3bb	-1.2476084243941144e-20
12	0xbbe2e0858e6f5c18	-3.197894611053025e-20
13	0xbbf7f5c808585682	-8.117992059153388e-20
14	0xbc0e1e72488fa1bd	-2.0409381735999129e-19
15	0xbc22bf7ed036a9ac	-5.081663379998588e-19
16	0xbc371d72adbb61f7	-1.253068347174005e-18
17	0xbc4c396fb6934dde	-3.0600913359180602e-18
18	0xbc6110b38b4effdc	-7.400867950893435e-18
19	0xbc746fdf19a8cebb	-1.7726270095334688e-17
20	0xbc883d0f3c0ea0a2	-4.204711875816008e-17
21	0xbc9c7823a657908f	-9.877270519673118e-17
22	0xbcb08ebd731580c1	-2.2978255785168636e-16
23	0xbcc312be0114bee8	-5.293879705258398e-16
24	0xbcd5c22090bbcc4f	-1.2078288040864302e-15
25	0xbce894b70184ab42	-2.72903005181707e-15
26	0xbcfb801dca40bd65	-6.106327568054953e-15
27	0xbd0e77dfc0fa8f59	-1.3530624604025996e-14
28	0xbd20b6dccdbbdc35	-2.969057301578022e-14
29	0xbd3228fe6b4a9bf2	-6.451774981815875e-14
30	0xbd438a07b5dd4284	-1.3883422519342197e-13
31	0xbd54d181b51f4e05	-2.958470507439653e-13
32	0xbd65f71fb1dbe157	-6.24292152158373e-13
33	0xbd76f31769d96c86	-1.3045323618859521e-12
34	0xbd87be783b281610	-2.6993827851464213e-12
35	0xbd98537c021d9420	-5.531117259565655e-12
36	0xbda8adcc8e1ef936	-1.1222665541044936e-11
37	0xbdb8cab9238b57fc	-2.25480903232734e-11
38	0xbdc8a95874374af4	-4.4859017999351907e-11
39	0xbdd84a94b9be8bcb	-8.837135054638746e-11
40	0xbde7b1211318b6ca	-1.7238133971318526e-10
41	0xbdf6e158d1616c20	-3.32951625801669e-10
42	0xbe05e10adc686b53	-6.367648013176069e-10
43	0xbe14b734a586daf8	-1.2058093604396618e-09
44	0xbe236bb122562051	-2.260863734674036e-09
45	0xbe3206e0ecdd1a9f	-4.197207648988336e-09
46	0xbe409150e0ddd7a2	-7.714908735927715e-09
47	0xbe4e26c8bb9e4c4a	-1.4040386509493785e-08
48	0xbe5b2a0f88d9b93c	-2.529872538406434e-08
49	0xbe683addcfabe4da	-4.5131793377113455e-08
50	0xbe7565c42a648370	-7.971199042891687e-08
51	0xbe82b5364a9bf395	-1.3938441627966892e-07
52	0xbe903165ba3d1ee7	-2.412938846407833e-07
53	0xbe9bc07736c736a5	-4.135343292494454e-07
54	0xbea78adbf6909744	-7.016187569860366e-07
55	0xbeb3c557ee13a2cd	-1.1784358593896474e-06
56	0xbec06fb6405e0c97	-1.9593685491328444e-06
57	0xbecb0d810720544d	-3.2249391148744616e-06
58	0xbed609b746d073d7	-5.25425739985888e-06
59	0xbee1c54b99ff289e	-8.473722857522532e-06
60	0xbeec5e32f5bb427a	-1.352689985570473e-05
61	0xbef669572c2d79c5	-2.1373258970108924e-05
62	0xbf01864c726ded83	-3.3425529458032246e-05
63	0xbf0b201c575ed918	-5.1737656505167716e-05
64	0xbf14c6e3cfa04eae	-7.925763557664153e-05
65	0xbf1f7fe75b37c403	-0.000120161529416199
66	0xbf27a167ef42ce0a	-0.00018028634770460322
67	0xbf318aeb2f66b246	-0.0002676796133538644
68	0xbf39c62bac776226	-0.0003932816148029282
69	0xbf42bc3357d8400e	-0.0005717516611998279
70	0xbf4af322de3664c5	-0.0008224411252967459
71	0xbf532d71adc30fd7	-0.0011705026764028314
72	0xbf5b00a85a368a81	-0.0016481060091357027
73	0xbf62ce71420c8ca0	-0.0022957050390615824
74	0xbf69e9dbaae61dff	-0.0031632700331021275
75	0xbf71a8ca44da7382	-0.004311361420744288
76	0xbf77ce33404dbd7d	-0.005811882209726502
77	0xbf7fbcb0328347fb	-0.0077483065326351365
78	0xbf84ebadf2941501	-0.010215147939116155
79	0xbf8b45a22eb5e0a8	-0.01331640915917405
80	0xbf91931cd98cc8c1	-0.01716275289363334
81	0xbf966458326b23fe	-0.021867158963491555
82	0xbf9c3327ef89ab7f	-0.027538894648766906
83	0xbfa18c969841a197	-0.03427572830770769
84	0xbfa5954519f307ae	-0.042154464166301295
85	0xbfaa39843c843c6e	-0.05122006643988973
86	0xbfaf7980a2b39f9b	-0.0614738653765123
87	0xbfb2a70e7b0c81cb	-0.07286158088800858
88	0xbfb5d3bd4f95ec68	-0.08526213830002549
89	0xbfb935e254416c33	-0.09847845608730736
90	0xbfbcbb34838937ad	-0.11223152362182871
91	0xbfc025fb6e7f716f	-0.1261591233768615
92	0xbfc1e5a2fe3b059d	-0.13982045568085946
93	0xbfc38becce003577	-0.15270767267831406
94	0xbfc506a1f6f8d251	-0.1642649131696481
95	0xbfc642d798af657a	-0.17391486125306327
96	0xbfc72e07244165ab	-0.1810921599415399
97	0xbfc7b75426536b6f	-0.18528224822406567
98	0xbfc7d0ed270dfd3c	-0.18606342703785994
99	0xbfc7716f83774c85	-0.18314927977789722
100	0xbfc69531de5d535c	-0.1764280639423771
101	0xbfc53f569f38349e	-0.16599543356315832
102	0xbfc37a88739cc9bb	-0.15217691083087267
103	0xbfc15946389aac9f	-0.13553693546177656
104	0xbfbdeb5429186bd0	-0.11687208178811592
105	0xbfb8e14114a77483	-0.09718710664988532
106	0xbfb3e11e8a020e66	-0.07765379781090473
107	0xbfae7ddd65541566	-0.059554022425838224
108	0xbfa6a2aa992806e6	-0.044209796138614796
109	0xbfa0d8daad4b0f44	-0.03290446629901436
110	0xbf9b717c018d5a80	-0.02680009612535139
111	0xbf9b80556f38b5e8	-0.02685674182264633
112	0xbfa148eb71ab1c32	-0.03375945818475436
113	0xbfa880e9732d24f0	-0.04785851984940759
114	0xbfb1b2575c224916	-0.06912752150882215
115	0xbfb8de59711ccc0c	-0.09714278232131351
116	0xbfc0c76c767c08d4	-0.1310859278237958
117	0xbfc5bb043156f98a	-0.16976978692214245
118	0xbfcb1886a0d0989e	-0.21168597080503998
119	0xbfd05314b00c6fba	-0.25507085029834864
120	0xbfd31230cd6247dc	-0.2979852681829678
121	0xbfd5a862502ab44c	-0.3384023459319152
122	0xbfd7f47c8da0988c	-0.37429727392953605
123	0xbfd9d6c33fb12854	-0.40373307437824235
124	0xbfdb322b00d56962	-0.42493701058778843
125	0xbfdbed615818c0ee	-0.4363635406798626
126	0xbfdbf39213b3600a	-0.43674137042899075
127	0xbfdb34e7bdc71382	-0.42510407956097407
128	0xbfd9a6cd2f7aa1d6	-0.40080575596451007
129	0xbfd743fd97268be3	-0.36352481613920257
130	0xbfd40c759421d775	-0.31326045480761106
131	0xbfd0055a5bcd407a	-0.25032671895042535
132	0xbfc671d501ae33fc	-0.17534887868933413
133	0xbfb6da1ad263622c	-0.08926551472121308
134	0x3f7b49fd3a0706c0	0.006662358442953653
135	0x3fbc5fc86d037a70	0.1108365312715962
136	0x3fcc53bd9b8167c0	0.22130556195298645
137	0x3fd57d00b54c86b4	0.33575456337903664
138	0x3fdce589d3496e04	0.451509910902786
139	0x3fe219239c3b2080	0.5655687381158856
140	0x3fe596d5527f3bfc	0.674662266852351
141	0x3fe8cfbe963e08cc	0.7753594335956904
142	0x3feba7a20a228e1c	0.864213008685002
143	0x3fee03a4d86de464	0.9379448153623682
144	0x3fefcc10d03686ec	0.9936603609714587
145	0x3ff077197477b386	1.0290770101084674
146	0x3ff0af150ad605f0	1.0427446769029949
147	0x3ff08c39c56c6790	1.0342347823957176
148	0x3ff0118030dd782a	1.0042726429742381
149	0x3fee8da5cb161556	0.9547909704712463
150	0x3fec71c4e7f3b83c	0.8888878374398312
151	0x3fe9f1192268fde0	0.8106809303353053
152	0x3fe733b1e007c9b0	0.7250604034036794
153	0x3fe465344ca81201	0.6373540398786305
154	0x3fe1b198fa0da35e	0.5529293903210648
155	0x3fde83587b791d20	0.47676670129699694
156	0x3fda6f49d576798f	0.41304250570274176
157	0x3fd7585270f4a20c	0.36476574927158434
158	0x3fd5582879668884	0.33350574355620943
159	0x3fd46e7ea2dee126	0.31924405961355473
160	0x3fd480f6755072e4	0.3203712602278712
161	0x3fd55d8e38fda673	0.3338351780463206
162	0x3fd6bf64d7049c08	0.35543175695278295
163	0x3fd8556d210b705b	0.38021400668163147
164	0x3fd9ca71732c8325	0.4029811501259693
165	0x3fdacd9f4b548796	0.41880018574203726
166	0x3fdb1abd8c4b8045	0.42350710583378187
167	0x3fda8132d0abbd34	0.4141356504250837
168	0x3fd8e91bf5f1a0de	0.3892278577609555
169	0x3fd655e3a03f0806	0.3489922585396247
170	0x3fd2e60d0a7729a6	0.2952911951257654
171	0x3fcda0601b3146c8	0.23145676925428504
172	0x3fc4bae327d95220	0.16195334859607247
173	0x3fb78827b495ad30	0.0919213119392921
174	0x3f9b4a1910be0e60	0.026649848601222437
175	0xbf9da91b6c0b0100	-0.028965404958172236
176	0xbfb227f689cc7250	-0.07092228759979347
177	0xbfb8b54fa48c1400	-0.09651658789887563
178	0xbfbac7a0fb9d8460	-0.10460859435035408
179	0xbfb88166f7f51ce8	-0.09572452119492747
180	0xbfb26d88f3dd98b0	-0.07198387101888915
181	0xbfa2dfb278630da0	-0.03686292380873657
182	0x3f753530d246fa00	0.005177679737640606
183	0x3fa92b5b3c99d0f8	0.04915890803104789
184	0x3fb7103667977298	0.09009113339511499
185	0x3fbf9ba4360b2f52	0.12346865004945798
186	0x3fc2a641411d77c3	0.14569869689415613
187	0x3fc3c414a96d0611	0.15442140839336152
188	0x3fc3084905fdc7c2	0.14869034569306733
189	0x3fc0830d65e82d3c	0.12899939990925613
190	0x3fb8df68cbac42d4	0.09715895626528531
191	0x3facb14fe37469a8	0.05604028369471631
192	0x3f82e226dfd63860	0.009220412927586519
193	0xbfa4304e606ffb98	-0.03943104674544101
194	0xbfb60fb8e6193a00	-0.08617740266456764
195	0xbfc05c00a3bb2ae4	-0.1278076934307456
196	0xbfc4bb03be832b36	-0.16195723345148288
197	0xbfc7fa47dc76d707	-0.18732546105245992
198	0xbfca15369617b260	-0.20377237633455803
199	0xbfcb2c3ec260d345	-0.21228775492786603
200	0xbfcb7fe11b0c975f	-0.2148400671077821
201	0xbfcb68658b1bde7a	-0.21412343304085707
202	0xbfcb4b1f83df0b8a	-0.21323007525469634
203	0xbfcb8e5c033ac16e	-0.21528196485224832
204	0xbfcc8d2d561d8b63	-0.2230583830342666
205	0xbfce8c46c30ec0d9	-0.2386558964185557
206	0xbfd0d87f61aaeb27	-0.26321396386963375
207	0xbfd2fdae2b20dc53	-0.2967334195304307
208	0xbfd5a1e7b9229f2e	-0.3380069072686521
209	0xbfd89e71514aec73	-0.3846705716966376
210	0xbfdbbc6d185bc843	-0.4333756196857658
211	0xbfdeb96d10b0778c	-0.4800675070745164
212	0xbfe0a6b5a7bd27a8	-0.5203502918386578
213	0xbfe198d250fe4830	-0.5499049741649795
214	0xbfe213dc0326da77	-0.5649242459829357
215	0xbfe2002faf732cfd	-0.5625227381473504
216	0xbfe1508b7f0c1b17	-0.5410821420090056
217	0xbfe0040d9e2c52fe	-0.5004947747534911
218	0xbfdc4e44ea56a868	-0.44227717289562074
219	0xbfd7a67cffa84c0a	-0.36953663794082614
220	0xbfd25ab98e9dd1a0	-0.286787404321581
221	0xbfc98d68c66cdb50	-0.19962796868068233
222	0xbfbd43215e929980	-0.11430557783987716
223	0xbfa30cb460adae20	-0.03720630340725628
224	0x3f9a4c5fb912f7c0	0.025681968375230957
225	0x3fb1bc790cf396fe	0.06928211752127919
226	0x3fb7016f69a168be	0.08986564949865092
227	0x3fb5daf49a6a8028	0.08537224550173106
228	0x3fac74da80f46de0	0.05557902168422024
229	0x3f6139ee8d0bc680	0.0021028193663077954
230	0xbfb25f1d66b486d4	-0.07176383740854969
231	0xbfc4a79cd5ac72ba	-0.16136513169558048
232	0xbfd0b603f1558ac0	-0.26110933845317774
233	0xbfd75b9b778819e0	-0.36496626542102995
234	0xbfdde30e2518d22e	-0.466983352878091
235	0xbfe1fa01c6b0c51c	-0.5617684250520685
236	0xbfe4a2f539759203	-0.6448923227549702
237	0xbfe6d25465db83b8	-0.7131750096706275
238	0xbfe87982d3d13b12	-0.7648328911835469
239	0xbfe99559a931f100	-0.7994812302199819
240	0xbfea2d11e6226e42	-0.81800169895309
241	0xbfea5046b072411f	-0.8222993322579305
242	0xbfea1458efc11dd7	-0.8149838144972205
243	0xbfe9918a03f50200	-0.7990160062109339
244	0xbfe8e02507a1f4ad	-0.7773614071917528
245	0xbfe816053a850588	-0.7526880400620692
246	0xbfe744b690491ade	-0.727137834365603
247	0xbfe67855b2d871ae	-0.7021893017841216
248	0xbfe5b73a6d189ed8	-0.6786167269501346
249	0xbfe5025df2e86cee	-0.6565389389319571
250	0xbfe456590b057618	-0.6355405059109129
251	0xbfe3acc738062930	-0.6148410886974371
252	0xbfe2fdd50f6786ff	-0.593485384070135
253	0xbfe241c13d38af05	-0.5705267139178153
254	0xbfe1722060012bf0	-0.5451814532365216
255	0xbfe08ac21e72164b	-0.5169382662431387
