data/geyser-waiting-bw2.0-basegamma-lambda-exp(-6.0)/natparam-value-shift-360.0.npy (npy, 16128 bytes, 1 tensors)

array f8 [2000]
-2.101972153982128e-25 -5.991270284220684e-25 -1.691324028563593e-24 -4.7287822871908796e-24 -1.3094382333261482e-23 -3.5911411502845375e-23 -9.754167639421846e-23 -2.623957009706675e-22
-6.990856852390684e-22 -1.84463177179142e-21 -4.8205087972791185e-21 -1.2476083806644203e-20 -3.197894497802524e-20 -8.117991768650704e-20 -2.0409380997915316e-19 -5.081663194258399e-19
-1.2530683008773208e-18 -3.0600912216205395e-18 -7.400867671403781e-18 -1.772626941841722e-17 -4.204711713431043e-17 -9.877270133843986e-17 -2.297825487717604e-16 -5.293879493614062e-16
-1.2078287552249117e-15 -2.729029940089042e-15 -6.1063273150138694e-15 -1.3530624036412772e-14 -2.969057175469239e-14 -6.451774704312484e-14 -1.3883421914530584e-13 -2.9584703768828467e-13
-6.242921242454612e-13 -1.3045323027793992e-12 -2.699382661184135e-12 -5.53111700207259e-12 -1.1222665011305833e-11 -2.2548089243885503e-11 -4.485901582108788e-11 -8.837134619267875e-11
-1.7238133109486834e-10 -3.3295160890511547e-10 -6.367647685092355e-10 -1.2058092973467822e-09 -2.2608636145075426e-09 -4.1972074223194135e-09 -7.714908312475626e-09 -1.4040385726030907e-08
-2.5298723948467447e-08 -4.51317907718922e-08 -7.971198574668635e-08 -1.393844079456385e-07 -2.412938699498458e-07 -4.1353430360259175e-07 -7.016187126448967e-07 -1.178435783467966e-06
-1.9593684203941698e-06 -3.224938898684975e-06 -5.254257040324406e-06 -8.473722265381562e-06 -1.3526898889906252e-05 -2.1373257410114386e-05 -3.342552696267215e-05 -5.173765255227054e-05
-7.925762937554246e-05 -0.00012016151978253302 -0.00018028633288340258 -0.0002676795907728494 -0.00039328158073297933 -0.0005717516102940008 -0.0008224410499729932 -0.0011705025660290937
-0.0016481058489696923 -0.002295704808892042 -0.0031632697055344623 -0.004311360959072338 -0.005811881565335029 -0.007748305641885762 -0.010215146719684291 -0.013316407505826956
-0.01716275067347059 -0.021867156010709057 -0.027538890759053414 -0.03427572323243652 -0.042154457606736945 -0.05122005804168416 -0.06147385472481402 -0.0728615675035417
-0.08526212163650931 -0.0984784355305722 -0.11223149849093512 -0.12615909292744334 -0.13982041911078563 -0.152707629135601 -0.16426486176236305 -0.17391480106074575
-0.18109209002745272 -0.1852821676473835 -0.18606333486473375 -0.18314917509021605 -0.17642794584300395 -0.16599530117645903 -0.15217676329749577 -0.13553677192688168
-0.11687190138258366 -0.09718690846446389 -0.0776535808637362 -0.059553785624337205 -0.04420953823721331 -0.03290418585480434 -0.02679979145411398 -0.026856410958117194
-0.033759098844201946 -0.0478581294086633 -0.0691270969897739 -0.09714232039453993 -0.13108542482847502 -0.16976923890462486 -0.21168537357656692 -0.25507019951135645
-0.29798455942432495 -0.3384015748303501 -0.3742964362735304 -0.4037321662398424 -0.4249360284472199 -0.4363624815455527 -0.43674023194763 -0.4251028601125857
-0.4008044547380782 -0.3635234331851907 -0.31325899106456107 -0.2503251762437372 -0.175347259701126 -0.0892638229309155 0.006664118847012512 0.11083835550878018
0.22130744479369802 0.3357564993126845 0.45151189432729044 0.5655707635443676 0.6746643291310592 0.7753615281253246 0.8642151316356093 0.9379469638700799
0.9936625333039117 1.0290792057851 1.042746896756955 1.0342370285660514 1.0042749188206403 0.9547932804087651 0.8888901866974355 0.8106833246495411
0.7250628486662352 0.6373565417635155 0.5529319539225093 0.4767693308121605 0.41304520419319435 0.3647685185338194 0.33350858412406376 0.319246970904702
0.3203742408332353 0.33383822614652975 0.3554348708311017 0.3802171852898419 0.402984393650013 0.41880349610938505 0.4235104871054135 0.4141391090221556
0.38923140248947774 0.34899590039481376 0.2952949468795827 0.23146064485285 0.16195736241568082 0.09192547796809492 0.026654179625932417 -0.028960898076693553
-0.07091759648257856 -0.0965117069703324 -0.10460352088030755 -0.0957192550437801 -0.07197841409933758 -0.03685727930859051 0.005183508299064332 0.04916491781899823
0.09009732324160963 0.12347502129386753 0.145705253984754 0.1544281591740077 0.14869730133044134 0.12900657445417682 0.09716636588311872 0.056047945640515795
0.009228344377169684 -0.039422829870896514 -0.08616888672907408 -0.12779886781927413 -0.16194809087880618 -0.1873159973468798 -0.20376258964660207 -0.21227764437320737
-0.21482963091876728 -0.21411266636602055 -0.21321896780358304 -0.21527049862670772 -0.22304653041051486 -0.23864361884146976 -0.26320121138869923 -0.29672013134502784
-0.33799301336171605 -0.38465599552633684 -0.43336028178420355 -0.4800513292826196 -0.5203332018010945 -0.549886909631955 -0.5649051584294398 -0.5625025952340117
-0.5410609284765573 -0.5004724914634879 -0.4422538338955334 -0.3695122656278501 -0.286762022987148 -0.19960159691415374 -0.11427822043179747 -0.03717794349837672
0.025711376119786633 0.06931265198221911 0.08989742581775995 0.08540541504678711 0.055613769126178964 0.0021393570169353504 -0.07172527756835764 -0.16132430762035216
-0.2610660084130429 -0.36492019820784166 -0.4669343368969703 -0.5617162754700666 -0.6448368860829342 -0.7131161654286342 -0.7647705506133399 -0.7994153323233336
-0.8179322044160404 -0.8222262160343262 -0.8149070579462497 -0.7989355896989748 -0.777277303978718 -0.7526002121094175 -0.7270462304517202 -0.7020938580252636
-0.6785173695378731 -0.6564355886462957 -0.6354330837815083 -0.6147295220837983 -0.5933696124235814 -0.5704066935690744 -0.5450571607072784 -0.5168096997829873
00000000: 8cd5 4b81 6243 d0ba 3a41 7179 772d e7ba
00000010: a333 c2f5 835b 00bb c6e7 19ed f2dd 16bb
00000020: 24e5 fab3 07a9 2fbb 44e3 c592 05b5 45bb
00000030: f67a 83f2 eb7a 5dbb a730 d593 78d3 73bb
00000040: db8b 4052 2469 8abb 3fc4 96c3 0b6c a1bb
00000050: de6b 6436 a3c3 b6bb f7eb af75 5475 cdbb
00000060: 521e 3883 85e0 e2bb 66c7 f5f9 c7f5 f7bb
00000070: 4878 4936 721e 0ebc f57d b7c4 7ebf 22bc
00000080: a761 679f 721d 37bc 4d83 e3a4 6f39 4cbc
00000090: 6711 7f80 b310 61bc e5df 900c df6f 74bc
000000a0: a52b 5a2c 0f3d 88bc 3b3b af93 2378 9cbc
000000b0: e766 1b68 bd8e b0bc 51b5 49f4 bd12 c3bc
000000c0: 3a52 f781 20c2 d5bc 7666 a2f0 b694 e8bc
000000d0: a436 22b7 1d80 fbbc 13f1 88ab df77 0ebd
000000e0: a6bc d2c1 dcb6 20bd 8ccc 2f5e fe28 32bd
000000f0: e065 95a7 078a 43bd a877 b5a5 81d1 54bd
00000100: decc 61a1 1ff7 65bd 8475 6758 17f3 76bd
00000110: 65ec dc28 78be 87bd 11ac 1def 7b53 98bd
00000120: a7ba 937a ccad a8bd 1614 a20f b9ca b8bd
00000130: 2403 2060 58a9 c8bd 1398 aaa5 944a d8bd
00000140: 8f5b 39ff 20b1 e7bd a370 e6bd 58e1 f6bd
00000150: 19c2 7ec9 0ae1 05be 2b6c 5793 34b7 14be
00000160: e0c3 0411 b16b 23be e6cc 87dc e006 32be
00000170: a82f 9cd1 5091 40be df20 649f c826 4ebe
00000180: 9233 fd6e 0f2a 5bbe a9a9 34b8 dd3a 68be
00000190: e844 4e15 c465 75be c6b5 d737 36b5 82be
000001a0: 0cbf b2a9 6531 90be dd02 e719 77c0 9bbe
000001b0: f25b 9add db8a a7be f9e6 b4d8 57c5 b3be
000001c0: e6bf 3f2e b66f c0be 3c48 b3e8 800d cbbe
000001d0: bba7 832d b709 d6be 80a0 2985 4bc5 e1be
000001e0: cf1e c0d3 325e ecbe 85e2 bb10 5769 f6be
000001f0: 5ae0 7a5c 4c86 01bf 04b7 9934 1c20 0bbf
00000200: 907d 5ab4 e3c6 14bf d838 d930 e77f 1fbf
00000210: ec35 abce 67a1 27bf aab4 9216 eb8a 31bf
00000220: 9b8b 0187 2bc6 39bf 58e4 db3b 33bc 42bf
00000230: 9384 cdb4 22f3 4abf 5833 6c8f 712d 53bf
00000240: 2adc 2f2e a800 5bbf b62d 6a22 71ce 62bf
00000250: c4da e07d dbe9 69bf e3a1 2025 caa8 71bf
00000260: 4b7c 0514 33ce 77bf 6e0d 4df5 afbc 7fbf
00000270: 8fd8 adc8 adeb 84bf fae1 e6f5 a145 8bbf
00000280: b867 68b3 1c93 91bf 74aa b0ff 5764 96bf
00000290: 7087 b6ac 2733 9cbf ecfd a86c 968c a1bf
000002a0: 3c65 9ae1 4495 a5bf ff62 60f4 8339 aabf
000002b0: 8e4a 3447 8079 afbf 4a21 9041 0ea7 b2bf
000002c0: 9431 0408 bdd3 b5bf a60d f7fb e135 b9bf
000002d0: fd81 9917 34bb bcbf cdb2 1b2d fb25 c0bf
000002e0: 4669 b2af a2e5 c1bf 6459 7e70 ec8b c3bf
000002f0: 225e 9388 a106 c5bf e451 6c17 d742 c6bf
00000300: a3b8 1d8e 062e c7bf 91eb 4979 53b7 c7bf
00000310: f646 1d61 ecd0 c7bf 36a3 a6a2 6e71 c7bf
00000320: 3582 bfe0 3095 c6bf 11d9 eb82 553f c5bf
00000330: d174 c936 877a c3bf 426a 6ad9 4459 c1bf
00000340: d270 4222 51eb bdbf a147 74c1 3de1 b8bf
00000350: 301f 3ae6 1ae1 b3bf 6e13 3873 d57d aebf
00000360: f2d8 ccf1 a1a2 a6bf 4cb8 4b44 d1d8 a0bf
00000370: ae14 578f 6771 9bbf 601f 033b 3f80 9bbf
00000380: f4e0 f462 df48 a1bf 20de 5059 dc80 a8bf
00000390: dea7 d63c 50b2 b1bf 36f0 26b1 51de b8bf
000003a0: ba6e 4f3e 68c7 c0bf 8a28 7b98 ffba c5bf
000003b0: 58c5 469e 8118 cbbf 5c78 45f5 1153 d0bf
000003c0: 3d30 5cd4 2d12 d3bf 87eb 3314 5fa8 d5bf
000003d0: 6077 330a 79f4 d7bf 96f9 9570 bfd6 d9bf
000003e0: f8aa 44e2 2632 dbbf a021 dce6 5ced dbbf
000003f0: 6a00 444d 8df3 dbbf d4a7 67a0 e234 dbbf
00000400: ef3b 4cba c7a6 d9bf d10a 37ca f743 d7bf
00000410: 3b37 7370 6f0c d4bf 3244 55e3 5305 d0bf
00000420: e505 ee6c c771 c6bf 9047 3470 fed9 b6bf
00000430: 40be 12c8 d54b 7b3f 5079 0d08 e75f bc3f
00000440: 7808 e066 cd53 cc3f 50ea fdd3 087d d53f
00000450: 9001 f924 92e5 dc3f dae5 9fdb 2719 e23f
00000460: 68a9 aca5 d996 e53f ccfe bbfa c2cf e83f
00000470: 34aa e27d a6a7 eb3f 288b e659 a903 ee3f
00000480: 40a0 795e 15cc ef3f 5673 ddc1 1b77 f03f
00000490: cc39 b95e 17af f03f f60d 6020 3c8c f03f
000004a0: 7b71 c893 8211 f03f 807a 39a3 aa8d ee3f
000004b0: ea39 33d5 c971 ec3f d808 d927 1ef1 e93f
000004c0: 4e1d d200 b733 e73f b982 d88b 3965 e43f
000004d0: 7a56 605a 9eb1 e13f fbbc e482 6383 de3f
000004e0: e2e1 f126 556f da3f d4a3 6d0e 5e58 d73f
000004f0: 2de1 6f63 3458 d53f 1e7f d8d8 8a6e d43f
00000500: 4003 b7f5 0281 d43f 4b0e dd01 9b5d d53f
00000510: d8f6 84e6 71bf d63f 5b9c 0c76 7a55 d83f
00000520: cf9c e10d 7fca d93f 9e60 cf2d adcd da3f
00000530: b65e e8ba cb1a db3f c5a9 4f52 4181 da3f
00000540: 6e2f 11d4 2ae9 d83f 2890 a8e6 f255 d63f
00000550: 3c66 e1c6 1ce6 d23f b01e fa9d 80a0 cd3f
00000560: 84fc 75d3 04bb c43f 70c9 8a99 6d88 b73f
00000570: e02b 2eb7 3b4b 9b3f 00a4 68f8 eca7 9dbf
00000580: 8085 9ad5 a727 b2bf f863 1ec1 fdb4 b8bf
00000590: 3035 3add 4bc7 babf 58b1 029e 0e81 b8bf
000005a0: 0019 9366 2d6d b2bf 50f7 7f12 f5de a2bf
000005b0: 00ea f769 4d3b 753f b047 49e4 242c a93f
000005c0: 84a4 c740 9e10 b73f 1e7f 541a 0f9c bf3f
000005d0: 6d25 5c42 78a6 c23f a6ee 9d4a 4dc4 c33f
000005e0: b0dd 1b5f 8308 c33f 77f5 1f95 4983 c03f
000005f0: ec39 bd1b e5df b83f 9868 11fb 50b2 ac3f
00000600: 008e 5e6a 4fe6 823f 80c5 05aa 3a2f a4bf
00000610: 4821 6f06 2a0f b6bf 32f3 df9a b65b c0bf
00000620: 96af fc0c b7ba c4bf 25ad 4f79 f8f9 c7bf
00000630: 2318 577d e414 cabf bb9e 20f2 e92b cbbf
00000640: 6c01 818f 897f cbbf 0cc8 d939 0b68 cbbf
00000650: d337 cd56 c24a cbbf ee99 b2d3 fb8d cbbf
00000660: 26ba cce8 c98c ccbf af5e 29c5 df8b cebf
00000670: a4a6 cbe4 49d8 d0bf 2045 0c6f 76fd d2bf
00000680: 5e90 aa72 ada1 d5bf 77bd 3f2e 349e d8bf
00000690: 0181 69c3 2cbc dbbf 34e4 ea35 29b9 debf
000006a0: 0547 98d0 91a6 e0bf a4c4 ab6e ac98 e1bf
000006b0: 007a 99fb b313 e2bf 203f 4e71 0500 e2bf
000006c0: 1c68 1e02 5f50 e1bf 2844 ece2 de03 e0bf
000006d0: e629 4706 e34d dcbf 36eb 15c6 16a6 d7bf
000006e0: 05bc 9d19 4f5a d2bf 96e2 7c8d 8b8c c9bf
000006f0: 684f 6663 5641 bdbf 5887 eac6 fc08 a3bf
00000700: 704f 473e 1554 9a3f ee70 7655 79be b13f
00000710: e8c1 e187 8403 b73f 50fa 8618 21dd b53f
00000720: 0c5e 356f 6879 ac3f 00b5 828d 8e86 613f
00000730: cede 7379 965c b2bf aabe a360 46a6 c4bf
00000740: 4bcd 0e34 4eb5 d0bf 0df6 3c3f da5a d7bf
00000750: 1486 968e 40e2 ddbf aecb 1869 94f9 e1bf
00000760: bb61 1ff7 80a2 e4bf 247a 18fe d8d1 e6bf
00000770: ad80 fa16 0079 e8bf 75fd 8776 cf94 e9bf
00000780: 90fc 8928 802c eabf 1900 795a ad4f eabf
00000790: 3b14 65f7 b713 eabf 25c3 ab5e e190 e9bf
000007a0: 645f 10a7 74df e8bf a21f 3f0a 4d15 e8bf
000007b0: 060c cf74 f643 e7bf 761c de89 8d77 e6bf
000007c0: 0ddc fd0e 6ab6 e5bf bb52 2535 8501 e5bf
000007d0: 8c6a 34c3 7755 e4bf 3a8a 273f ddab e3bf
000007e0: 5295 f944 e2fc e2bf b08e c989 c540 e2bf
000007f0: 2f07 f6b6 1b71 e1bf 2f5a da7e b489 e0bf
