data/geyser-waiting-bw10.0-basegamma-lambda-exp(-6.0)/natparam-value-shift-90.0.npy (npy, 16128 bytes, 1 tensors)

array f8 [2000]
000000 a4 37 16 67 30 9c a4 bf ea dc f6 2f d5 60 a5 bf
       -0.04025412805923104 -0.041754400353448975
000010 28 04 20 1c e4 29 a6 bf 66 45 0b 65 4b f7 a6 bf
       -0.043288353379473954 -0.04485545738647083
000020 36 98 48 17 f6 c8 a7 bf b8 8f ac f0 cb 9e a8 bf
       -0.046455087988121965 -0.04808652222553128
000030 2c fc ce 3e b1 78 a9 bf 01 b6 f7 bd 86 56 aa bf
       -0.04974893466668848 -0.051441393556029176
000040 3f 98 98 78 29 38 ab bf 77 f2 74 a7 72 1d ac bf
       -0.053162857028198555 -0.05491216940069859
000050 cc db 97 92 37 06 ad bf 80 fc 3b 73 49 f2 ad bf
       -0.0566880575606131 -0.058489127461137436
000060 20 66 c8 56 75 e1 ae bf 4a 13 07 03 84 d3 af bf
       -0.06031386074409917 -0.06216061150511239
000070 30 45 dd ed 1c 64 b0 bf 1b 78 dc 64 ab df b0 bf
       -0.06402760321841039 -0.06591292583877399
000080 00 c5 d9 11 4b 5c b1 bf f1 25 69 4c d7 d9 b1 bf
       -0.06781453309828933 -0.06973024001594987
000090 6c c8 a5 0e 29 58 b2 bf cc 38 90 ec 16 d7 b2 bf
       -0.07165772063834347 -0.07359450602982348
0000a0 ea 3b 93 0c 75 56 b3 bf 25 c1 43 21 15 d6 b3 bf
       -0.07553798253069002 -0.07748539030194886
0000b0 82 51 70 64 c6 55 b4 bf 2e 4e 94 93 55 d5 b4 bf
       -0.07943382217519537 -0.08138022282610599
0000c0 fc 20 c3 ed 8c 54 b5 bf 6c 44 1f 33 34 d3 b5 bf
       -0.08332138828984975 -0.08525396583651607
0000d0 bc b2 f0 a5 10 51 b6 bf b2 e2 6d 0d e5 cd b6 bf
       -0.08717445422434883 -0.08907920434820474
0000e0 d2 f2 49 ba 71 49 b7 bf 86 0f 1a 8d 74 c3 b7 bf
       -0.09096442030017762 -0.09282616085880421
0000f0 4a 6e a3 fe a8 3b b8 bf f8 6e 22 2a c8 b1 b8 bf
       -0.09466034142263272 -0.09646273640322167
000100 9f 94 9a d9 88 25 b9 bf 82 0f 3e 94 9f 96 b9 bf
       -0.09822898209184182 -0.09995458001327331
000110 6e 7b fa ae be 04 ba bf a6 52 37 5f 96 6f ba bf
       -0.1016349007791015 -0.10326518845188079
000120 cc 4c d1 cf d4 d6 ba bf e2 87 5c 38 26 3a bb bf
       -0.10484056543036785 -0.10635603786479877
000130 cf eb b5 f6 34 99 bb bf 2d a3 ea aa a9 f3 bb bf
       -0.10780650160988546 -0.10918674872176544
000140 3d f4 7a 55 2b 49 bc bf cb fa fb 77 5f 99 bc bf
       -0.11049147450371861 -0.11171528510383692
000150 19 06 1a 38 ea e3 bc bf 5a 78 fb 84 6e 28 bd bf
       -0.11285270566624951 -0.113898189035781
000160 d4 0b 02 3f 8e 66 bd bf 9d 65 e6 61 ea 9d bd bf
       -0.11484612501412467 -0.11569085016380716
000170 e4 bf 27 31 23 ce bd bf 85 4e c7 66 d8 f6 bd bf
       -0.1164266581542957 -0.11704781064264054
000180 20 d5 44 64 a9 17 be bf a4 9a cf 65 35 30 be bf
       -0.11754854867907172 -0.1179231046258829
000190 5e a1 9c b7 1b 40 be bf c3 be 50 ed fb 46 be bf
       -0.11816571457587119 -0.11827063125451347
0001a0 82 c0 6a 1b 76 44 be bf 3a 88 97 12 2b 38 be bf
       -0.11823213738785124 -0.1180445595159946
0001b0 48 93 d7 9c bc 21 be bf 20 11 5b bc cd 00 be bf
       -0.11770228222992529 -0.11719976280716482
0001c0 ac 44 f7 eb 02 d5 bd bf 78 9f 15 61 02 9e bd bf
       -0.11653154621969247 -0.11569228048540292
0001d0 30 a8 fa 4e 74 5b bd bf 96 87 40 2b 03 0d bd bf
       -0.11467673233224285 -0.11347980314215386
0001e0 5d ca 5e f3 5b b2 bc bf 39 d1 16 73 2e 4b bc bf
       -0.11209654513985741 -0.11052217778962338
0001f0 50 3b 9a 8b 2d d7 bb bf 4c a2 3e 7b 0f 56 bb bf
       -0.10875210436118476 -0.10678192862418107
000200 22 0c 90 25 8e c7 ba bf c8 a3 91 5b 67 2b ba bf
       -0.10460747162873976 -0.10222478852814654
000210 f8 93 fa 23 5d 81 b9 bf 87 48 3b 03 36 c9 b8 bf
       -0.0996301853979985 -0.09682023600479016
000220 d4 e4 15 43 bd 02 b8 bf 7e 67 93 39 c3 2d b7 bf
       -0.09379179847555302 -0.09054203181895379
000230 f2 cb 1d 8f 1d 4a b6 bf 52 79 86 83 a7 57 b5 bf
       -0.08706841224720543 -0.08336874924723262
000240 d2 66 bf 31 42 56 b4 bf 88 c5 0c d2 d4 45 b3 bf
       -0.0794412013487105 -0.07528429153605576
000250 a5 71 74 fa 4c 26 b2 bf 44 24 30 dd 9e f7 b0 bf
       -0.07089692225094398 -0.06627838993166885
000260 64 90 ce 09 8b 73 af bf c4 bb ea 1c 86 d9 ac bf
       -0.06142839903557798 -0.05634707549085463
000270 20 71 04 c0 41 21 aa bf 10 9a 63 ba df 4a a7 bf
       -0.05103497952424818 -0.045493117811748474
000280 de 19 64 30 91 56 a4 bf c4 6d dc fe 96 44 a1 bf
       -0.03972295489988985 -0.0337264238462143
000290 f4 91 c0 1e 84 2a 9c bf c0 ea e5 49 e7 91 95 bf
       -0.027505936028449043 -0.021064390073187722
0002a0 e0 08 02 83 76 80 8d bf c0 f4 c1 f3 15 da 7e bf
       -0.014405179856343542 -0.007532201529213356
0002b0 00 e4 8f f3 63 7b 3d bf 60 a0 57 04 0a 01 7c 3f
       -0.0004498595258720095 0.00683692849040804
0002c0 70 41 4c fb 3b 55 8d 3f 28 a1 06 4c 95 87 96 3f
       0.014322727781774985 0.022001583829166865
0002d0 a8 78 40 d6 75 95 9e 3f 8c c0 52 02 35 69 a3 3f
       0.02986702079953632 0.037912041219329756
0002e0 bc 93 b7 a6 3c 9e a7 3f 48 13 06 2d c4 e8 ab 3f
       0.04612912688370538 0.054510241027890205
0002f0 22 d8 a0 50 d6 23 b0 3f 74 c5 d0 f7 e2 5c b2 3f
       0.06304683178390794 0.07172983694251461
000300 28 26 69 8c e7 9e b4 3f 1c 26 d7 38 3b e9 b6 3f
       0.08054969003674073 0.08949632775979705
000310 98 f7 3f f7 2c 3b b9 3f ee f8 ec bc 03 94 bb 3f
       0.0985591987264044 0.10772727358287046
000320 30 3d 84 ab fe f2 bd 3f 58 5c 05 a4 aa 2b c0 3f
       0.1169890564672087 0.12633259781680084
000330 1a 63 d4 db 1b 60 c1 3f 82 ab 12 81 67 96 c2 3f
       0.1357455085169697 0.14521497537984024
000340 9e cc 03 ad 1e ce c3 3f 5e 32 25 35 cf 06 c5 3f
       0.1547277779387501 0.16427030653939573
000350 b2 1e c4 d4 03 40 c6 3f a3 1b 41 59 44 79 c7 3f
       0.1738285817048016 0.1833882747470997
000360 80 ce ef d0 15 b2 c8 3f 2e ea 7f bc fa e9 c9 3f
       0.19293472959508406 0.2024529858025103
000370 90 cc d9 42 73 20 cb 3f 2e 40 57 67 fd 54 cc 3f
       0.2119278026981175 0.22134368463457704
000380 ea b8 3e 42 15 87 cd 3f 2c 6f 65 3b 35 b6 ce 3f
       0.23068490728969177 0.23993554496962
000390 04 ba da 46 d6 e1 cf 3f 4b 9b be 11 b8 84 d0 3f
       0.2490794988602404 0.2581005261694613
0003a0 66 3a ac cd 3c 16 d1 3f 46 19 d4 62 34 a5 d1 3f
       0.26698227009993614 0.27570829058858626
0003b0 fa 48 2e a5 59 31 d2 3f fd 97 7c 53 67 ba d2 3f
       0.28426209574639894 0.2926271739291904
0003c0 5e cf 53 3a 18 40 d3 3f 78 3b aa 57 27 c2 d3 3f
       0.30078702636750687 0.30872520028145045
0003d0 cf 87 d6 fe 4f 40 d4 3f 7d 69 e9 fc 4d ba d4 3f
       0.3164253224041404 0.32387113283552776
0003e0 23 23 4c bd dd 2f d5 3f 94 83 8d 6e bc a0 d5 3f
       0.33104651914668376 0.33793555065317915
0003f0 b9 ae 46 27 a8 0c d6 3f d6 ba 00 0b 60 73 d6 3f
       0.34452251277501095 0.35079194139954717
000400 8c fe 03 6f a4 d4 d6 3f 45 c7 f9 fe 36 30 d7 3f
       0.3567286571633097 0.36231779956789395
000410 34 29 49 e1 da 85 d7 3f 0d 98 17 db 54 d5 d7 3f
       0.3675448608452314 0.37239571948737266
000420 21 15 d6 73 6b 1e d8 3f 8b e1 43 18 e7 60 d8 3f
       0.3768566733563877 0.380914472290464
000430 06 e4 cf 3c 92 9c d8 3f 5f 3b 42 7f 39 d1 d8 3f
       0.3845563501232053 0.3877700560341761
000440 df d2 97 c7 ab fe d8 3f 90 40 fa 67 ba 24 d9 3f
       0.3905438851500502 0.39286670831735027
000450 bd af be 3b 39 43 d9 3f ba 2d 57 c5 fe 59 d9 3f
       0.39472800096950406 0.39611787101304297
000460 bb 48 22 4b e4 68 d9 3f 4e a3 05 f3 c5 6f d9 3f
       0.3970270856599531 0.39744709713572923
000470 28 d6 c0 dc 82 6e d9 3f e4 c4 e6 3a fd 64 d9 3f
       0.3973700671952849 0.39678889038175513
000480 b6 61 6c 6a 1a 53 d9 3f 6b bb bc 08 c3 38 d9 3f
       0.3956972159662898 0.3940894685101088
000490 2e 1f 43 08 e3 15 d9 3f ea 0f 5d c3 69 ea d8 3f
       0.3919608669934743 0.3893074424597659
0004a0 24 d3 a6 0d 4a b6 d8 3f 32 60 96 43 7a 79 d8 3f
       0.38612605412645196 0.38241440391857673
0004b0 a7 8a 59 58 f4 33 d8 3f 92 5c ed e1 b5 e5 d7 3f
       0.37817104938418783 0.37339541495516315
0004c0 0e af 65 23 c0 8e d7 3f c9 32 5d 15 18 2f d7 3f
       0.36808780152090115 0.36224939428647623
0004d0 68 3f 87 6c c6 c6 d6 3f 42 e8 5d 9e d7 55 d6 3f
       0.35588226889102836 0.34898939576635624
0004e0 a3 fe e7 e3 5b dc d5 3f 33 d7 93 3a 67 5a d5 3f
       0.3415746427199144 0.33364277573069784
0004f0 30 cf 24 63 11 d0 d4 3f 9a bb b2 de 75 3d d4 3f
       0.32519945795069116 0.31625124690884265
000500 bb 92 bb e9 b3 a2 d3 3f 0b c7 48 75 ee ff d2 3f
       0.30680558991870627 0.29687081769508045
000510 ad ec 2a 1e 4c 55 d2 3f 30 60 4f 22 f7 a2 d1 3f
       0.28645613618909743 0.27557161665527286
000520 94 bf 34 54 1d e9 d0 3f 3f 19 84 0c f0 27 d0 3f
       0.2642281839680376 0.25243760320917724
000530 0d 86 ab 33 48 bf ce 3f b0 9f 53 5d e3 20 cd 3f
       0.24021246455144799 0.22756616646733852
000540 8f 38 3a 9b 28 75 cb 3f 1e bf c9 67 95 bc c9 3f
       0.21451289729560982 0.2010676152017305
000550 57 39 37 84 ad f7 c7 3f 11 70 d6 c6 fa 26 c6 3f
       0.18724602657170905 0.1730645628821326
000560 c1 9b 41 e6 0c 4b c4 3f e8 79 6f 41 79 64 c2 3f
       0.1585403560922867 0.14369121260729334
000570 05 3e d4 a4 da 73 c0 3f f6 a1 56 19 a2 f3 bc 3f
       0.12853558586401462 0.11309254759419915
000580 56 72 12 c9 02 ee b8 3f 99 b7 ac 88 2a d8 b4 3f
       0.09738175782190103 0.08142343365463346
000590 2d 03 a9 55 75 b3 b0 3f ec d9 48 d7 8e 02 a9 3f
       0.06523831692994682 0.04884764078126466
0005a0 1c b2 c0 60 19 86 a0 3f 90 4d dc dd c0 d1 8f 3f
       0.032273095188745965 0.015536791582724502
0005b0 80 0b 98 06 39 ef 55 bf b8 f5 94 27 4c c5 92 bf
       -0.0013387734310305877 -0.01833075515354718
0005c0 08 ac 92 b7 0b 22 a2 bf 70 e9 20 a1 98 ea aa bf
       -0.03541599861031136 -0.05257107703114883
0005d0 c4 68 75 77 99 dc b1 bf d0 54 23 22 5d 45 b6 bf
       -0.06977233091803031 -0.08699590762565212
0005e0 68 55 95 90 04 ae ba bf 90 5f 82 1e fb 14 bf bf
       -0.10421780137888492 -0.12141389365058175
0005f0 10 5f 00 79 55 bc c1 bf cc 15 86 d5 be eb c3 bf
       -0.13855999382280304 -0.1556318800541433
000600 2a b3 cc 89 ee 17 c6 bf 20 ff f0 e7 19 40 c8 bf
       -0.17260534027573132 -0.18945621323836637
000610 34 a1 49 07 77 63 ca bf f4 ac 45 1c 3d 81 cc bf
       -0.2061604295333922 -0.22269405251004282
000620 a6 0a e8 cf a4 98 ce bf 1f d8 5a 4b 74 54 d0 bf
       -0.239033319012454 -0.25515467985985824
000630 f3 80 76 83 a2 58 d1 bf a6 84 ee 96 7c 58 d2 bf
       -0.2710348399941857 -0.2866507982199188
000640 12 d6 19 72 a3 53 d3 bf 8c 46 8d 90 b9 49 d4 bf
       -0.30197988646190865 -0.3169998084677921
000650 c4 6a fd 25 63 3a d5 bf 3a 65 60 46 46 25 d6 bf
       -0.3316886778826922 -0.3460250556250518
000660 2e 62 3c 0d 0b 0a d7 bf 4e f0 0f c4 5b e8 d7 bf
       -0.35998798649373753 -0.3735570349379075
000670 04 cc c1 07 e5 bf d8 bf b4 24 06 ed 55 90 d9 bf
       -0.3867123199226514 -0.3994345488250233
000680 ea d5 a7 23 60 59 da bf 46 96 a4 18 b8 1a db bf
       -0.4117050502967162 -0.4235058060315605
000690 30 9c 0b 17 15 d4 db bf 1c cc 8e 67 31 85 dc bf
       -0.4348194813778177 -0.4456294547373447
0006a0 e0 16 b7 6e ca 2d dd bf b0 48 ad c9 a0 cd dd bf
       -0.4559198456957869 -0.46567554183014703
0006b0 32 34 89 69 78 64 de bf 46 c4 19 ad 18 f2 de bf
       -0.47488222414250736 -0.48352639107094253
0006c0 70 3b 19 79 4c 76 df bf d0 97 c1 4e e2 f0 df bf
       -0.4915953810313374 -0.49907739344632507
0006d0 75 eb 5a 30 d6 30 e0 bf 97 ca 1a 53 40 64 e0 bf
       -0.5059615082203509 -0.5122377036226052
0006e0 99 ab 48 76 9c 92 e0 bf de 4a 6b 73 d9 bb e0 bf
       -0.5178968725425533 -0.5229308370856776
0006f0 c5 c2 d5 1d e8 df e0 bf ce b6 a9 48 bb fe e0 bf
       -0.5273323614802271 -0.5310951632688672
000700 ba a1 ea cb 47 18 e1 bf cd 98 9f 88 84 2c e1 bf
       -0.5342139227623683 -0.5366842907358432
000710 d7 4c 01 6c 6a 3b e1 bf 12 8b b2 71 f4 44 e1 bf
       -0.5385028943514055 -0.5396673412945765
000720 e4 fd 01 a5 1f 49 e1 bf 02 6a 34 21 eb 47 e1 bf
       -0.5401762221153459 -0.5400291107683304
000730 3c 27 d7 10 58 41 e1 bf d6 13 1b ac 69 35 e1 bf
       -0.5392265633501903 -0.5377701150360916
000740 c0 c5 38 36 25 24 e1 bf 7c 41 df f9 91 0d e1 bf
       -0.5356622752207656 -0.5329065208734813
000750 06 05 af 44 b9 f1 e0 bf 57 b9 c3 61 a6 d0 e0 bf
       -0.5295072881200731 -0.5254699620689206
000760 fe 63 4f 93 66 aa e0 bf fa 79 4a 0b 09 7f e0 bf
       -0.5208008649016163 -0.5155072422529081
000770 5b b9 3c e3 9e 4e e0 bf 65 34 23 13 3b 19 e0 bf
       -0.5095972479082705 -0.5030799268512395
000780 4e ff f0 ce e4 bd df bf a8 e2 c8 ec b6 3f df bf
       -0.49596519669647854 -0.48826382754809083
000790 dc d1 32 28 1d b8 de bf 9e 18 cb 8c 4b 27 de bf
       -0.47998742032657815 -0.4711483836112026
0007a0 00 d3 fd 6e 79 8d dd bf 20 c3 23 50 e1 ea dc bf
       -0.4617599090482116 -0.45183594537870597
0007b0 42 6e 33 c1 c0 3f dc bf dc 16 17 44 58 8c db bf
       -0.4413911711432982 -0.4304409661238944
0007c0 04 07 b9 2b eb d0 da bf f2 68 d8 7a bf 0d da bf
       -0.41900138158608535 -0.4070891093885073
0007d0 f4 b3 b9 c1 1d 43 d9 bf 86 6e c6 fa 50 71 d8 bf
       -0.3947214500283842 -0.3819162796951122
0007e0 b2 b3 30 66 a6 98 d7 bf e6 8a af 64 6d b9 d6 bf
       -0.3686920164062101 -0.3550675853022497
0007f0 5a b7 69 51 f7 d3 d5 bf 70 28 25 5b 97 e8 d4 bf
       -0.34106238317951 -0.3266962423409785
