data/geyser-waiting-bw10.0-basegamma-lambda-exp(-6.0)/natparam-value-shift-350.0.npy (npy, 16128 bytes, 1 tensors)

array f8 [2000]
00000000: 6639 0d47 f09a a4bf be3d e53d 855f a5bf
00000010: 16ae c6b0 8328 a6bf b861 18d4 d9f5 a6bf
00000020: 9b49 48af 72c7 a7bf 8fba fafa 359d a8bf
00000030: 842c 8aff 0777 a9bf 5633 f573 c954 aabf
00000040: 10b6 595d 5736 abbf 0fad 1def 8a1b acbf
00000050: 24d0 e66b 3904 adbf 45c9 8307 34f0 adbf
00000060: 0884 eac9 47df aebf e231 7073 3dd1 afbf
00000070: fc3e 30b1 ec62 b0bf 641e 0dbd 6dde b0bf
00000080: 244b ec85 ff5a b1bf 6223 a860 7dd8 b1bf
00000090: 2e89 a444 c056 b2bf c8ef 2dc3 9ed5 b2bf
000000a0: c41a ffff ec54 b3bf 60f8 01ab 7cd4 b3bf
000000b0: 4afb 5ffb 1c54 b4bf 6b45 f6ab 9ad3 b4bf
000000c0: 82c5 41f9 bf52 b5bf 842c d7a0 54d1 b5bf
000000d0: 5a49 7ae2 1d4f b6bf c2f0 e782 decb b6bf
000000e0: 8811 65d0 5647 b7bf 4200 25a9 44c1 b7bf
000000f0: 0154 9883 6339 b8bf 5ae4 b478 6caf b8bf
00000100: 7298 4650 1623 b9bf cdc0 578f 1594 b9bf
00000110: 109d be88 1c02 babf aa8d dc6f db6c babf
00000120: 4c27 9a6d 00d4 babf c005 aab7 3737 bbbf
00000130: e9cc 1aaa 2b96 bbbf 7d32 3fe3 84f0 bbbf
00000140: 9e59 f161 ea45 bcbf 9000 35a6 0196 bcbf
00000150: 8542 3ad4 6ee0 bcbf 26ca c0d9 d424 bdbf
00000160: 1658 d995 d562 bdbf 8784 0103 129a bdbf
00000170: ba84 9363 2aca bdbf 3597 8170 bef2 bdbf
00000180: fc8b 528a 6d13 bebf 7695 52ec d62b bebf
00000190: 6947 e9e1 993b bebf 495f 03fe 5542 bebf
000001a0: 3283 7c54 ab3f bebf 0ee0 72b5 3a33 bebf
000001b0: ba1c 6cea a51c bebf 18c4 30f5 8ffb bdbf
000001c0: cce2 4050 9dcf bdbf 8047 c230 7498 bdbf
000001d0: 9277 c6c9 bc55 bdbf 3633 c490 2107 bdbf
000001e0: fe18 1e83 4fac bcbf b7e1 8d6c f644 bcbf
000001f0: 2282 492e c9d0 bbbf ef8a b506 7e4f bbbf
00000200: aa2b 76d9 cec0 babf 5a6b ae77 7924 babf
00000210: d973 3be8 3f7a b9bf d034 b8af e8c1 b8bf
00000220: 6730 1418 3ffb b7bf bce9 8677 1326 b7bf
00000230: ec49 a876 3b42 b6bf 524b 7555 924f b5bf
00000240: b157 072f f94d b4bf e829 c43b 573d b3bf
00000250: 3379 cb11 9a1d b2bf d269 67e3 b5ee b0bf
00000260: 684f 8976 4b61 afbf 2438 6e6c d7c6 acbf
00000270: 5813 a174 220e aabf e299 1d56 4e37 a7bf
00000280: ec7a d034 8c42 a4bf 923a fbec 1c30 a1bf
00000290: 2c8e e8ce a200 9cbf c822 aecc 1567 95bf
000002a0: 10fa ec26 ed28 8dbf e0a9 6b60 2a27 7ebf
000002b0: 00a4 37d4 5a0e 32bf 2075 75c5 cbbb 7c3f
000002c0: 7029 0393 9bb4 8d3f 40f9 4987 47b8 963f
000002d0: 482d 2b99 2dc7 9e3f 1c3c 2136 9582 a33f
000002e0: d4e1 f8bd 22b8 a73f 74b5 94bb 3103 ac3f
000002f0: 287f f19e 5131 b03f ac49 169a a36a b23f
00000300: 6474 2951 eeac b43f d8e2 41f0 88f7 b63f
00000310: 2841 3b73 c249 b93f d240 1fd1 e1a2 bb3f
00000320: 98de 5a2d 2602 be3f 8f77 5e87 6333 c03f
00000330: 4253 1b4e fa67 c13f af36 a9ef 6b9e c23f
00000340: 2a66 2886 49d6 c33f 5460 ebe7 200f c53f
00000350: 3124 0ad1 7c48 c63f 78b9 a20f e581 c73f
00000360: 89ed b5b2 deba c83f aa02 8d3b ecf2 c93f
00000370: 8ae0 92d1 8d29 cb3f d03f 8978 415e cc3f
00000380: ce2a 0049 8390 cd3f c938 f4aa cdbf ce3f
00000390: 44e7 7592 99eb cf3f b351 1d5f af89 d03f
000003a0: 7d1f fbfb 491b d13f 05ef 2cab 57aa d13f
000003b0: 96e7 4940 9336 d23f e21b 9579 b7bf d23f
000003c0: a68e 0423 7f45 d33f b482 cd39 a5c7 d33f
000003d0: 9c20 6110 e545 d43f 0af1 c372 fabf d43f
000003e0: 2c3a 2acb a135 d53f 3be5 c246 98a6 d53f
000003f0: 223f 9afa 9b12 d63f 63a3 7d08 6c79 d63f
00000400: bef0 c8c3 c8da d63f d584 06d6 7336 d73f
00000410: 0974 4a63 308c d73f 8cb1 312e c3db d73f
00000420: 7af9 6dbb f224 d83f 9870 c774 8767 d83f
00000430: ad2e 7dcb 4ba3 d83f 5731 ee59 0cd8 d83f
00000440: b992 7404 9805 d93f 9550 5d19 c02b d93f
00000450: 7b6c e76f 584a d93f e2bf 3586 3761 d93f
00000460: e879 1f9e 3670 d93f b0ee cbd8 3177 d93f
00000470: 3117 0751 0876 d93f ceeb 3c34 9c6c d93f
00000480: 9c9a 0ada d25a d93f c779 55da 9440 d93f
00000490: 8484 d821 ce1d d93f f428 1a05 6ef2 d83f
000004a0: 402b bd51 67be d83f c26e 205e b081 d83f
000004b0: 2882 4217 433c d83f 35e6 de0c 1dee d73f
000004c0: e220 bc7b 3f97 d73f dad0 2256 af37 d73f
000004d0: 681a 774a 75cf d63f c4ed eec7 9d5e d63f
000004e0: 00d0 6001 39e5 d53f 60fc 27ee 5a63 d53f
000004f0: 90da 1b49 1bd9 d43f 0cf3 998d 9546 d43f
00000500: 2bb0 a2f2 e8ab d33f 7060 0a64 3809 d33f
00000510: 2e10 c179 aa5e d23f ffec 346d 69ac d13f
00000520: 14ff d30c a3f2 d03f 4716 b3ad 8831 d03f
00000530: 57ac c136 9ed2 ce3f 0ca0 d90b 5d34 cd3f
00000540: 7f34 57dc c488 cb3f 1c92 8320 53d0 c93f
00000550: fa32 0199 8b0b c83f 900e 401d f83a c63f
00000560: 6aba c566 285f c43f f14a 64d9 b178 c23f
00000570: f249 7c48 2f88 c03f 2a2b cf72 811c bd3f
00000580: 6cc1 5846 1617 b93f b7c1 3157 7001 b53f
00000590: 92dc d2c3 ebdc b03f 4819 70dc d955 a93f
000005a0: e8b7 54d0 bfd9 a03f 7867 d96d df90 903f
000005b0: 00a7 7bd2 c8c8 46bf 3882 056e f31b 92bf
000005c0: f00b 9086 0acd a1bf a858 06e8 4295 aabf
000005d0: e8e8 392a c4b1 b1bf c883 c3dd 5c1a b6bf
000005e0: d07f 7f6d d882 babf c893 9ecc a1e9 bebf
000005f0: ee33 9458 91a6 c1bf b0c0 b421 e2d5 c3bf
00000600: 4654 fae6 f701 c6bf 5e79 f1b6 072a c8bf
00000610: 60e2 7e61 474d cabf b821 bfcf ed6a ccbf
00000620: 7813 875b 3382 cebf 8c90 2d13 2949 d0bf
00000630: 78f3 d937 434d d1bf 2c8e 3375 074d d2bf
00000640: b809 8688 1648 d3bf 8fd4 99bc 123e d4bf
00000650: 9a05 a612 a02e d5bf 5aaf 846a 6419 d6bf
00000660: c87f 16aa 07fe d6bf 60e8 c2e3 33dc d7bf
00000670: a271 027c 95b3 d8bf ee4c e14d db83 d9bf
00000680: 0ca8 68ce b64c dabf 10cb dd2e dc0d dbbf
00000690: dc84 c67d 02c7 dbbf b6fb a2c6 e377 dcbf
000006a0: f086 4d30 3d20 ddbf 34ce f119 cfbf ddbf
000006b0: 2812 8d36 5d56 debf ba1e eaa6 aee3 debf
000006c0: 741f 0c12 8e67 dfbf 2a3c fcbb c9e1 dfbf
000006d0: 6c51 77cd 1929 e0bf 0032 5ab5 505c e0bf
000006e0: 9528 385f 768a e0bf d8eb 4288 79b3 e0bf
000006f0: 96d6 5ce8 4ad7 e0bf c67b 3e38 ddf5 e0bf
00000700: 503f ae36 250f e1bf 262d c7ac 1923 e1bf
00000710: b4be 4c71 b331 e1bf fbb4 096b ed3a e1bf
00000720: 63aa 3892 c43e e1bf 037a f5f0 373d e1bf
00000730: b81a b7a2 4836 e1bf 270b d2d2 f929 e1bf
00000740: beed 03ba 5018 e1bf 9d77 099b 5401 e1bf
00000750: 7559 40be 0ee5 e0bf 9b4d 576c 8ac3 e0bf
00000760: 08fb 0ee8 d49c e0bf c8e4 0e67 fd70 e0bf
00000770: 721f d209 1540 e0bf 480c b0d2 2e0a e0bf
00000780: 8cbc 0b38 bf9e dfbf b055 0c1b 7c1f dfbf
00000790: d69e 6821 c596 debf 98d8 2389 ce04 debf
000007a0: 006c 0ae1 cf69 ddbf 32aa feec 03c6 dcbf
000007b0: ac03 d588 a819 dcbf e6f5 cf89 fe64 dbbf
000007c0: 84cc cc9e 49a8 dabf e21e 332f d0e3 d9bf
000007d0: 92c0 b938 db17 d9bf ee95 142c b644 d8bf
000007e0: ce70 9fc8 ae6a d7bf b6bd 1af7 148a d6bf
000007f0: 6e63 8fa3 3aa3 d5bf b9c1 6f96 73b6 d4bf
-0.04024458758668707 -0.041744388394927764 -0.043277850464928644 -0.04484444345525013 -0.046443542382024826 -0.04807442368234149 -0.04973626131421674 -0.05142812290669123
-0.05314896597415608 -0.054897634209590256 -0.05667285387190216 -0.05847323028310084 -0.06029724445148338 -0.06214324983747922 -0.06400946927919543 -0.06589399209507857
-0.06779477138142603 -0.06970962152275953 -0.07163621593330013 -0.07357208504794166 -0.07551461458124736 -0.07746104407303411 -0.07940846573909002 -0.0813538236455053
-0.08329391322492621 -0.08522538115282613 -0.0871447256015804 -0.08904829688975993 -0.09093229854358331 -0.09279278878693822 -0.09462568247575122 -0.0964267534917708
-0.09819163761003027 -0.09991583585338333 -0.10159471834650824 -0.10322352868074938 -0.10479738879999195 -0.10631130441654246 -0.10776017096468461 -0.109138780098144
-0.11044182673626898 -0.11166391666211184 -0.11279957467400877 -0.11384325329053321 -0.11478934200690136 -0.11563217709910321 -0.11636605197010655 -0.11698522803052643
-0.11748394610417273 -0.1178564383468109 -0.11809694066439892 -0.1181997056149814 -0.1181590157762116 -0.11796919755840937 -0.11762463544083604 -0.11711978660675049
-0.11644919595063213 -0.11560751142886083 -0.1145894997229944 -0.11339006218277067 -0.1120042510138752 -0.11042728567361491 -0.1086545694356649 -0.1066817060832752
-0.1045045166885489 -0.10211905643374788 -0.09952163142902694 -0.09670881547954768 -0.09367746675360565 -0.09042474430217501 -0.08694812437924043 -0.08324541651135789
-0.07931477926407983 -0.07515473565232578 -0.07076418814128686 -0.06614243318418936 -0.061289175243159744 -0.056204540239477546 -0.0508890883798247 -0.04534382630554369
-0.039570218512599314 -0.033570197990788433 -0.027346176031768518 -0.020901051156701184 -0.014238217115800672 -0.007361569913636207 -0.0002755138159203363 0.0070150337045025435
0.014504638122521313 0.022187345154173643 0.030056679223702504 0.038105643136639084 0.0463267189883855 0.05471187033468086 0.06325254564717098 0.07193968307391313
0.08076371652119146 0.0897145830694045 0.09878173173206461 0.10795413356322861 0.11722029311465076 0.12656826124014883 0.1359856492405474 0.14545964433857736
0.1549770264689852 0.16452418636504496 0.1740871449185604 0.18365157378634556 0.19320281721216429 0.20272591502909637 0.2122056268033286 0.22162645707658024
0.23097268166050927 0.24022837493288865 0.24937743808168922 0.25840362823989976 0.2672905884505708 0.27602187839850983 0.2845810058421362 0.2929514586762122
0.3011167375536651 0.30906038899233157 0.3167660388903728 0.32421742637213014 0.3313984378845898 0.3382931414631291 0.3448858210840503 0.3511610110204428
0.3571035301172393 0.3626985159008432 0.36793145843859115 0.3727882338632973 0.377255137478549 0.3813189163609052 0.3849668013760759 0.3881865385271985
0.39096641955465433 0.39329531170847903 0.3951626866161814 0.3965586481708653 0.397473959366748 0.39790006801170374 0.3978291312490568 0.39725403882374344
0.3961684350310095 0.39456673928898706 0.39244416527987647 0.3897967386079835 0.3866213129264686 0.3829155844884832 0.37867810508217525 0.3739082933130676
0.3686064442013174 0.36277373706549343 0.35641224166867014 0.3495249226068291 0.3421156419237832 0.33418915994110954 0.3257511342957651 0.3168081171823338
0.3073675508010207 0.2974377610166874 0.28702794923833863 0.2761481825325091 0.26480938198800286 0.253023309353328 0.24080255197199804 0.22816050604456029
0.21511135824986025 0.2016700657615197 0.18785233469898072 0.17367459705575472 0.1591539861505738 0.14430831065018127 0.12915602721530167 0.11371621182403815
0.09800852982949032 0.0820532048107968 0.06587098627902524 0.049483116301461794 0.0329112951097697 0.016177645759263254 -0.0006953220917839953 -0.017684749212437206
-0.034767464567288076 -0.05192002374967447 -0.06911874800599416 -0.08633976377633623 -0.10355904267589655 -0.12075244184104783 -0.13789574456350756 -0.15496470113567318
-0.17193506983008627 -0.18878265793586996 -0.20548336277512913 -0.22201321262242657 -0.23834840745089614 -0.25446535942888526 -0.2703407330916927 -0.28595148511360224
-0.30127490360623765 -0.31628864687019925 -0.3309707815279467 -0.34529981996705816 -0.3592547570242428 -0.37281510584182875 -0.38596093282992616 -0.39867289166904996
-0.41093225628958474 -0.4227209527663698 -0.4340215900684379 -0.4448174896060054 -0.4550927135188507 -0.4648320916523716 -0.4740212471699885 -0.48264662075278475
-0.4906954933398915 -0.4981560073655965 -0.5050171864518638 -0.5112689535176855 -0.5169021472695642 -0.5219085370402992 -0.5262808359463687 -0.5300127123372185
-0.5330987995130076 -0.5355347036906195 -0.5373170102011131 -0.5384432879051525 -0.5389120918164959 -0.5387229639271144 -0.5378764322311644 -0.536374007948642
-0.5342181809532389 -0.5314124134126704 -0.527961131653497 -0.5238697162662221 -0.5191444904702118 -0.5137927067618415 -0.5078225318729734 -0.5012430300706763
-0.49406414483286976 -0.48629667893814155 -0.47795227301183496 -0.4690433825738949 -0.4595832536376179 -0.44958589691183015 -0.4390660606623509 -0.42803920229184056
-0.4165214587002952 -0.4045296154913399 -0.3920810750924001 -0.37919382385948 -0.3658863982398203 -0.35217785006804136 -0.3380877110735615 -0.3236359566790515
