data/geyser-waiting-bw6.0-basegamma-lambda-exp(-10.0)/natparam-value-shift-400.0.npy (npy, 16128 bytes, 1 tensors)

array f8 [2000]
00000000: 8c24 edba 463b 76bf a895 a9c8 8dfc 77bf
00000010: f036 955d 7ed5 79bf 5073 abe3 0ac6 7bbf
00000020: d0b0 2404 fccd 7dbf 90fa 3577 edec 7fbf
00000030: a885 0b93 2511 81bf 1040 665d a736 82bf
00000040: 5c7c 0ade 7e66 83bf 58df 582b 14a0 84bf
00000050: 3059 047c b4e2 85bf 507f 5f70 922d 87bf
00000060: 00c7 2cec c67f 88bf c086 8b96 52d8 89bf
00000070: 20e7 8116 2036 8bbf 1063 5223 0798 8cbf
00000080: b0bd 3680 d0fc 8dbf 005b 37fb 3a63 8fbf
00000090: 20c7 4bc3 0065 90bf d85c d541 f117 91bf
000000a0: f805 672a d4c9 91bf e8cb 55a5 197a 92bf
000000b0: b8e0 647f 4228 93bf 90d2 5995 e6d3 93bf
000000c0: 8099 d803 bc7c 94bf 30c8 841f 9f22 95bf
000000d0: 00ec 0f37 9bc5 95bf 9059 2f1e f465 96bf
000000e0: 402a 6b7d 3004 97bf 9094 56df 24a1 97bf
000000f0: 70c3 0770 ff3d 98bf a071 975f 54dc 98bf
00000100: e04c 13d4 2a7e 99bf 6024 aa52 0a26 9abf
00000110: e074 f682 08d7 9abf a067 372a d794 9bbf
00000120: c0a3 1037 d263 9cbf 20bc 1cb1 0d49 9dbf
00000130: e075 515a 634a 9ebf c00d fcca 7f6e 9fbf
00000140: 90e7 0666 775e a0bf b0a6 5357 131f a1bf
00000150: e0dd b22d c9fd a1bf c001 03e8 ccff a2bf
00000160: 80d5 4d5f d42a a4bf 0033 7c7f 1985 a5bf
00000170: c00d 8d40 5b15 a7bf 4050 5037 dde2 a8bf
00000180: 4048 c594 65f5 aabf 60be f46b 3955 adbf
00000190: 80e0 bd8b 8b05 b0bf a08e 054d 1790 b1bf
000001a0: 40dc f5eb 0b4f b3bf 50ba 9445 6347 b5bf
000001b0: 4056 31ec 3d7e b7bf 4049 b4b7 daf8 b9bf
000001c0: 4011 6d14 8dbc bcbf 60d8 570c b2ce bfbf
000001d0: 50c6 5005 529a c1bf 1023 adae d679 c3bf
000001e0: 1078 e4be 7c88 c5bf 402a 5396 c2c8 c7bf
000001f0: 20eb 4eba 063d cabf a0eb 60d5 7ee7 ccbf
00000200: c0af 0d45 2eca cfbf 5068 4323 6e73 d1bf
00000210: 40b9 36eb 841f d3bf b01c 48ad f3e9 d4bf
00000220: 182c 9f17 25d3 d6bf 18f7 2d1a 51db d8bf
00000230: e87a 64bc 7702 dbbf 50b5 6d12 5c48 ddbf
00000240: b89b 4b63 7fac dfbf d4ea f948 0e17 e1bf
00000250: 885c 16ee 1166 e2bf 98aa 2981 9bc2 e3bf
00000260: fced b0f5 d22b e5bf 2464 3eec b5a0 e6bf
00000270: 444d 7c9d 1620 e8bf 18a8 961f 9ba8 e9bf
00000280: e8a5 c20e bd38 ebbf a8d8 00a1 c9ce ecbf
00000290: 7028 762c e268 eebf 641b 6893 7e02 f0bf
000002a0: e423 8ed1 73d0 f0bf 66da 22a9 239d f1bf
000002b0: 0e1b 8e84 4e67 f2bf 7acd a6e6 a32d f3bf
000002c0: 96ba 9634 c4ee f3bf 8aba 3dc2 42a9 f4bf
000002d0: e9b6 4d1f a85b f5bf 00fe 72a2 7404 f6bf
000002e0: a892 f12e 23a2 f6bf f26f 3430 2c33 f7bf
000002f0: deb1 e1c5 08b6 f7bf 6825 221a 3629 f8bf
00000300: 5770 efda 388b f8bf fd94 6dce a0da f8bf
00000310: 461e 9679 0c16 f9bf 8a42 d1cf 2c3c f9bf
00000320: d486 86e1 c84b f9bf 444e 367f c143 f9bf
00000330: 1889 53c6 1423 f9bf 5423 db8c e1e8 f8bf
00000340: e4a9 8fa0 6a94 f8bf a08e cdce 1925 f8bf
00000350: f09b 20aa 829a f7bf 3837 1e03 65f4 f6bf
00000360: d8cf 8a0a af32 f6bf 80d0 7a13 7f55 f5bf
00000370: 10b8 efec 245d f4bf 006c 67cb 224a f3bf
00000380: 50be ebbb 2d1d f2bf 30f8 689b 2dd7 f0bf
00000390: 2074 cd1c 79f2 eebf 8071 5aed 4b09 ecbf
000003a0: 2097 c6cb c9f5 e8bf 40c4 881b 44bb e5bf
000003b0: e08b 5460 625d e2bf 8051 224b 38c0 ddbf
000003c0: c094 62f0 638f d6bf 808c 7304 9662 cebf
000003d0: 00cc c48b 86bd bebf 0000 4912 ea79 53bf
000003e0: 00e2 63f2 4061 be3f 0004 8689 5893 ce3f
000003f0: 804b 9310 2bf6 d63f 0048 859f 5593 de3f
00000400: 0040 5d0f 620b e33f 80f3 f98c 1abb e63f
00000410: 40f5 6f45 d253 ea3f c0f1 e041 b1d0 ed3f
00000420: 603b ab4c 8a96 f03f e057 eb7e 4c32 f23f
00000430: a03e 8f5a 92b9 f33f e06d 516f 782a f53f
00000440: 8075 2df5 4883 f63f c05d 0e93 7fc2 f73f
00000450: 80fe ffa4 cce6 f83f e0bb 9df7 17ef f93f
00000460: 4006 21f0 82da fa3f e0de 3b1a 6aa8 fb3f
00000470: 6006 d016 6658 fc3f a016 8de8 4bea fc3f
00000480: c050 869d 2c5e fd3f 20ba dd56 54b4 fd3f
00000490: e04a adb1 48ed fd3f e0dc 5896 c609 fe3f
000004a0: 4092 6575 bf0a fe3f 20bc ccfa 55f1 fd3f
000004b0: 00b7 7b42 dabe fd3f 802a 489a c574 fd3f
000004c0: a013 0bdf b514 fd3f 809e cf83 68a0 fc3f
000004d0: 40e4 0853 b519 fc3f 20f2 8efa 8882 fb3f
000004e0: 2092 b573 dfdc fa3f 0035 2459 be2a fa3f
000004f0: 800a 2d3c 2f6e f93f 4071 390b 3aa9 f83f
00000500: a040 7d9a dfdd f73f a00c 825f 140e f73f
00000510: 201c 426f bb3b f63f 2049 7dcd a168 f53f
00000520: 2066 b21a 7a96 f43f 6033 beac d8c6 f33f
00000530: 8046 901c 30fb f23f 7029 b651 ce34 f23f
00000540: 30fd b412 da74 f13f 30f3 4d1f 51bc f03f
00000550: d021 e5d7 060c f03f 802a b0e6 46c9 ee3f
00000560: e0ff 5785 478d ed3f b0c5 3e00 b364 ec3f
00000570: 90f3 c14a d84f eb3f 8073 f585 b44e ea3f
00000580: 20db d3a2 f660 e93f 3813 d6e5 0386 e83f
00000590: a8d8 6737 fdbc e73f bcad 6e2a c504 e73f
000005a0: 8cbc 35a0 065c e63f 6c1c 90ef 3bc1 e53f
000005b0: b894 e773 b632 e53f 00c0 3968 a6ae e43f
000005c0: d012 b9f1 2233 e43f 5062 df3d 32be e33f
000005d0: 60ed 3c98 d14d e33f a0e4 285d fddf e23f
000005e0: 40eb acaf b872 e23f 405f 8ada 1404 e23f
000005f0: e0b4 0946 3892 e13f c0df 55ee 641b e13f
00000600: 201b 7048 fe9d e03f c086 4186 8e18 e03f
00000610: 80d9 d859 9613 df3f 0023 6ae6 31e1 dd3f
00000620: 00f9 3dc1 1d98 dc3f 8041 4951 f136 db3f
00000630: 00e7 6580 b0bc d93f 00eb 8c5c cd28 d83f
00000640: 0068 4536 287b d63f 00c8 2e48 0eb4 d43f
00000650: 0001 30f8 36d4 d23f 80df 19c7 bfdc d03f
00000660: 0027 c50e 4e9e cd3f 006d 0cee 8a5a c93f
00000670: 00b3 fbb6 8df2 c43f 0012 4b82 436b c03f
00000680: 0032 1b05 3a94 b73f 0050 9b9a ed53 ac3f
00000690: 0090 c1ea e290 923f 0080 c3d6 d3bf 93bf
000006a0: 0098 43b2 410a adbf 0014 1e08 9d0d b8bf
000006b0: 00ae 1320 d4bd c0bf 002c 90f7 ca60 c5bf
000006c0: 0042 6354 fae8 c9bf 004a 3948 d94f cebf
000006d0: 003f 05d3 8f47 d1bf 0058 54c8 6a50 d3bf
000006e0: 0048 9cba b03f d5bf 00a6 9e27 ca12 d7bf
000006f0: 007c 750d 5ac7 d8bf 0071 d730 425b dabf
00000700: 001d 186a a6cc dbbf 00e7 2af6 ee19 ddbf
00000710: 008b 88cc c941 debf 0097 59fe 2a43 dfbf
00000720: 007a 5213 a60e e0bf 0047 3a7b d567 e0bf
00000730: 80a4 6d75 03ad e0bf 0080 c21e 2fde e0bf
00000740: 00ec 7611 75fb e0bf 0099 c135 0d05 e1bf
00000750: 0000 644f 48fb e0bf 80be 8454 8dde e0bf
00000760: 80a0 a99a 56af e0bf 0054 04e7 2e6e e0bf
00000770: 00c4 716f ae1b e0bf 00f8 0cb3 ef70 dfbf
00000780: 00e3 9389 6a8a debf 00fc b5d9 2a85 ddbf
00000790: 0018 3bdf 9162 dcbf 0075 9785 ff23 dbbf
000007a0: 00e9 a2c6 cdca d9bf 00b2 7d8f 4c58 d8bf
000007b0: 008f b93b becd d6bf 006f 1eb4 542c d5bf
000007c0: 0084 663b 2f75 d3bf 005a 27f0 58a9 d1bf
000007d0: 002c a70f 9093 cfbf 008c c586 bbae cbbf
000007e0: 0028 8835 cea5 c7bf 00d4 bb31 3c7a c3bf
000007f0: 0078 267a af5a bebf 0056 2cff ac80 b5bf
-0.005427624025125099 -0.005856088488689272 -0.006307119002782122 -0.006780664955582008 -0.007276520193311778 -0.00779431114221886 -0.008333486127812886 -0.0088933062914123
-0.009472838545944544 -0.010070951054430274 -0.010686311754892402 -0.011317390493729512 -0.01196246536491996 -0.012619633883733328 -0.013286829649803489 -0.013961845174252058
-0.014642361557746536 -0.015325985709677692 -0.016010295791551887 -0.016692895548968106 -0.01737147816471027 -0.018043900219208014 -0.018708266282573688 -0.01936302458348621
-0.020007074103113975 -0.020639883326289687 -0.021261620746354737 -0.02187329706415536 -0.022476918845123928 -0.023075653201563073 -0.023674002850330778 -0.024277990660139914
-0.024895352548651384 -0.025535737319419716 -0.026210911744432575 -0.026934968902288525 -0.02772453747835235 -0.028598989424775678 -0.029580643069825885 -0.030694958461948252
-0.031970721439804284 -0.03344021264076724 -0.03513935740323482 -0.037107852288957854 -0.03938926375750906 -0.04203109437194108 -0.04508481181121793 -0.04860583591667522
-0.05265347901389861 -0.05729083483526831 -0.06258461152708783 -0.06860490446484357 -0.07542490492583998 -0.0831205410838518 -0.09177004829810986 -0.1014534662720381
-0.11225206135447241 -0.1242476730475075 -0.13752198466822785 -0.15215571908108716 -0.16822776146813156 -0.18581421222764227 -0.20498737427791358 -0.2258146802795098
-0.2483575665640938 -0.27267030185396823 -0.29879878015607986 -0.32677928850211924 -0.3566372614556612 -0.3883860355052646 -0.4220256175776016 -0.4575414829222
-0.4949034185105421 -0.5340644288365533 -0.5749597215789359 -0.6175057909689086 -0.6615996168761167 -0.7071179975638455 -0.7539170337571837 -0.8018317810976923
-0.8506760872161836 -0.9002426285358256 -0.9503031605138528 -1.0006089933464972 -1.0508917032004712 -1.1008640868073143 -1.150221364777909 -1.1986426362826408
-1.2457925848245046 -1.291323431734471 -1.3348771307750502 -1.376087793891088 -1.414584334729776 -1.4499933131219191 -1.4819419603110116 -1.5100613613925251
-1.5339897682342973 -1.5533760131450542 -1.5678829907864311 -1.5771911733501462 -1.5810021218862191 -1.5790419549201866 -1.571064734184409 -1.5568557264507108
-1.5362345001145679 -1.5090578153839616 -1.4752222676850089 -1.4346666452215242 -1.387373963528253 -1.3333731423308848 -1.2727402930572715 -1.2055995889156748
-1.1321236935290422 -1.0525337286667416 -0.9670987665700785 -0.8761348377043277 -0.780003450393199 -0.6791096246507848 -0.5738994485330942 -0.46485717141447225
-0.35250185465913475 -0.23738360612250986 -0.12007943069765759 -0.00118873461282476 0.11867147367218678 0.23887163844122483 0.35877491587341837 0.47774258211313736
0.5951395320971642 0.7103398087925683 0.8227321010778397 0.9317251478856221 1.0367529864194793 1.1372799833093197 1.2328055894358059 1.3228687618601427
1.4070519997834197 1.4849849457149134 1.5563475079833609 1.6208724663263112 1.678347528461373 1.7286168122063188 1.7715817347638207 1.8072012981441858
1.8354917672450455 1.856525744744097 1.8704306545739016 1.877386653226317 1.8776239953814553 1.8714198872437535 1.8590948674204242 1.8410087610851917
1.8175562584521927 1.7891621731631915 1.7562764400047541 1.719368914359741 1.6789240379231458 1.6354354364478354 1.589400515615722 1.5413151205494415
1.4916683230149275 1.440937398031373 1.3895830484414162 1.3380449320725987 1.2867375414701954 1.2360464809200593 1.186325179649799 1.1378920738084979
1.0910282831899387 1.0459758017379492 1.0029362138176232 0.962069941103735 0.923496017872818 0.8872923855580463 0.8534966907605952 0.8221075645811737
0.7930863552308871 0.7663592804898149 0.74181996175209 0.7193322972065554 0.6987336281871577 0.6798381499255703 0.6624405158769582 0.6463195834785438
0.6312422486449467 0.616967316479597 0.6032493565939312 0.5898424930120605 0.5765040808831614 0.5629982250565959 0.5490990989616442 0.5345940260876816
0.5192862906268125 0.5029976484476819 0.48557051443221866 0.46686980725694127 0.44678443785950606 0.4252284330186953 0.40214169062493 0.37749036825304927
0.35126691150583156 0.323489733210522 0.2942025588709072 0.26347345775092634 0.231393582546211 0.19807564376319675 0.16365214762426916 0.12827342855429436
0.09210550903953418 0.05532782089508714 0.01813082273328348 -0.019286451323637266 -0.056718876848933064 -0.09395772407704328 -0.1307931095719681 -0.16701638305707434
-0.20242241974348474 -0.2368117907195284 -0.26999278647870995 -0.30178327144074046 -0.33201235030821863 -0.3605218302642186 -0.3871674663004683 -0.41181998033222555
-0.4343658481670474 -0.45470785178950734 -0.47276539777719506 -0.48847460593093217 -0.5017881753336155 -0.5126750380315741 -0.5211198133012118 -0.5271220780159638
-0.5306954709152478 -0.5318666505743579 -0.5306741285894532 -0.5271670008423399 -0.521403600764657 -0.5134500991867981 -0.5033790756843928 -0.49126808629432617
-0.47719825206108624 -0.46125289212062626 -0.4435162239063857 -0.4240721516233208 -0.4030031623657493 -0.38038934719841677 -0.35630756218436943 -0.33083074178442473
-0.30402737427544935 -0.275961145901789 -0.2466907574110735 -0.21626991348884417 -0.18474748243198746 -0.1521678202476835 -0.11857125026878634 -0.0839946864110388
