data/geyser-waiting-bw6.0-basegamma-lambda-exp(-10.0)/natparam-value-shift-107.0.npy (npy, 16128 bytes, 1 tensors)

array f8 [2000]
-0.005543698958592528 -0.005985953594911039 -0.0064522564889255216 -0.006942696600813404 -0.007457218153125361 -0.007995609328811479 -0.008557492169035535 -0.009142314067262548
-0.00974934129760837 -0.010377655056530224 -0.011026150536849397 -0.01169353959099241 -0.01237835757527389 -0.013078974997961998 -0.013793614619675293 -0.01452037467413822
-0.015257258889188247 -0.016002213990926717 -0.01675317536655832 -0.017508121542511107 -0.01826513810242722 -0.01902249162321909 -0.019778714145288895 -0.02053269861409643
-0.021283805633270758 -0.022031981753665386 -0.02277788938721964 -0.0235230482789196 -0.024269988294057132 -0.02502241308172304 -0.0257853739592252 -0.026565453126898175
-0.027370955069625613 -0.028212104732256216 -0.029101250772872622 -0.030053071903386464 -0.031084784024510537 -0.03221634555510888 -0.03347065804898308 -0.03487375888964994
-0.03645500256117851 -0.03824722671601888 -0.04028689900540572 -0.042614240410521864 -0.045273320620244695 -0.04831212085010028 -0.05178255939521259 -0.05574047516350089
-0.06024556445106377 -0.06536126630720762 -0.07115459199654284 -0.07769589430667034 -0.08505857277671347 -0.09331871133842506 -0.10255464537001036 -0.11284645576654295
-0.12427538832846752 -0.13692319756126103 -0.1508714148621917 -0.1662005420393471 -0.18298917215756116 -0.20131304082856039 -0.22124401224719747 -0.24284900551081812
-0.266188868031652 -0.29131720414589424 -0.31827916832039493 -0.3471102336428489 -0.3778349475280467 -0.4104656877669468 -0.44500143315772966 -0.48142656397125716
-0.5197097083914173 -0.5598026518105614 -0.60163932643046 -0.6451348989977221 -0.690184974668242 -0.7366649349293839 -0.7844294271976984 -0.8333120231355982
-0.8831250618854343 -0.9336596932963142 -0.9846861348123199 -1.0359541540039654 -1.0871937867614063 -1.1381162989383422 -1.1884153967553903 -1.2377686885579933
-1.2858393976054825 -1.332278322469251 -1.3767260383746924 -1.418815329475485 -1.458173838632633 -1.4944269178423828 -1.527200659053693 -1.5561250817941255
-1.5808374508347638 -1.600985694124043 -1.6162318884524596 -1.6262557778405404 -1.6307582875113864 -1.629464994565219 -1.6221295151663284 -1.6085367672188537
-1.5885060671775468 -1.5618940198461981 -1.528597160782379 -1.4885543122558254 -1.441748615617069 -1.3882092054102078 -1.3280124936004896 -1.2612830358631513
-1.1881939559575088 -1.1089669087666287 -1.0238715675414234 -0.9332246262276875 -0.837388313380174 -0.7367684200297617 -0.6318118498778098 -0.5230037062770414
-0.41086393652321007 -0.295943559946803 -0.17882051207423189 -0.06009514261791793 0.0596145898056335 0.17967817864968083 0.2994578343610854 0.41831389795065377
0.5356103450082657 0.6507203197778679 0.7630316374920909 0.8719521925547866 0.9769152103597492 1.0773842815902697 1.1728581197148245 1.2628749851062224
1.3470167227027048 1.42491236439254 1.4962412522606883 1.5607356444442715 1.6181827715160466 1.6684263179834957 1.7113673105445386 1.746964402101156
1.7752335480843087 1.7962470792810308 1.8101321829726587 1.8170688116732592 1.8172870460063208 1.8110639451481205 1.798719924717787 1.7806147079047747
1.7571429009027213 1.728729248299338 1.6958236278821985 1.6588958473056081 1.61843030718925 1.5749205964481803 1.528864085983244 1.480756586274751
1.4310871329533228 1.3803329620832514 1.3289547337247214 1.2773920584137173 1.226059376542743 1.1753422353566236 1.1255940024436448 1.0771330483064787
1.030240423957654 0.9851580525524035 0.9420874470117866 0.9011889584514421 0.8625815531631886 0.8263431089651068 0.792511215067293 0.7610844532690333
0.732024132395912 0.705256442495326 0.6806749904785896 0.6581436747091516 0.6374998525250198 0.6185577518827468 0.601112076254279 0.5849417506012999
0.5698137557005332 0.5554869982770576 0.5417161653207518 0.5282555125555319 0.5148625392840387 0.5013015046709981 0.48734674392594 0.4727857467074479
0.4574219643472084 0.4410773171080251 0.4235943775605975 0.40483821122295893 0.3846978607714746 0.3630874653277445 0.3399470114792251 0.315242717729582
0.28896705893673413 0.26113844190896884 0.23180054765198577 0.20102135972974366 0.16889190178066826 0.13552471038670433 0.10105207218697387 0.06562405635379776
0.029406375275826235 -0.007421892474667402 -0.04467068206959368 -0.08214139019199251 -0.11962935580639567 -0.15692633979428194 -0.1938229704331178 -0.2301111232311257
-0.2655862055281233 -0.30004931851216554 -0.3333092718361854 -0.36518442881046553 -0.39550436315063564 -0.4241113114352544 -0.45086140872324165 -0.47562569815723066
-0.4982909087953402 -0.5187599993138718 -0.5369524685742988 -0.5528044373177181 -0.5662685083702428 -0.5773134157169153 -0.5859234755552194 -0.5920978549782632
-0.5958496762008281 -0.5972049762202261 -0.5962015434913468 -0.5928876545186625 -0.5873207342910121 -0.5795659651222707 -0.5696948687495791 -0.5577838864718387
-0.5439129816599859 -0.5281642881879094 -0.5106208271730566 -0.4913653129488438 -0.4704790673902721 -0.4480410596335247 -0.4241270858696282 -0.3988091013196282
-0.3721547137036083 -0.3442268445791825 -0.31508356185723585 -0.2847780836723359 -0.2533589506199263 -0.22087036023641815 -0.1873526545275297 -0.15284294841274004
00000000: 84cb 9d5b fdb4 76bf 70ea ce2e ba84 78bf
00000010: d877 af69 ae6d 7abf a871 8bed f16f 7cbf
00000020: e093 63c1 758b 7ebf b875 a184 0060 80bf
00000030: 30a7 0328 9786 81bf d4e1 6d9f 34b9 82bf
00000040: 6c04 3f70 76f7 83bf 88a0 9d48 e140 85bf
00000050: f8fe a6df e094 86bf c83d f150 c8f2 87bf
00000060: 2043 b607 d359 89bf d834 0d4f 26c9 8abf
00000070: f026 7b9d d33f 8cbf 7008 cfb2 dbbc 8dbf
00000080: b035 a59f 323f 8fbf 20bc 0467 e262 90bf
00000090: 28ce 3691 be27 91bf 9806 c225 a6ed 91bf
000000a0: 7836 3aab 18b4 92bf f800 a4cd a17a 93bf
000000b0: a8cf a409 df40 94bf d846 2f14 8606 95bf
000000c0: 106c 8404 6ccb 95bf 406a 6444 8d8f 96bf
000000d0: 30c6 f547 1653 97bf 20a2 3d0c 6d16 98bf
000000e0: 8036 fd57 3bda 98bf a079 69b7 799f 99bf
000000f0: e0e1 7a27 7b67 9abf c0a6 8861 f933 9bbf
00000100: 208d 89b3 2107 9cbf a099 b44c a2e3 9cbf
00000110: 2065 5ee1 b7cc 9dbf 80a5 e083 3bc6 9ebf
00000120: 806b 278b b0d4 9fbf 7095 1c2d a97e a0bf
00000130: b057 64eb 1023 a1bf 80da d62b f9da a1bf
00000140: 403d 8de7 3aaa a2bf 30e5 d0f7 2395 a3bf
00000150: 40f6 5e03 7ca0 a4bf e06b d0a1 88d1 a5bf
00000160: e0fa e38e 102e a7bf c068 1ac6 5dbc a8bf
00000170: 4013 365e 3e83 aabf a00e c8fb 038a acbf
00000180: 00bf 17b2 81d8 aebf 40f0 3615 84bb b0bf
00000190: 20db 95f5 2f37 b2bf a0a3 14cd e0e3 b3bf
000001a0: 1007 520c 66c6 b5bf a0ab 4d2d bce3 b7bf
000001b0: 40c5 ea6f 0541 babf c09f fc5c 81e3 bcbf
000001c0: 2087 9108 83d0 bfbf 4070 cb07 b386 c1bf
000001d0: 90ff 5d28 c14f c3bf d077 5132 0f46 c5bf
000001e0: e02b f86e 306c c7bf 30f9 4e2f a0c4 c9bf
000001f0: 00ce 844a b951 ccbf c07d 441c ad15 cfbf
00000200: 4855 b008 3d09 d1bf c066 24ea f0a4 d2bf
00000210: 88c9 bb96 af5e d4bf d096 66d7 0d37 d6bf
00000220: 38ce baa1 722e d8bf 30b5 45e0 1145 dabf
00000230: 207a 854a e77a dcbf 30a9 eb5c b1cf debf
00000240: 008e 1e41 76a1 e0bf a8b1 3740 e7e9 e1bf
00000250: 9033 e01d a140 e3bf e882 96f1 f1a4 e4bf
00000260: 8480 cccc fe15 e6bf a836 7457 c292 e7bf
00000270: 2cb1 fabd 0b1a e9bf 4464 d7f9 7daa eabf
00000280: e86d 627d 8f42 ecbf 48a2 094b 8ae0 edbf
00000290: 74fe 3a7f 8c82 efbf 58a3 b9a9 4493 f0bf
000002a0: ccdf e84f 2565 f1bf 7ec1 af6f b935 f2bf
000002b0: 4809 f2dc bf03 f3bf 06e9 558a e6cd f3bf
000002c0: 72fb 0955 cc92 f4bf 84cd 0213 0351 f5bf
000002d0: 64ef e5e1 1107 f6bf 1e92 f2b3 77b3 f6bf
000002e0: 84f5 4c17 ae54 f7bf 6252 2633 2ce9 f7bf
000002f0: 4c0b 51f5 696f f8bf 52a8 ec69 e3e5 f8bf
00000300: 7f09 fa35 1c4b f9bf a706 da2c a39d f9bf
00000310: 7a7d faf7 15dc f9bf 3e19 4cc7 2405 fabf
00000320: 8cad 8800 9617 fabf a426 dae2 4912 fabf
00000330: 6040 1814 3ef4 f9bf 8ce5 990c 91bc f9bf
00000340: fc66 8056 856a f9bf 18eb 7095 84fd f8bf
00000350: b019 e54b 2275 f8bf 3056 9753 1ed1 f7bf
00000360: b00e 12ff 6611 f7bf 48e3 13db 1a36 f6bf
00000370: a018 4b07 8a3f f5bf 6082 e01e 372e f4bf
00000380: 2047 62aa d702 f3bf 70fb d715 54be f1bf
00000390: 9050 1e27 c761 f0bf 2008 2fe4 f9dc edbf
000003a0: 80a7 8093 e2cb eabf 001c 985d 9b93 e7bf
000003b0: 206a 0e7c cd37 e4bf a0b1 c444 72bc e0bf
000003c0: c045 9e40 984b dabf c0bb db41 bdf0 d2bf
000003d0: 003d 9b2d 97e3 c6bf 0084 6260 cac4 aebf
000003e0: 00c8 28b3 cd85 ae3f 0078 8dce b1ff c63f
000003f0: 8028 4731 512a d33f 0043 caa7 a7c5 da3f
00000400: 80b6 664e b823 e13f 403c 896b b3d2 e43f
00000410: 80f0 1a53 c16a e83f 8058 d648 08e7 eb3f
00000420: 00b9 eeaf e342 ef3f 8079 ea4c f73c f13f
00000430: 205f 30e0 06c4 f23f c07b 7f66 bc34 f43f
00000440: 80c5 3268 618d f53f 40b6 4be8 70cc f63f
00000450: 002c d6aa 9af0 f73f 206f 69f0 c5f8 f83f
00000460: 00cb 299e 13e4 f93f a065 78cb dfb1 fa3f
00000470: 60b7 63b0 c261 fb3f 80cf e4f1 90f3 fb3f
00000480: e08b fc4a 5b67 fc3f c0c2 d093 6dbd fc3f
00000490: e0df f429 4df6 fc3f e07d 0bbf b612 fd3f
000004a0: 60aa e094 9b13 fd3f c003 f62f 1efa fc3f
000004b0: 4039 358b 8ec7 fc3f 40a4 13d9 657d fc3f
000004c0: 8069 dcdf 411d fc3f 6059 1100 e0a8 fb3f
000004d0: 209c d8f4 1722 fb3f 605d 3a5f d68a fa3f
000004e0: a0ba 832d 17e5 f93f 00ab 78f0 df32 f93f
000004f0: 403b 1530 3a76 f83f c02f 76d1 2db1 f73f
00000500: c02c 1c9f bbe5 f63f 60d0 1b04 d815 f63f
00000510: a064 f309 6643 f53f a0e9 b0a7 3270 f43f
00000520: a048 d36f f09d f33f 806d e7a8 33ce f23f
00000530: 701b 51db 6e02 f23f 80ac fedc ef3b f13f
00000540: 10a5 fe61 dd7b f03f e050 232e 6a86 ef3f
00000550: 8068 dc92 9425 ee3f 8016 023a 8ad6 ec3f
00000560: 4000 1fa1 449a eb3f 90f6 881a 6771 ea3f
00000570: 00ac cd7a 405c e93f f01a 89c8 cd5a e83f
00000580: 30be 90df bd6c e73f 80f1 79f5 7591 e63f
00000590: e0f0 e9ea 16c8 e53f 003e de52 830f e53f
000005a0: d397 3917 6666 e43f fcc1 60a0 39cb e33f
000005b0: e8c4 9764 4f3c e33f e8b8 1cc3 d7b7 e23f
000005c0: 606e b10e ea3b e23f 6080 5eab 8cc6 e13f
000005d0: 908c b823 bd55 e13f 8072 cb1a 78e7 e03f
000005e0: 8022 0501 c179 e03f c0eb ff73 a90a e03f
000005f0: 0056 be65 b030 df3f 40e6 0726 1f42 de3f
00000600: 40f9 55c6 6646 dd3f 0021 ff5a 9c3a dc3f
00000610: 801a 9997 2b1c db3f 80eb 5787 dee8 d93f
00000620: 80b2 b6c6 e39e d83f 80e4 4a35 d33c d73f
00000630: 0047 2b1c b1c1 d53f 80d8 bcca ef2c d43f
00000640: 004b f0b0 6f7e d23f 008e ee02 7eb6 d03f
00000650: 001a aeed a3ab cd3f 0019 eb62 11bb c93f
00000660: 0086 5af5 3f9e c53f 0094 74ab df58 c13f
00000670: 0070 3c71 8cde b93f 00d4 def7 bccc b03f
00000680: 0010 6a70 b41c 9e3f 0000 4017 6b66 7ebf
00000690: 0068 285d 13df a6bf 00c8 85d8 3707 b5bf
000006a0: 007c d48a 07a0 bebf 0012 a68c 2916 c4bf
000006b0: 00a6 9ceb 30cf c8bf 009c 5c02 4874 cdbf
000006c0: 00c5 c048 5dff d0bf 0099 8c0e 0234 d3bf
000006d0: 005c 7f69 f054 d5bf 00f6 af82 2e5f d7bf
000006e0: 0011 4a88 f14f d9bf 0099 1ec5 a324 dbbf
000006f0: 00ab 5fcf e9da dcbf 003d aec4 a670 debf
00000700: 00e3 4a8d ffe3 dfbf 80d5 f091 ae99 e0bf
00000710: 000f 81f1 b62e e1bf 00a0 6bee 92b0 e1bf
00000720: 808e 8622 df1e e2bf 807a 01fc 5979 e2bf
00000730: 80fc ae96 e2bf e2bf 803a 6533 77f2 e2bf
00000740: 00ac 1357 3311 e3bf 80fa 3b9c 4d1c e3bf
00000750: 80d7 6342 1514 e3bf 8083 cb87 eff8 e2bf
00000760: 005d 41da 54cb e2bf 0065 42ec cd8b e2bf
00000770: 804f bfbb f03a e2bf 003c d497 5dd9 e1bf
00000780: 002f 8332 bc67 e1bf 80d4 15cb b8e6 e0bf
00000790: 00ac 2b7d 0157 e0bf 0043 607f 8772 dfbf
000007a0: 0034 f93b 541c debf 0009 9968 b4ac dcbf
000007b0: 001a caee e524 dbbf 00f5 e09b 1686 d9bf
000007c0: 0031 1a01 62d1 d7bf 00dd f707 d007 d6bf
000007d0: 00c7 6b3e 542a d4bf 0060 ffda cd39 d2bf
000007e0: 00ef c375 0837 d0bf 0082 efde 7a45 ccbf
000007f0: 00dc 01fa 2bfb c7bf 00b0 6d94 5b90 c3bf
