data/geyser-waiting-bw8.0-basegamma-lambda-exp(-6.0)/natparam-value-shift-110.0.npy (npy, 16128 bytes, 1 tensors)

array f8 [2000]
-0.011837399229090766 -0.012622706337876132 -0.013451494618109497 -0.014325483471281472 -0.015246406191212971 -0.016216005141886883 -0.017236026491203694 -0.01830821448723191
-0.019434305264740673 -0.02061602017119586 -0.021855058602974965 -0.023153090344306376 -0.024511747403388302 -0.02593261534227245 -0.02741722409943086 -0.02896703830644163
-0.03058344710295231 -0.032267753456986716 -0.03402116300075983 -0.03584477239545325 -0.03773955724186363 -0.03970635955747173 -0.04174587484427706 -0.043858638775681115
-0.04604501353478546 -0.04830517384067231 -0.050639092703526435 -0.05304652695385148 -0.05552700259547299 -0.05807980003649781 -0.06070393925689366 -0.06339816497583828
-0.06616093188639031 -0.0689903900294172 -0.0718843703829282 -0.07484037074708016 -0.07785554200901405 -0.08092667487539654 -0.08405018716396917 -0.08722211174855604
-0.09043808525478159 -0.09369333760619944 -0.09698268252253751 -0.1003005090733352 -0.10364077439132474 -0.10699699765043932 -0.1103622554133174 -0.11372917845252739
-0.11708995014848998 -0.1204363065651293 -0.12375953830166432 -0.12705049421561582 -0.13029958710801465 -0.13349680145695614 -0.13663170328005247 -0.13969345219993873
-0.14267081577981366 -0.1455521861880927 -0.14832559924248528 -0.15097875587438653 -0.15349904604421782 -0.15587357512749492 -0.15808919277972736 -0.1601325242760775
-0.16199000430882893 -0.1636479132123591 -0.16509241557142046 -0.16630960115425975 -0.16728552809744687 -0.1680062682543769 -0.16845795460427698 -0.16862683060335193
-0.16849930134441746 -0.16806198637627678 -0.167301774019045 -0.1662058769969872 -0.1647618891960977 -0.1629578433398689 -0.1607822693634311 -0.15822425325388165
-0.15527349611280875 -0.15192037318640184 -0.14815599259879392 -0.1439722535157637 -0.13936190345855554 -0.1343185944816799 -0.12883693792388964 -0.12291255743860754
-0.11654214000843452 -0.10972348464866413 -0.10245554850649496 -0.09473849006626199 -0.08657370917637769 -0.07796388362082174 -0.06891300196703881 -0.059426392432866904
-0.049510747527755125 -0.039174144237853814 -0.028426059540722387 -0.01727738105311913 -0.0057404126348305495 0.006171125207688505 0.018442100251582327 0.031055978931887274
0.043994842244957755 0.05723940724015372 0.07076905413194173 0.08456185903680302 0.0985946323109263 0.11284296243582592 0.1272812653698478 0.14188283925428669
0.15661992433364108 0.17146376792061685 0.18638469420807235 0.20135217870227362 0.21633492702489593 0.2313009578053422 0.2462176893602087 0.2610520298335064
0.27577047044955255 0.29033918151052335 0.30472411075253364 0.31889108365825264 0.3328059053101243 0.3464344633568271 0.35974283165643905 0.3726973741531651
0.38526484854039467 0.3974125092613918 0.40910820940008163 0.4203205010182487 0.43101873350191316 0.44117314948878394 0.45075497796037195 0.45973652409655874
0.4680912555071052 0.47579388447353216 0.4828204458560681 0.48914837034367314 0.49475655275032926 0.49962541508788855 0.5037369641742779 0.5070748435659285
0.5096243796343897 0.5113726216393184 0.5123083756828741 0.5124222324639943 0.5117065887847199 0.5101556627945182 0.5077655029920793 0.5045339910372784
0.5004608384584317 0.49554757737161537 0.48979754535937464 0.483215864685265 0.47580941604846544 0.46758680710859746 0.45855833603506785 0.4487359503572804
0.43813320141196715 0.4267651947014597 0.41464853649190875 0.4018012769930558 0.3882428504713129 0.3739940126553193 0.35907677579793185 0.34351434176081735
0.3273310334872721 0.31055222522582454 0.293204271861537 0.2753144377038027 0.2569108250690021 0.2380223029835714 0.21867843631823997 0.19890941564735184
0.17874598810851267 0.1582193895175632 0.13736127797213937 0.1162036691541371 0.09477887351738938 0.07311943552205664 0.05125807505182464 0.02922763112424391
0.007061007978546391 -0.015208876400481824 -0.03754913928963696 -0.05992697975747435 -0.08230972273392784 -0.10466486065909886 -0.1269600927732321 -0.14916336213080678
-0.1712428904411708 -0.1931672108559207 -0.21490519883934356 -0.23642610127231345 -0.25769956395222043 -0.27869565766154514 -0.2993849029855085 -0.3197382940649257
-0.3397273214737464 -0.359323994411897 -0.37850086240288283 -0.397231036682241 -0.41548821145740145 -0.43324668521173326 -0.45048138221597245 -0.4671678743984128
-0.4832824037118273 -0.4988019051199212 -0.513704030309339 -0.5279671722151279 -0.5415704904283479 -0.5544939375339674 -0.56671828640617 -0.5782251584662408
-0.5889970528859209 -0.5990173766966636 -0.6082704757425555 -0.6167416663924529 -0.6244172679047312 -0.6312846353168418 -0.6373321927111644 -0.6425494666890865
-0.6469271198668605 -0.6504569841897301 -0.6531320938452501 -0.654946717542924 -0.6558963899152483 -0.6559779417851492 -0.6551895290368583 -0.6535306598213324
-0.6510022198237916 -0.6476064953195859 -0.6433471937456908 -0.6382294615184956 -0.6322598988343334 -0.6254465711973902 -0.6177990174300936 -0.6093282539338231
-0.6000467749827938 -0.5899685488511173 -0.5791090095920608 -0.5674850443097569 -0.5551149757862286 -0.5420185403512129 -0.5282168609080621 -0.5137324150561964
-0.4985889982789038 -0.48281168219436754 -0.4664267678977627 -0.44946173445250814 -0.4319451826194195 -0.4139067739431329 -0.395377165345585 -0.37638793940645243
00000000: 7c18 78d4 343e 88bf 13f9 43f7 eed9 89bf
00000010: 159f bc0b 758c 8bbf b87e 11d8 ad56 8dbf
00000020: fb46 c8ff 8139 8fbf f451 06af ed9a 90bf
00000030: 3def 5e28 52a6 91bf 301d e279 63bf 92bf
00000040: a452 2126 96e6 93bf 13c7 a2b1 5d1c 95bf
00000050: 9ac9 ce27 2c61 96bf 680d 5297 71b5 97bf
00000060: d288 dc85 9b19 99bf 27e2 2d5b 148e 9abf
00000070: 8da8 6ac3 4213 9cbf 5aa9 c008 89a9 9dbf
00000080: 53ac 6c64 4451 9fbf 0d55 a023 6685 a0bf
00000090: 9c98 ebcc 386b a1bf f091 57fa 3e5a a2bf
000000a0: 1218 3d68 9952 a3bf 9430 7c57 6454 a4bf
000000b0: b1ed 651e b75f a5bf d593 60b6 a374 a6bf
000000c0: 2833 8d46 3693 a7bf db1e bfab 74bb a8bf
000000d0: b51b 1ffe 5ded a9bf 10c9 dd14 ea28 abbf
000000e0: 978a 6208 096e acbf 8f11 6eb3 a2bc adbf
000000f0: 7086 b133 9614 afbf 6898 32b5 dc3a b0bf
00000100: 0395 b93e ecef b0bf 4825 eaac 5aa9 b1bf
00000110: e362 e39b 0367 b2bf 407b c710 bd28 b3bf
00000120: bbb6 bd3e 57ee b3bf 12bf f64d 9cb7 b4bf
00000130: 8088 1725 5084 b5bf 0cb7 7235 3054 b6bf
00000140: f86d 7b4a f326 b7bf 9e28 df5c 49fc b7bf
00000150: 3170 b669 dbd3 b8bf f7fb 3d4e 4bad b9bf
00000160: 7cf8 8aa8 3388 babf 86c7 adbd 2764 bbbf
00000170: fc86 b665 b340 bcbf 30f7 0dfe 5a1d bdbf
00000180: 17fa 9362 9bf9 bdbf 32c1 f2ed e9d4 bebf
00000190: 81de 9281 b4ae bfbf e660 ccca 3043 c0bf
000001a0: 42d6 a728 a8ad c0bf e669 3056 6c16 c1bf
000001b0: 04a1 97cc 257d c1bf 7200 559c 79e1 c1bf
000001c0: ac18 ef8b 0943 c2bf 3b03 c53b 74a1 c2bf
000001d0: 52fa f34e 55fc c2bf 6285 6f99 4553 c3bf
000001e0: 1012 5d53 dba5 c3bf 29d9 bd51 aaf3 c3bf
000001f0: 1584 6b44 443c c4bf bc55 65f9 387f c4bf
00000200: 5885 64a5 16bc c4bf 1e22 a731 6af2 c4bf
00000210: c233 d98e bf21 c5bf e0f2 fb0c a249 c5bf
00000220: 53e5 22b8 9c69 c5bf 7b78 d6b9 3a81 c5bf
00000230: ce61 e3be 0790 c5bf 1cb3 5561 9095 c5bf
00000240: db28 5696 6291 c5bf 8cec 971f 0e83 c5bf
00000250: 10bf fcff 246a c5bf 9072 0df3 3b46 c5bf
00000260: a4b9 dce6 ea16 c5bf 2abe e277 cddb c4bf
00000270: 18a7 586e 8394 c4bf a368 943c b140 c4bf
00000280: 7dbb de7d 00e0 c3bf 5042 3775 2072 c3bf
00000290: d288 758b c6f6 c2bf 20d9 30cc ae6d c2bf
000002a0: ced6 d460 9cd6 c1bf 7391 4509 5a31 c1bf
000002b0: 892f 7391 ba7d c0bf 3a6f 7786 3277 bfbf
000002c0: 1e2c f1a7 b4d5 bdbf c24e 2b9a d616 bcbf
000002d0: 280f 21de 863a babf cfcb 811c c840 b8bf
000002e0: 0420 9bd1 b129 b6bf 18ab 6bea 70f5 b3bf
000002f0: a4b5 b751 48a4 b1bf 086f 09d8 226d aebf
00000300: 164c dd02 7959 a9bf 9063 b328 a20e a4bf
00000310: 3882 5390 b81b 9dbf 58af 556a 29b1 91bf
00000320: c0a7 8348 4283 77bf a00a 25cf e446 793f
00000330: e0e6 cc65 7ce2 923f 604e 6e77 23cd 9f3f
00000340: f000 45f1 7d86 a63f 0c1c 47cc 7b4e ad3f
00000350: 74c7 10b5 eb1d b23f e851 0d93 d8a5 b53f
00000360: ac29 5671 7f3d b93f 88e1 3ec1 46e3 bc3f
00000370: 5e18 14a4 c04a c03f 0cfb 3a85 3729 c23f
00000380: 2a1e 7526 1f0c c43f 7a80 d555 86f2 c53f
00000390: f49f 0c23 74db c73f 2897 407f e8c5 c93f
000003a0: 06f9 46e6 dcb0 cb3f 9059 a710 459b cd3f
000003b0: 24d8 bfad 0f84 cf3f ec1d ac92 13b5 d03f
000003c0: 9d22 f22f 39a6 d13f 5f72 55ca ea94 d23f
000003d0: 3107 7f8e 9980 d33f a115 d325 b668 d43f
000003e0: 0140 ce23 b14c d53f e1ca 9474 fb2b d63f
000003f0: 68d4 3bcc 0606 d73f 33bf 5216 46da d73f
00000400: 80e1 31e5 2da8 d83f 6822 93e0 346f d93f
00000410: 8a80 f932 d42e da3f b48c 6df5 87e6 da3f
00000420: dda8 1699 cf95 db3f 8e5e 3b4e 2e3c dc3f
00000430: fd55 3668 2bd9 dc3f 345f f1bd 526c dd3f
00000440: 0a95 7c06 35f5 dd3f 01d7 5c31 6873 de3f
00000450: 54af 32ba 87e6 de3f 2f23 61f7 344e df3f
00000460: d8d6 6263 17aa df3f d162 83e0 dcf9 df3f
00000470: 6e46 5dfb 9c1e e03f e8ad b705 f539 e03f
00000480: 8bc4 78c9 d74e e03f 4857 c01d 2a5d e03f
00000490: 60cb e088 d464 e03f 25a3 454f c365 e03f
000004a0: 884c ff7e e65f e03f 094b f2f7 3153 e03f
000004b0: 426a ac70 9d3f e03f 0837 e777 2425 e03f
000004c0: 4e72 c372 c603 e03f 5c14 9b2f 0db7 df3f
000004d0: 9db1 becd d758 df3f 1ed2 ee3b 02ed de3f
000004e0: 29a6 4356 a973 de3f 9ea3 2437 f1ec dd3f
000004f0: f90a 2510 0559 dd3f 66bc d4fd 16b8 dc3f
00000500: a7cb d6d6 5f0a dc3f fc15 94f6 1e50 db3f
00000510: e749 e403 9a89 da3f 0e47 0bb4 1cb7 d93f
00000520: e086 6b8a f8d8 d83f 3248 5095 84ef d73f
00000530: 1489 3328 1dfb d63f 9975 e493 23fc d53f
00000540: 38cc f2dc fdf2 d43f 57e0 c270 16e0 d33f
00000550: bf56 acd9 dbc3 d23f 4e7c 8372 c09e d13f
00000560: 3239 ea19 3a71 d03f bc3a 84cb 8377 ce3f
00000570: a2e3 29ae a7fd cb3f 4732 891d dd75 c93f
00000580: 66cf 9b06 26e1 c63f 2817 c96f 8840 c43f
00000590: f044 50ea 0d95 c13f 8435 b10e 86bf bd3f
000005a0: 63e1 1ba2 6d43 b83f 35eb 4490 f4b7 b23f
000005b0: ccca 0198 7f3e aa3f ccd0 451f d9ed 9d3f
000005c0: a0b1 83e5 00ec 7c3f f0e6 fdd5 d425 8fbf
000005d0: 7cdf 7b0a a439 a3bf 18ae 69c4 bfae aebf
000005e0: e4f8 48ff 3f12 b5bf e83b 92f9 50cb babf
000005f0: 1ed8 2d73 3a40 c0bf fe7d 0ef9 c817 c3bf
00000600: fc04 0f7b 49eb c5bf 5492 a402 b4b9 c8bf
00000610: 90af 6078 0382 cbbf d053 71e2 3543 cebf
00000620: 5d91 d74f 267e d0bf 1863 cc4f 26d6 d1bf
00000630: 014a cf4b 1f29 d3bf 7669 129b 9776 d4bf
00000640: 1465 d2a9 17be d5bf 26b3 2a11 2aff d6bf
00000650: aacd 61ae 5b39 d8bf e268 e0b9 3b6c d9bf
00000660: 0c51 05de 5b97 dabf 626d 054e 50ba dbbf
00000670: 3ec4 04dd afd4 dcbf fa1c 9215 14e6 ddbf
00000680: 1c2c ab51 19ee debf 2a0b 6bd3 5eec dfbf
00000690: 6a10 406f 4370 e0bf 81d1 4069 1be5 e0bf
000006a0: 39ca 1ba3 8b54 e1bf ad3c f111 6abe e1bf
000006b0: f21b 4563 8e22 e2bf 10c8 2a0c d280 e2bf
000006c0: b3bb f258 10d9 e2bf 74bb 547d 262b e3bf
000006d0: eff8 0da5 f376 e3bf 5b8e e704 59bc e3bf
000006e0: f5ab 16ec 39fb e3bf 60e6 e4d5 7b33 e4bf
000006f0: ca3c 8c7b 0665 e4bf 62bd 2fe6 c38f e4bf
00000700: 0a28 d780 a0b3 e4bf fa96 512a 8bd0 e4bf
00000710: 3811 e146 75e6 e4bf 6405 8fd1 52f5 e4bf
00000720: bc03 086d 1afd e4bf deaa db73 c5fd e4bf
00000730: 6ca3 fc07 50f7 e4bf a6b5 5b21 b9e9 e4bf
00000740: e387 789b 02d5 e4bf c064 c241 31b9 e4bf
00000750: 478e a3da 4c96 e4bf a219 1231 606c e4bf
00000760: 771a 821c 793b e4bf 2205 1687 a803 e4bf
00000770: 389f eb71 02c5 e3bf f195 65f7 9d7f e3bf
00000780: 44e2 534b 9533 e3bf f87d dfb8 05e1 e2bf
00000790: 0c8a 209e 0f88 e2bf cdf1 4865 d628 e2bf
000007a0: a2b1 507b 80c3 e1bf ad4a 1444 3758 e1bf
000007b0: 1378 d90b 27e7 e0bf 7ef7 31f6 7e70 e0bf
000007c0: f035 70d4 e1e8 dfbf 10b3 49f8 62e6 debf
000007d0: 5464 86a8 efd9 ddbf b2b9 9126 fbc3 dcbf
000007e0: 4af8 4068 fda4 dbbf 866e 6bd6 727d dabf
000007f0: 6ea5 af06 dc4d d9bf c002 9770 bd16 d8bf
