data/geyser-waiting-bw3.0-basegamma-lambda-exp(-12.0)/natparam-value-shift-130.0.npy (npy, 16128 bytes, 1 tensors)

array f8 [2000]
0	0xbe3577343db933e1	-4.9978589839384505e-09
1	0xbe40e0c985a0343d	-7.859466123077893e-09
2	0xbe4a6cbf6acf5fac	-1.2305004426783994e-08
3	0xbe549827c588a13f	-1.9179989459645076e-08
4	0xbe5ff5759ea456ca	-2.976397609721622e-08
5	0xbe68b00159bbc412	-4.598409050576408e-08
6	0xbe72fc726163ae2e	-7.072880978439867e-08
7	0xbe7d12c6e5810284	-1.0830665908655327e-07
8	0xbe86293f8b4324de	-1.6511325429670323e-07
9	0xbe90d135dd6b1646	-2.505962276962391e-07
10	0xbe99690c891f3dd2	-3.78643684515045e-07
11	0xbea31c94e20c2831	-5.695714585262981e-07
12	0xbeac9ecda970fcdb	-8.529521718993718e-07
13	0xbeb5559206c6a50f	-1.2716209552932728e-06
14	0xbebfa9f64f6c573c	-1.8873163846791602e-06
15	0xbec7646e699134da	-2.788580627333294e-06
16	0xbed1343be1d7dcf0	-4.101762468781302e-06
17	0xbed9312b3565c72f	-6.006256475609043e-06
18	0xbee25c9170f1ad0f	-8.755490425302438e-06
19	0xbeeaa54d4dcec379	-1.2705665023067643e-05
20	0xbef33f19fcc9f5cb	-1.835488346778827e-05
21	0xbefbada765ba45ca	-2.6396117716991932e-05
22	0xbf03cfe266096830	-3.778848327291894e-05
23	0xbf0c3bf8973dfec4	-5.385258091816566e-05
24	0xbf1406eeffab7968	-7.639726383554745e-05
25	0xbf1c482f46742fbe	-0.00010788715882287158
26	0xbf23e0f46d703132	-0.0001516626714138741
27	0xbf2bd128e51fb844	-0.0002122270985291404
28	0xbf335fa99645b834	-0.00029561891849183846
29	0xbf3adcd611b92d8c	-0.0004098913793526219
30	0xbf4289a7c41d5fdc	-0.0005657262010840785
31	0xbf4977bd69fe6d74	-0.000777213561366548
32	0xbf5169dc0911f04f	-0.001062836531018813
33	0xbf57b3eb57d38bef	-0.0014467046997246288
34	0xbf600e9aa3db760c	-0.0019600887597863766
35	0xbf65a76efbb19cda	-0.002643315090199755
36	0xbf6d10e07d7463e3	-0.0035480866023473875
37	0xbf736a915b86928b	-0.0047403028515061825
38	0xbf79d1a7a833097e	-0.00630345812823163
39	0xbf8115fa44854012	-0.008342700210647567
40	0xbf8681bbae65666c	-0.010989633807798792
41	0xbf8d81ea5e86b600	-0.014407950410567416
42	0xbf93404be5ab097d	-0.018799959080533214
43	0xbf990001208162b3	-0.02441407929322521
44	0xbfa027c243134b54	-0.031553335845862535
45	0xbfa4c78a1c47c25a	-0.04058486552446956
46	0xbfaa993e4e3b0514	-0.051950404214503504
47	0xbfb0f10510bc779f	-0.06617767008398666
48	0xbfb579fa76c79dad	-0.08389249229332192
49	0xbfbb17c52d0c5708	-0.10583145475206035
50	0xbfc1016241ce8d74	-0.13285473073220155
51	0xbfc53e224a1a9431	-0.16595867746687668
52	0xbfca67a22a1862b0	-0.20628764205391326
53	0xbfd05448c67e982c	-0.2551443041251129
54	0xbfd4188a063f2a32	-0.31399775133164376
55	0xbfd89b750d84f3c5	-0.38448835678337573
56	0xbfddfabb2842fdb5	-0.46842841083340697
57	0xbfe22b655fb748c4	-0.5677973622753361
58	0xbfe5e94fd8d325a6	-0.6847304568156474
59	0xbfea49b964cc4d7e	-0.8214995354377803
60	0xbfef6021a076dc5f	-0.9804847845142709
61	0xbff2a04d69786293	-1.1641363258296777
62	0xbff5ffb10d761a6b	-1.3749247098764055
63	0xbff9d82f76b9ac84	-1.615279639979037
64	0xbffe33449f53e3c3	-1.8875166152704288
65	0xc0018ccda8fdbee7	-2.193751640552239
66	0xc0044953faa6fc68	-2.535804708691604
67	0xc007521c7e2703be	-2.915093408170349
68	0xc00aa8ff9458cb11	-3.3325187291715186
69	0xc00e4e884d475081	-3.7883459126842927
70	0xc01120da9f3d57fe	-4.2820839768592105
71	0xc0133fdd7b59bfec	-4.81236832366265
72	0xc01581e55e1565bc	-5.376851530128473
73	0xc017e370483dfd7a	-5.972108010085657
74	0xc01a5fcdd5f8fca4	-6.593558638879731
75	0xc01cf1125ccbf062	-7.235421609828423
76	0xc01f90128795623a	-7.890695684902818
77	0xc0211a3478788675	-8.551181568825294
78	0xc0226a4383a436cb	-9.207546342654856
79	0xc023b2e91ba999fa	-9.849434723332696
80	0xc024ee66f92218c8	-10.465629372989852
81	0xc02616a9530d00b0	-11.044260592782251
82	0xc027256896034afc	-11.573063552762953
83	0xc0281450c7efc1d8	-12.039678810136067
84	0xc028dd2db57d5cfa	-12.431989356568454
85	0xc0297a1ab296a12a	-12.738484936606785
86	0xc029e5b468b2c45c	-12.948642036268375
87	0xc02a1b4ae967dc4c	-13.053305906227386
88	0xc02a171206f6f6a8	-13.045059411665832
89	0xc029d64dd42623c4	-12.918562535911299
90	0xc029577924f253b4	-12.670846132832459
91	0xc0289a63fd9cb4a8	-12.301544118289101
92	0xc027a0480f23af38	-11.813049767595302
93	0xc0266bd1af7d7a38	-11.210584148470943
94	0xc025011c27359df4	-10.502167916579289
95	0xc02365a0b1ba4808	-9.698491624822069
96	0xc021a0182426b360	-8.812684182857708
97	0xc01f709fa0d6d5c0	-7.859983933556066
98	0xc01b6de5bf732f90	-6.857321731000312
99	0xc0174a93fb014410	-5.82283012576319
100	0xc01319e7747ceda0	-4.7752969933748375
101	0xc00dde6205467460	-3.733585396969417
102	0xc005ba7539a01a60	-2.7160439016327445
103	0xbffbd6c3ba164940	-1.7399327534700006
104	0xbfea44bd8dc49180	-0.8208911675360895
105	0x3f9c30fc45651000	0.027530614600678405
106	0x3fe96a86ede90a00	0.7942537924466819
107	0x3ff789046c90b080	1.4709514847591265
108	0x40006af02bbf1c60	2.052215902108898
109	0x400448ec3789dae0	2.5356067980713846
110	0x40075f6664fb6380	2.92158202068498
111	0x4009b4dfa0983420	3.213317160267721
112	0x400b54d7ad2c42e0	3.4164269951946693
113	0x400c4f10d0e12020	3.538606292600903
114	0x400cb6b45c8eb100	3.5892111998601877
115	0x400ca1645ea067a0	3.578804721136251
116	0x400c26473086d060	3.518690470804401
117	0x400b5d1916bdf6c0	3.4204580094072696
118	0x400a5d4eed3f0300	3.2955606970648432
119	0x40093d52f19f1d60	3.154943359058663
120	0x400811e25377d688	3.0087324639269504
121	0x4006ed8f7f4f8b8a	2.8659963556432944
122	0x4005e06a52119730	2.73457779041464
123	0x4004f7ccc5d6a180	2.6209960418820515
124	0x40043e486a54eee0	2.5304115588349845
125	0x4003bbaf48578220	2.466642918749372
126	0x40037531c6fb9880	2.4322238488703647
127	0x40036d8ad974ce40	2.42848749053681
128	0x4003a53420eb7d00	2.4556658336510964
129	0x40041a9cb20fdb80	2.5129941855515767
130	0x4004ca5eabc52900	2.598813383058882
131	0x4005af7192350a00	2.710665838473915
132	0x4006c35936cffe00	2.845385006163042
133	0x4007fe529ff74e80	2.999181031927776
134	0x40095781acbc2780	3.1677278036995062
135	0x400ac522ef441b00	3.3462580387744083
136	0x400c3cc54f7b3d00	3.5296732148632373
137	0x400db38e6f2b4e00	3.712674015530638
138	0x400f1e8b8c429700	3.889914603979264
139	0x401039876ef45500	4.056180699980587
140	0x4010d38bab091a00	4.206587479048267
141	0x401158df44a1a200	4.3367892001774635
142	0x4011c5d3428ac780	4.443188705177704
143	0x401217afeb7ebf00	4.523132018671959
144	0x40124cdf952f0100	4.57507165049924
145	0x4012650cf151b580	4.598682184803124
146	0x4012613101229900	4.5949134995810255
147	0x4012438dc3fb2680	4.565970480159763
148	0x40120f9409edb680	4.515213160642475
149	0x4011c9b475646100	4.4469774572864935
150	0x4011771d823ecf00	4.3663235045276
151	0x40111d6a327b3100	4.2787254226388995
152	0x4010c2469a139700	4.189722449727697
153	0x40106b10c13a3580	4.104556101968569
154	0x40101c7d0ffab800	4.027820825269373
155	0x400fb48b2b6cdd00	3.963156070003265
156	0x400f4dd5eabe6a00	3.9130056704864273
157	0x400f071920761e80	3.878465894322119
158	0x400edfb790dace80	3.859236842801522
159	0x400ed4580bc37100	3.8536835593241676
160	0x400edf3d76992a80	3.8590039506428297
161	0x400ef8d06b94c900	3.871491280057967
162	0x400f184f862a7100	3.8868704301549997
163	0x400f3497d0dacec0	3.9006801907324586
164	0x400f44f45d5d80d8	3.908669213691706
165	0x400f41e3214abeb0	3.9071714974341702
166	0x400f25bde06cd420	3.893428567238985
167	0x400eed3834ea1e40	3.865829862017364
168	0x400e97a7772f4e40	3.8240498839675467
169	0x400e270e1244a340	3.76906980773893
170	0x400d9fe946573b00	3.703081655060828
171	0x400d08c5f928e480	3.6292838540653634
172	0x400c69a672b970c0	3.5515870058862617
173	0x400bcb474293cf40	3.4742570115430738
174	0x400b36549a1c3ec0	3.4015285529966093
175	0x400ab2a2db519d40	3.337224687030954
176	0x400a467cca0c6800	3.2844177041088187
177	0x4009f617bbeb46c0	3.24516245662457
178	0x4009c33a80abb640	3.220326428642494
179	0x4009ad1ee1312040	3.2095315545193728
180	0x4009b08ff5f10880	3.211212083261728
181	0x4009c841c0e1a880	3.2227816647401255
182	0x4009ed58fcc55700	3.2408923862193433
183	0x400a18157d2fe100	3.2617597370373232
184	0x400a408e3ba6c940	3.28152128794423
185	0x400a5f6c991cfa00	3.296593853184504
186	0x400a6e9498585a00	3.303994360157276
187	0x400a69a9dffe3a40	3.3015935420474136
188	0x400a4e64f6b94f00	3.288278510599298
189	0x400a1cb10cda52a0	3.2640095714690034
190	0x4009d69048c09fe0	3.229767387751039
191	0x40097fca5e5cae60	3.187397706225781
192	0x40091d6ea8f26f80	3.1393712233529527
193	0x4008b5377d24f860	3.088484742823354
194	0x40084cdf840efe60	3.0375356976581287
195	0x4007e97b55c51e60	2.9890047741680945
196	0x40078ee9149e89a0	2.9447805033571086
197	0x40073f6584f1d260	2.905955351476493
198	0x4006fb523f24e8e0	2.872715466798681
199	0x4006c13385abcc80	2.844336551957497
200	0x40068de67f1ed5c0	2.819287293556698
201	0x40065d0aaa052140	2.795430496484329
202	0x40062993ec879440	2.7703016737819155
203	0x4005ee76334c0540	2.7414363868307703
204	0x4005a7589c7c81c0	2.7067119813438865
205	0x4005513cfe2398c0	2.66466711565144
206	0x4004eb0954853980	2.614763889613812
207	0x400475e340a04c40	2.557562355892088
208	0x4003f551fc0fbd80	2.4947852794936693
209	0x40036f20a01a7780	2.4292614467694307
210	0x4002eb00cc5f6280	2.364747616444504
211	0x400271f405eb3980	2.3056412184152464
212	0x40020d87f5814b00	2.2566069774705966
213	0x4001c6f66a811b80	2.2221496887827357
214	0x4001a63d3f674680	2.2061715081588886
215	0x4001b1439a94f080	2.211554725332519
216	0x4001eb2163cb6b00	2.239809779782604
217	0x4002539b2f1b7a80	2.290823333765104
218	0x4002e6e08ae29100	2.3627329683678227
219	0x40039d94f3b10f00	2.4519442594918246
220	0x40046d2532d94c80	2.553293607002672
221	0x4005486432e5c380	2.660347364079314
222	0x40062063fdb07c00	2.765815717647911
223	0x4006e57a362ebc80	2.8620495064747615
224	0x4007885b70fb4680	2.941580660503689
225	0x4007fb36ac46eb00	2.997662874140019
226	0x400832ba01747e80	3.0247688401867094
227	0x400826eb80f92380	3.019003875353917
228	0x4007d3c4cea92580	2.978402723824445
229	0x400739853297dc80	2.9030860855669403
230	0x40065cb3f1919b00	2.795265090232874
231	0x400545d35326cb80	2.659094476338794
232	0x400400cb2d732100	2.50038753039928
233	0x40029c1791340d00	2.3262168258676184
234	0x400127ccc6eb3e00	2.1444335499325007
235	0x3fff6909b1945a00	1.9631440102290298
236	0x3ffca49856c38a00	1.7901843442165273
237	0x3ffa1f44312a5e00	1.632633392384264
238	0x3ff7f1406ddb4000	1.4963993350284
239	0x3ff62cae6689d600	1.385908508816442
240	0x3ff4dcd68666dc00	1.3039155244894118
241	0x3ff405e961a3b000	1.2514432729758482
242	0x3ff3a546a74b0c00	1.227850583542704
243	0x3ff3b23cea21b800	1.2310151239175866
244	0x3ff41f2c23a65c00	1.2576104538509298
245	0x3ff4daee02814800	1.303449640069175
246	0x3ff5d26307464e00	1.3638639721074242
247	0x3ff6f2025f783800	1.4340842942506242
248	0x3ff8274c49efc200	1.509594239058174
249	0x3ff962034ace9400	1.5864289209505387
250	0x3ffa95170a89e600	1.6613989268938667
251	0x3ffbb733bd701600	1.7322270774760682
252	0x3ffcc2f19a320500	1.7975936911828398
253	0x3ffdb6a86ccc0a00	1.8570942163356676
254	0x3ffe93f2fba57600	1.9111203985152088
255	0x3fff5ef420402500	1.9606820354259185
