data/geyser-waiting-bw4.0-basegamma-lambda-exp(-12.0)/natparam-value-shift-400.0.npy (npy, 16128 bytes, 1 tensors)

array f8 [2000]
-0.0001995593286525119 -0.00025525682031446006 -0.00032566480647013495 -0.000414429679716726 -0.0005260363671570551 -0.0006659841413352062 -0.0008409950773305517 -0.0010592602255571355
-0.0013307291326242283 -0.001667448916994415 -0.002083959678529165 -0.0025977535739350657 -0.003229805401935285 -0.00400518298629682 -0.004953745990147522 -0.006110942004428554
-0.0075187087843842405 -0.0092264913126513 -0.011292381892351731 -0.013784390660271617 -0.01678185269621879 -0.02037697622445003 -0.024676534189584702 -0.029803698676075456
-0.03590001416337728 -0.04312750141061338 -0.05167087879621893 -0.0617398821644734 -0.07357165763435858 -0.08743319441154969 -0.10362375644379991 -0.12247726283834195
-0.14436455741985432 -0.16969549779429388 -0.19892078398979693 -0.23253343641378435 -0.271069822791261 -0.3151101242829861 -0.365278122526665 -0.4222401823527008
-0.4867032998958449 -0.5594120832890699 -0.6411445336446782 -0.7327064981682408 -0.834924675574722 -0.9486380670140389 -1.0746877839450646 -1.2139051482211465
-1.3670980493580016 -1.535035559699685 -1.7184308499643972 -1.917922495227995 -2.134054314352734 -2.367253943507568 -2.6178104058084672 -2.885851003004823
-3.171317920051769 -3.4739449975617336 -3.7932351884990556 -4.128439271821003 -4.478536444657959 -4.842217453524113 -5.217870951375138 -5.603573778530319
-5.997085859141635 -6.395850378839971 -6.7969998615845135 -7.197368693208234 -7.59351254488142 -7.981735031560664 -8.358121799085298 -8.718582070378059
-9.058897498567205 -9.374777976044808 -9.661923837705498 -9.91609367894977 -10.133176790354778 -10.3092689977926 -10.440750496291905 -10.524364085562745
-10.557292062358222 -10.537229907190245 -10.462454827311277 -10.33188719064286 -10.145142911743662 -9.90257493497565 -9.60530210417599 -9.255223913040219
-8.855019894719753 -8.408132729406411 -7.918734519297097 -7.391676093519315 -6.832419651515245 -6.246955520293916 -5.641704275542189 -5.023405944225466
-4.398998451598246 -3.775487882729607 -3.1598134822010664 -2.5587106008253 -1.9785750017234562 -1.425332048554381 -0.9043143072361985 -0.4201509933909975
0.023327511479905638 0.4231671700447208 0.777347341867177 1.0848154111593296 1.3454976192140649 1.5602853934187557 1.73099717234183 1.8603164571663466
1.9517075497961276 2.009311142301712 2.03782257594084 2.0423561665886965 2.0282994745833562 2.0011617610939965 1.9664211040803394 1.9293747330442415
1.8949970763731585 1.86780979691315 1.8517677248626683 1.850164092346887 1.8655578465892404 1.8997250892267346 1.9536358828708558 2.027456811092918
2.120578805451032 2.231668895199334 2.3587437240972235 2.499261945095043 2.650231975887891 2.8083311008457486 2.970031557206198 3.1317290594340648
3.289869202726834 3.4410673452310903 3.582217892280653 3.7105893817077913 3.8239023774981433 3.920387894984401 3.99882487479465 4.058556062393222
4.0994825006405335 4.122037669439919 4.127143075548929 4.116147775651939 4.090754879838869 4.052938508462262 4.004854947196463 3.9487518538304585
3.8868793140320577 3.8214063274735963 3.754345942419093 3.6874917651988426 3.62236797478414 3.560194300644696 3.5018667056492063 3.4479537879435043
3.3987082095657684 3.3540918064218204 3.313812462657893 3.2773703666740914 3.2441109247873214 3.2132814048902105 3.184088322174347 3.155752661666966
3.1275602504733087 3.0989049326486793 3.0693226424983635 3.0385149943498533 3.00636158149827 2.972920775530109 2.938419410071024 2.9032322919320066
2.8678529811624287 2.832857697009345 2.798864520667209 2.7664902647661904 2.7363074564245977 2.708803833784401 2.6843465898448784 2.6631533221713823
2.645271277838532 2.6305660392331163 2.6187203006267055 2.609242862582107 2.6014874469050824 2.594680434336624 2.587956174386534 2.58039813292433
2.571083846033787 2.559131451721953 2.5437454828414445 2.5242596284186334 2.50017430460386 2.471187113624808 2.4372145977342825 2.3984040992927476
2.3551349987090475 2.308009097275317 2.2578304189626692 2.2055752006370426 2.1523533011672953 2.0993626655654793 2.0478388123330546 1.999001555652228
1.954001318212704 1.9138674288983566 1.8794607309401385 1.8514326535144505 1.8301926311737589 1.8158854029610438 1.8083793022743748 1.807266178275654
1.8118730905193843 1.8212854124567457 1.8343804886134762 1.849870535755656 1.8663530798805823 1.8823668953240258 1.8964511733780682 1.9072055054473367
1.913348225501295 1.9137707196656493 1.9075854737949385 1.894165885487837 1.8731762035462225 1.844590360882421 1.8086989186272149 1.7661038206802004
1.7177011485921412 1.6646525462653017 1.6083464325809018 1.550350519701169 1.4923574895839238 1.436125938213081 1.3834188668375873 1.3359420762943728
1.2952848026309312 1.2628648216342526 1.239880052714284 1.2272684178219606 1.225677371312372 1.2354441262566525 1.2565871781832811 1.2888092861051064
1.3315116304065668 1.3838184454131124 1.4446110371314944 1.5125697584944646 1.5862222376240425 1.6639959488189788 1.7442730878069597 1.8254456657737137
00000000: 49b8 9194 1928 2abf ae3f 01b2 7fba 30bf
00000010: 5aa9 78b1 bf57 35bf 5778 beeb f928 3bbf
00000020: be3e 297f b63c 41bf 28ff a70d aed2 45bf
00000030: 5ab2 362d c78e 4bbf 03ce b501 dc5a 51bf
00000040: 2766 af86 7bcd 55bf 8a4d 3da4 c951 5bbf
00000050: 2c7e 4b55 6112 61bf ac6c 9454 e247 65bf
00000060: ee35 5c92 6475 6abf 02dd 0c1f bd67 70bf
00000070: 7874 5310 614a 74bf 268b e880 c907 79bf
00000080: 24ac 6405 f0cb 7ebf c2ac 8eb3 56e5 82bf
00000090: 4c6c 5fd7 7520 87bf 4d34 a698 fd3a 8cbf
000000a0: 6077 fc11 432f 91bf a7ca e6b9 b3dd 94bf
000000b0: 3ea4 4a2d ce44 99bf fe4e 745c dc84 9ebf
000000c0: aee9 8395 7c61 a2bf 5fca 3bd0 ce14 a6bf
000000d0: b4b1 2bfd 9a74 aabf 98b7 82ad 5e9c afbf
000000e0: 70bb 7397 97d5 b2bf 3519 9596 0562 b6bf
000000f0: 45c9 0325 1687 babf 32ef 647e ab5a bfbf
00000100: d4ee 68ae 897a c2bf 0608 a702 95b8 c5bf
00000110: c38c dd7a 3c76 c9bf 61d5 4fd8 a7c3 cdbf
00000120: f68a f43d 3559 d1bf 5cc5 9ba7 c32a d4bf
00000130: 4b90 8c7d b760 d7bf 66c3 90af fb05 dbbf
00000140: 971b fa98 2526 dfbf 50d7 562b b4e6 e1bf
00000150: 066b 808a 4184 e4bf 7d60 e6e5 5472 e7bf
00000160: 5df0 06f4 b3b7 eabf 4a1c 3238 3e5b eebf
00000170: b946 57d1 eb31 f1bf cae4 00ce 276c f3bf
00000180: 2cb0 4634 a2df f5bf 1ab7 7172 818f f8bf
00000190: 988d d058 b17e fbbf 7245 947f cfaf febf
000001a0: f642 8011 8b12 01c0 4a89 e5d5 22f0 02c0
000001b0: 5a9b 0095 46f1 04c0 ae46 f80c 3916 07c0
000001c0: 8eba feed db5e 09c0 270b c5ac a3ca 0bc0
000001d0: 641e c5b0 8b58 0ec0 1af9 9f95 8583 10c0
000001e0: 0d00 2f75 05ea 11c0 9f06 8c40 6e5e 13c0
000001f0: 569e 0b90 19df 14c0 210b 9e3e 0f6a 16c0
00000200: 0145 5113 04fd 17c0 55e8 3ccd 5995 19c0
00000210: 24b0 51bb 2030 1bc0 a155 ca04 1bca 1cc0
00000220: 2f20 a8c0 c15f 1ec0 f48f b7f2 4bed 1fc0
00000230: b11c 8ebd 5bb7 20c0 0e88 37fd e96f 21c0
00000240: 2053 1cd0 271e 22c0 3ebf 1ce6 e2bf 22c0
00000250: 9ec6 66ae e752 23c0 bb52 0e3b 0ad5 23c0
00000260: ee51 8ebf 2f44 24c0 305f 8e81 589e 24c0
00000270: fc89 8e0c aae1 24c0 bc60 0d73 790c 25c0
00000280: 444c 9c62 551d 25c0 64a1 63cc 0f13 25c0
00000290: c85b 0ee1 c6ec 24c0 788b 2b1e eda9 24c0
000002a0: d85e f62b 504a 24c0 cad1 474d 1ece 23c0
000002b0: 9045 4b28 ea35 23c0 6c54 6fb5 ac82 22c0
000002c0: 5c80 ea2a c5b5 21c0 9c74 eac5 f6d0 20c0
000002d0: 6859 e8bd c8ac 1fc0 7829 b189 1391 1dc0
000002e0: 0839 2fd1 6554 1bc0 88ea 6ce8 e1fc 18c0
000002f0: d8a0 f4ec 1a91 16c0 e8eb 53ba f717 14c0
00000300: 9013 d30c 9398 11c0 c024 b6fd 3234 0ec0
00000310: 901b 7c4a 4c47 09c0 10c9 7343 3d78 04c0
00000320: c05d d142 3ea8 ffbf 40b5 67fa 28ce f6bf
00000330: c04c dc8e 24f0 ecbf 80c2 fffd c0e3 dabf
00000340: 00f0 9ccb 2ae3 973f 004f 05c1 2b15 db3f
00000350: 4077 5e88 07e0 e83f 9004 9267 675b f13f
00000360: a0ec f582 2887 f53f 908f 12d1 edf6 f83f
00000370: 80d3 4a17 2ab2 fb3f 38d7 7b30 dbc3 fd3f
00000380: c8b0 1bb2 313a ff3f e064 5db8 1113 0040
00000390: 28bb 35ec 754d 0040 5042 72d4 be56 0040
000003a0: d0a2 2e13 f539 0040 603c ef18 6102 0040
000003b0: 4007 c3f9 7576 ff3f c075 420a b8de fe3f
000003c0: 009d 5074 e851 fe3f 003f 8e86 8ce2 fd3f
000003d0: 002d a131 d7a0 fd3f 80d0 cda9 459a fd3f
000003e0: 005a 3e2f 53d9 fd3f 80e9 9922 4665 fe3f
000003f0: 008f 13b3 1742 ff3f 8092 cd46 3b38 0040
00000400: 0006 5005 f2f6 0040 800d c338 75da 0140
00000410: 8024 9507 b5de 0240 8090 f20b 7dfe 0340
00000420: 0004 7ad2 ac33 0540 00c7 d34b 7677 0640
00000430: 004f b2e7 9fc2 0740 009e 11f7 c70d 0940
00000440: 80a2 cef1 a651 0a40 00cf f850 4e87 0b40
00000450: 80ee b3da 61a8 0c40 008f 5a7c 49af 0d40
00000460: 009c 3321 5a97 0e40 00bd 2454 f45c 0f40
00000470: 0065 5de5 97fd 0f40 80d8 d31e f63b 1040
00000480: 001a 9bbd de65 1040 807f 5c71 f77c 1040
00000490: 0095 5dcb 3182 1040 80b6 4771 ef76 1040
000004a0: 0071 e3d8 ee5c 1040 802d 2a83 3536 1040
000004b0: 00bb fdb1 f804 1040 00c5 4136 0b97 0f40
000004c0: 0022 8a2e 5418 0f40 00d0 097b 3d92 0e40
000004d0: 807b 8486 e608 0e40 0063 beae fb7f 0d40
000004e0: 8034 8e0f 9cfa 0c40 8065 4526 477b 0c40
000004f0: 80b7 fdb0 d203 0c40 80b1 aacb 6895 0b40
00000500: 80da 05ee 8d30 0b40 00e8 c215 2ed5 0a40
00000510: 008b c11b b082 0a40 40f5 6df4 0d38 0a40
00000520: 8076 b46d f0f3 0940 80c9 96e1 ccb4 0940
00000530: c083 5a4c 0379 0940 20ff 6040 fb3e 0940
00000540: 606b 004f 3e05 0940 001d 59ab 8eca 0840
00000550: e038 9307 f98d 0840 201b 09f3 e04e 0840
00000560: 24e3 034d 070d 0840 9601 04b0 8ac8 0740
00000570: 487e 2109 e281 0740 1050 14da d139 0740
00000580: 40a1 5ee7 5cf1 0640 2004 d74b b1a9 0640
00000590: 609a f114 1364 0640 40fc dea5 c521 0640
000005a0: 2028 e929 f5e3 0540 4011 2b58 a1ab 0540
000005b0: 601a 74b4 8a79 0540 c0ad 3754 234e 0540
000005c0: c0ea dafc 8329 0540 c0cb 2335 660b 0540
000005d0: 0081 04a1 23f3 0440 80e4 d0b8 badf 0440
000005e0: 804b 8ba6 d8cf 0440 0060 c8d0 e7c1 0440
000005f0: 80c5 e35d 22b4 0440 408e bcc6 a7a4 0440
00000600: 80e9 4f68 9491 0440 807c 1ae9 1979 0440
00000610: c036 513b 9759 0440 805e 3508 af31 0440
00000620: c095 c462 5b00 0440 8085 dabf fdc4 0340
00000630: 00d2 f45d 6a7f 0340 0070 087d ee2f 0340
00000640: 80f6 a804 51d7 0240 0058 3d79 cd76 0240
00000650: 80de 0a65 0910 0240 80d6 5c9c 04a5 0140
00000660: 009c ef01 0538 0140 8060 38a7 7ecb 0040
00000670: 8099 b350 f961 0040 00df 220e e9fb ff3f
00000680: 0008 e1e2 9643 ff3f 00f8 ff73 339f fe3f
00000690: 0011 586a 4512 fe3f 0075 99d8 779f fd3f
000006a0: 0058 8411 7848 fd3f 0006 30da dd0d fd3f
000006b0: 0082 a022 1fef fc3f 00c6 adf0 8fea fc3f
000006c0: 0088 44a3 6efd fc3f 00f0 322c fc23 fd3f
000006d0: 003f f05a 9f59 fd3f 0079 ced8 1199 fd3f
000006e0: 0004 0e0c 95dc fd3f 00d6 e7bf 2c1e fe3f
000006f0: 00ea 812f dd57 fe3f 005c 8aeb e983 fe3f
00000700: 0034 6607 139d fe3f 001a d00b ce9e fe3f
00000710: 0062 8458 7885 fe3f 00e8 35e3 804e fe3f
00000720: 0006 5e9c 87f8 fd3f 001c a82e 7183 fd3f
00000730: 0008 fd46 6ef0 fc3f 0098 7214 f641 fc3f
00000740: 0014 1833 b47b fb3f 009a 56b5 6aa2 fa3f
00000750: 002c 0978 c9bb f93f 0040 b758 3cce f83f
00000760: 0042 3b3f b2e0 f73f 0000 1931 5ffa f63f
00000770: 00ca 5bd2 7b22 f63f 008e 70cc 0460 f53f
00000780: 00e4 a48e 7cb9 f43f 0002 43be b134 f43f
00000790: 00ee 5577 8cd6 f33f 0058 5f35 e4a2 f33f
000007a0: 00be 13e0 5f9c f33f 00ec 640f 61c4 f33f
000007b0: 00ec 2d28 fb1a f43f 00a4 697c f69e f43f
000007c0: 0070 ad23 df4d f53f 006a 6acf 1e24 f63f
000007d0: 00ba 7e76 201d f73f 0070 da58 7c33 f83f
000007e0: 0088 ac91 2a61 f93f 00aa 4d37 ba9f fa3f
000007f0: 00c8 b6e5 8ae8 fb3f 00f8 b183 0635 fd3f
