data/geyser-waiting-bw6.0-basegamma-lambda-exp(-8.0)/natparam-value-shift-340.0.npy (npy, 16128 bytes, 1 tensors)

array f8 [2000]
0	0xbf646b7026e091d1	-0.0024926367250534894
1	0xbf66b63e6fd29af2	-0.0027724475354092776
2	0xbf693d58c827ac6b	-0.0030810102482426347
3	0xbf6c06551ef7f5c6	-0.0034209883231130804
4	0xbf6f173e28bd754d	-0.003795262722560955
5	0xbf713b4db705f767	-0.0042069469203605886
6	0xbf7315bce1f70e87	-0.004659402678445119
7	0xbf751eba177432a9	-0.005156256599786837
8	0xbf775a5e986f896c	-0.005701417458995866
9	0xbf79cd14409bb954	-0.006299094305843706
10	0xbf7c7b9a96be1268	-0.006953815329215553
11	0xbf7f6b0c0fc8e244	-0.0076704474600367036
12	0xbf815071c1476698	-0.008454216681389057
13	0xbf831180e4881885	-0.009310729002219862
14	0xbf84fbd9c5bbdff4	-0.010245992037638964
15	0xbf8712db97e8e5e1	-0.011266437123697183
16	0xbf895a2174303553	-0.012378941877637805
17	0xbf8bd5856c922b0d	-0.01359085309583954
18	0xbf8e8923a5e2d90c	-0.014910009860937844
19	0xbf90bcaeb9de0498	-0.016344766706883535
20	0xbf92556e38306254	-0.01790401666593973
21	0xbf94114ac4cd4baa	-0.019597213994824315
22	0xbf95f2e5fd4db98b	-0.02143439634840542
23	0xbf97fd0a14f06867	-0.023426206138630692
24	0xbf9a32ab307b11f2	-0.025583910783796023
25	0xbf9c96e8a963c6c0	-0.027919421519021936
26	0xbf9f2d0e31fdbb74	-0.030445310403077255
27	0xbfa0fc4a69e137f8	-0.033174825119758056
28	0xbfa27e91e014cf63	-0.036121901134179145
29	0xbfa41f4875ecdaab	-0.039301170725982125
30	0xbfa5e070b5a8c087	-0.042727968383020225
31	0xbfa7c424c3c255f3	-0.046418332001092376
32	0xbfa9cc964020ff7b	-0.05038899929831949
33	0xbfabfc0df8cf9f30	-0.05465739881748133
34	0xbfae54eb688aeb0f	-0.05924163485675226
35	0xbfb06cd1fd9e4274	-0.06416046563959715
36	0xbfb1c661091f75f3	-0.06943327400900738
37	0xbfb33871e10c7fcd	-0.07508002991062242
38	0xbfb4c45ca19fce3a	-0.08112124391464529
39	0xbfb66b8187ad7eaa	-0.087577911018793
40	0xbfb82f47d2472eec	-0.09447144397489254
41	0xbfba111c742a9c16	-0.10182359539122418
42	0xbfbc127091da5fb9	-0.1096563678823931
43	0xbfbe34b7c9622510	-0.11799191156946542
44	0xbfc03cb3207ba76a	-0.12685240827641603
45	0xbfc170f73cf298b6	-0.1362599418254768
46	0xbfc2b7df72c0ff1c	-0.1462363539048902
47	0xbfc4121f9d23fadd	-0.1568030850684953
48	0xbfc58066c3cf2755	-0.16798100052829548
49	0xbfc7035d83af9a7b	-0.17979020051935266
50	0xbfc89ba4565e4a90	-0.19224981515124684
51	0xbfca49d1b86639e9	-0.20537778381226637
52	0xbfcc0e702edfaa33	-0.21919061936144288
53	0xbfcde9fc2d47a67a	-0.23370315752918086
54	0xbfcfdce1dcea25a2	-0.24892829214904305
55	0xbfd0f3bd63d63adc	-0.264876697060499
56	0xbfd20505b4426b26	-0.2815565357538382
57	0xbfd32260523931bd	-0.2989731600726165
58	0xbfd44bd697aa58ee	-0.31712879954410667
59	0xbfd581637049c5c4	-0.3360222431720923
60	0xbfd6c2f1fe0dd85d	-0.35564851579636586
61	0xbfd8105c3a65ead7	-0.3759985513967598
62	0xbfd969699701bd14	-0.39705886599308937
63	0xbfdacdcda14cd460	-0.41881123306240475
64	0xbfdc3d26ac091916	-0.441232364657837
65	0xbfddb6fc82b910fb	-0.4642936016646357
66	0xbfdf3abf2acac79a	-0.48796061686436476
67	0xbfe063e2db57d246	-0.5121931346935262
68	0xbfe12ea697a0c60a	-0.5369446717724611
69	0xbfe1fd3bcc00d704	-0.5621623024405555
70	0xbfe2cf25896fda1e	-0.5877864536585695
71	0xbfe3a3d89427c3a0	-0.6137507337244763
72	0xbfe47abb1c3f938a	-0.6399817992902268
73	0xbfe553248d3dfcc4	-0.6663992651591788
74	0xbfe62c5d770321d0	-0.6929156612832745
75	0xbfe7059f9258a55f	-0.7194364412618305
76	0xbfe7de15e35eeca2	-0.7458600464664367
77	0xbfe8b4dcfbed7058	-0.7720780296763321
78	0xbfe989035fd2182e	-0.7979752418039021
79	0xbfea598a0ca89d57	-0.8234300849189066
80	0xbfeb256526c6c713	-0.8483148343422918
81	0xbfebeb7ccc75188c	-0.8724960320767123
82	0xbfecaaae105d522a	-0.895834953271849
83	0xbfed61cc1bc16598	-0.9181881467913398
84	0xbfee0fa178ae8cb7	-0.9394080502574046
85	0xbfeeb2f183f9c7d4	-0.9593436792040344
86	0xbfef4a7a0665d620	-0.9778413891751292
87	0xbfefd4f4f3dfb324	-0.9947457087670029
88	0xbff0288d27a36d35	-1.0099002407431048
89	0xbff05ed1185d980b	-1.0231486274510668
90	0xbff08ca375f6644f	-1.0343355758580122
91	0xbff0b163a9b5b4fd	-1.0433079366005693
92	0xbff0cc748abaf653	-1.0499158305314225
93	0xbff0dd3d97273adf	-1.054013815348007
94	0xbff0e32c35d0b234	-1.0554620840222357
95	0xbff0ddb4fe0dcf67	-1.0541276859266533
96	0xbff0cc5502f1b833	-1.0498857607849572
97	0xbff0ae931f23a1f8	-1.0426207748770349
98	0xbff084013e505f87	-1.0322277483118982
99	0xbff04c3da1119616	-1.0186134616609528
100	0xbff006f418098b71	-1.0016976298290639
101	0xbfef67be65bc1f57	-0.9814140307434894
102	0xbfeea592bf62c60a	-0.9577115762714936
103	0xbfedc71bef6b7d3e	-0.9305553127450492
104	0xbfeccc346aff952a	-0.8999273385822211
105	0xbfebb4dc239c8d80	-0.865827626756456
106	0xbfea813a07338903	-0.8282747402811598
107	0xbfe9319d40cd2fdd	-0.7873064294485591
108	0xbfe7c67e340a7f3d	-0.7429801002908573
109	0xbfe6407f2e545f56	-0.6953731446146587
110	0xbfe4a06cc919e048	-0.6445831229930343
111	0xbfe2e73df91ed308	-0.5907277932770691
112	0xbfe11613c790bd18	-0.5339449785005028
113	0xbfde5c7164bb6e94	-0.4743922694885694
114	0xbfda623f643a99d0	-0.41224655902842944
115	0xbfd640c5c97ae6d0	-0.34770340610303396
116	0xbfd1fb83ba24a590	-0.2809762304119312
117	0xbfcb2c7e61724f70	-0.2122953391850575
118	0xbfc22a006f511450	-0.14190679011713536
119	0xbfb1f02dea1aa5c0	-0.07007109609062123
120	0x3f6811e549276000	0.0029382208096926377
121	0x3fb3ab89cdca2180	0.07683621668014062
122	0x3fc35eb9506cb360	0.15132824351294527
123	0x3fccf13b1fd37300	0.2261117844963323
124	0x3fd34197720ad6a0	0.30087839257189763
125	0x3fd8052c35f86850	0.37531571646252804
126	0x3fdcbe362dee9df0	0.4491095970683707
127	0x3fe0b3c88cfc9ca8	0.5219462159774553
128	0x3fe2fe11a71bb1e0	0.5935142768699357
129	0x3fe53b73737d5e40	0.663507199827059
130	0x3fe769797a599498	0.7316253080031343
131	0x3fe985c2449fc258	0.7975779857934624
132	0x3feb8e03c8111058	0.8610857875396603
133	0x3fed800fada12c50	0.9218824759676725
134	0x3fef59d76728a188	0.9797169699495933
135	0x3ff08cb804e61d70	1.0343551818239938
136	0x3ff15e8af17b2190	1.0855817253924194
137	0x3ff22197df2c211c	1.1332014768286802
138	0x3ff2d528ea122ae4	1.1770409720799586
139	0x3ff378a02bc16348	1.216949625892271
140	0x3ff40b78cf1c5778	1.2528007593404862
141	0x3ff48d47edbe7010	1.2844924246664995
142	0x3ff4fdbd348aaafc	1.31194801830378
143	0x3ff55ca34d834848	1.3351166751713368
144	0x3ff5a9e00dad8044	1.3539734396254213
145	0x3ff5e5746667eb78	1.3685192108375457
146	0x3ff60f7c1a40d448	1.3787804627911715
147	0x3ff6282d3601309c	1.3848087415272294
148	0x3ff62fd74f477640	1.3866799446908686
149	0x3ff626e28ab08a54	1.3844933908045691
150	0x3ff60dce6c2adf9c	1.378370687989423
151	0x3ff5e53074a63c44	1.3684544140449058
152	0x3ff5adb290dfb1d0	1.3549066218503079
153	0x3ff568115d8b4fbc	1.3379071859426253
154	0x3ff5151a45923f44	1.317652007830433
155	0x3ff4b5a97f82d6d0	1.2943510991003002
156	0x3ff44aa7efa77444	1.268226562642
157	0x3ff3d508f47f7818	1.2395104933452838
158	0x3ff355c8238ab734	1.20844282039202
159	0x3ff2cde6fc7a6c90	1.1752691137724334
160	0x3ff23e6a98eae068	1.1402383778895686
161	0x3ff1a8595ec66210	1.1036008550783016
162	0x3ff10cb8bb5cea7c	1.0656058615556097
163	0x3ff06c8aed145edc	1.0264996777458952
164	0x3fef9199c2b86050	0.9865235140923776
165	0x3fee44e8588aa630	0.9459115723922817
166	0x3fecf4da3d8bc3b0	0.9048892213887623
167	0x3feba332008f5780	0.863671303838359
168	0x3fea5198df582270	0.8224605905716782
169	0x3fe9019bdede161c	0.7814463951951356
170	0x3fe7b4a94012c994	0.7408033610757223
171	0x3fe66c0e5640d888	0.7006904301295132
172	0x3fe528f5c2f3e5d0	0.6612500007315081
173	0x3fe3ec661a205454	0.622607279804138
174	0x3fe2b740f007ed08	0.5848698318581294
175	0x3fe18a42511f287a	0.5481273254784036
176	0x3fe06600a301daf2	0.5124514754996581
177	0x3fde95d9d8b32378	0.4778961769302934
178	0x3fdc72a700eea774	0.44449782458342857
179	0x3fda62ba14a31eb0	0.412275810388091
180	0x3fd8661fe33165a2	0.38123318850338184
181	0x3fd67ca4275855c8	0.3513574966649142
182	0x3fd4a5d592d1cbda	0.322621720674929
183	0x3fd2e10a64282618	0.294985387620359
184	0x3fd12d657614f5d2	0.26839577228005596
185	0x3fcf13b76d7e9128	0.24278920027166717
186	0x3fcbea73e8e53708	0.2180924307999066
187	0x3fc8dc55d9ce86a0	0.19422410140127955
188	0x3fc5e67b17e57960	0.17109621683898535
189	0x3fc305d68ce13a60	0.14861566428085649
190	0x3fc0373cfcd61ba0	0.12668573709035247
191	0x3fbaeee377e29da0	0.10520764996419141
192	0x3fb586665bab74e0	0.08408202875166948
193	0x3fb02e8dd900ee60	0.06321035907688488
194	0x3fa5c215daa06980	0.04249637883931978
195	0x3f965f2a3f530700	0.021847400774965386
196	0x3f53429fe2c3f000	0.0011755525002277167
197	0xbf94124e05ec3500	-0.019601077186099936
198	0xbfa4c3f05ebf6680	-0.04055739552104587
199	0xbfaf9f0e4bb63800	-0.06176037477699481
200	0xbfb551113e765340	-0.08326823973613973
201	0xbfbae9c90184d140	-0.1051297787387897
202	0xbfc04e1c9c70d1e0	-0.1273837818022363
203	0xbfc3351ed6518b60	-0.15005860771915547
204	0xbfc62a7f05a5d360	-0.17317188049096455
205	0xbfc92e757c45e740	-0.19673031394978047
206	0xbfcc40de9bc1f0a0	-0.2207296619925545
207	0xbfcf613b6fd67b00	-0.2451547905047491
208	0xbfd14759a18e1a00	-0.269979865807187
209	0xbfd2e40b10361b80	-0.29516865332737297
210	0xbfd485f018a380e0	-0.32067491918679814
211	0xbfd62c1ef3d531e0	-0.34644292651935693
212	0xbfd7d5887015bba0	-0.37240801759520004
213	0xbfd980fab3f0c660	-0.39849727222745024
214	0xbfdb2d24485abe40	-0.42463023248544474
215	0xbfdcd8975effadc0	-0.4507196834299201
216	0xbfde81cd49807ba0	-0.47667247941893187
217	0xbfe013950b2f4600	-0.5023904055071284
218	0xbfe0e380243976b0	-0.5277710635670783
219	0xbfe1afca4f074800	-0.5527087729954019
220	0xbfe27790eea0c7d0	-0.577095476217659
221	0xbfe339ee4da310d0	-0.6008216396662878
222	0xbfe3f5fb7ad268b0	-0.6237771414628437
223	0xbfe4aad21a2c3010	-0.6458521376785047
224	0xbfe5578e267e3680	-0.6669378997628002
225	0xbfe5fb4f9ff36f20	-0.6869276165047928
226	0xbfe6953c2476d6d0	-0.7057171547118859
227	0xbfe724806f42a020	-0.7232057736446258
228	0xbfe7a851bd694b30	-0.7392967891158602
229	0xbfe81fef159ed630	-0.7538981840395476
230	0xbfe88aa271ff1f30	-0.7669231630797864
231	0xbfe8e7c1cb02ffe0	-0.7782906498978228
232	0xbfe936b003454430	-0.7879257263067583
233	0xbfe976ddb4221100	-0.7957600134109555
234	0xbfe9a7c9db9dc680	-0.8017319955235536
235	0xbfe9c9026c596e30	-0.8057872883031845
236	0xbfe9da24c0aadab0	-0.8078788531336922
237	0xbfe9daddf2337a30	-0.8079671602716356
238	0xbfe9caeb178ab800	-0.8060203037073279
239	0xbfe9aa1969bee8f0	-0.8020140710207482
240	0xbfe97846539186a0	-0.7959319717594617
241	0xbfe9355f6c699900	-0.7877652280265295
242	0xbfe8e1626100cc80	-0.7775127310363956
243	0xbfe87c5ccbce18d0	-0.7651809673850725
244	0xbfe8066bff23dde0	-0.7507839186864054
245	0xbfe77fbcc2e01a70	-0.734342938056967
246	0xbfe6e88b076c6b10	-0.7158866066923526
247	0xbfe641218fa24f30	-0.6954505734779328
248	0xbfe589d992f77fe0	-0.6730773802228178
249	0xbfe4c31a591f8960	-0.6488162747084907
250	0xbfe3ed58d014a5b0	-0.6227230133128412
251	0xbfe309171d3b98f0	-0.5948596545174762
252	0xbfe216e42a166960	-0.5652943441412326
253	0xbfe1175b2cba0f80	-0.5341010926790517
254	0xbfe00b232bfcd5a0	-0.5013595446713914
255	0xbfdde5dcfe304dc0	-0.4671547396003142
