data/geyser-waiting-bw8.0-basegamma-lambda-exp(-12.0)/natparam-value-shift-90.0.npy (npy, 16128 bytes, 1 tensors)

array f8 [2000]
0.3867110175277886 0.40713694097074393 0.42819390155676285 0.44986552576404737 0.47213181674667526 0.4949689677240108 0.5183491815229004 0.5422404978791313
0.566606630180952 0.5914068134057553 0.6165956650608173 0.6421230609931579 0.667934027972974 0.6939686549879607 0.7201620252022476 0.7464441705411566
0.7727400508510014 0.798969559559735 0.8250475577230807 0.850883938280381 0.876383722269308 0.9014471886519368 0.9259700392883063 0.9498436004607154
0.97295506219508 0.9951877564481197 1.0164214750376477 1.0365328279714916 1.055395642596519 1.0728814037348702 1.088859734699879 1.1031989187877969
1.115766460545144 1.1264296857763565 1.1350563789315657 1.1415154561598175 1.1456776719661725 1.1474163570420899 1.1466081844769889 1.1431339611908857
1.136879441065135 1.12773615588471 1.1156022598561197 1.1003833831276868 1.0819934894075303 1.060355732477479 1.0354033061093748 1.0070802816406204
0.9753424272315492 0.9401580026389968 0.9015085231809792 0.8593894864492562 0.813811055254364 0.7647986902629373 0.7123937258031763 0.6566538823925896
0.5976537096720378 0.5354849535999584 0.4702568420159281 0.4020962829641572 0.33114797053880274 0.25757439339940547 0.18155574160480015 0.10328970791295866
0.022991180288447488 -0.05910817701789561 -0.14276045576741536 -0.22770215063904287 -0.3136549212008547 -0.4003264686065733 -0.4874115258383198 -0.5745929594600065
-0.6615429799555956 -0.7479244568502263 -0.8333923338911227 -0.9175951386836303 -1.00017658028003 -1.0807772273524812 -1.1590362587123693 -1.2345932771714239
-1.3070901769043601 -1.3761730537979062 -1.441494147581011 -1.5027138039444736 -1.5595024443060694 -1.6115425304624722 -1.6585305109668198 -1.7001787358513099
-1.7362173260842795 -1.7663959841331405 -1.7904857320104952 -1.8082805633405314 -1.8195989962420072 -1.8242855141869114 -1.8222118824913736 -1.8132783286814629
-1.7974145756972604 -1.7745807176980435 -1.7447679291698677 -1.7079989990307922 -1.6643286825753023 -1.6138438652422877 -1.5566635335206627 -1.492938549597966
-1.4228512277870493 -1.3466147121945653 -1.264472156578762 -1.1766957088468928 -1.0835853041606072 -0.985467272121241 -0.8826927650181062 -0.7756360155689492
-0.6646924340275859 -0.5502765558939586 -0.4328198527545055 -0.3127684200183296 -0.19058055642327076 -0.0667242512054429 0.05832540425694788 0.1840888627477284
0.3100848072495239 0.4358328579990882 0.5608562814692277 0.6846846820446046 0.8068566570641451 0.9269223960741897 1.0444462053939674 1.1590089395542122
1.2702103217778244 1.377671136431843 1.481035277288015 1.5799716365015684 1.6741758203876316 1.763371679414945 1.8473126412549163 1.925782837267036
1.9985980144296605 2.0656062264241086 2.126688299339037 2.181758069292755 2.230762391070698 2.2736809187683775 2.310525661239751 2.3413403170044376
2.3661993950245233 2.385207129524929 2.3984961986649296 2.406226258460322 2.4085823048217208 2.4057728779433774 2.398028124491418 2.3855977341594894
2.3687487680898585 2.3477633974345906 2.322936570999275 2.294573631307429 2.262987898755341 2.228498243598267 2.19142666545838 2.1520958997878665
2.110827070306385 2.0679374058424003 2.0237380392798627 1.9785319053791852 1.9326117532432932 1.8862582879898753 1.8397384549106164 1.7933038780000743
1.7471894632366656 1.701612175419271 1.6567699957411435 1.6128410655826428 1.5699830203151635 1.528332515157551 1.4880049434168114 1.4490943457517673
1.4116735074102031 1.375794238788556 1.3414878331117421 1.3087656935621013 1.2776201207996962 1.2480252505627334 1.2199381298598695 1.1932999192641347
1.1680372078834154 1.1440634268583523 1.12128034660509 1.0995796425629578 1.0788445138868212 1.0589513393631762 1.0397713548067884 1.0211723363340468
1.0030202741702396 0.9851810220653476 0.9675219079285284 0.9499132919547151 0.9322300592919532 0.9143530351659592 0.8961703113644717 0.8775784740224708
0.8584837237679039 0.8388028804654368 0.8184642660222039 0.7974084599495086 0.7755889236555618 0.7529724907188893 0.7295397216299193 0.7052851227679184
0.6802172305705199 0.6543585630207644 0.6277454417139552 0.600427688821469 0.572468204224549 0.5439424290638613 0.5149377027219657 0.4855525210267615
0.4558957041109579 0.4260854828950187 0.3962485136621581 0.36651883047693445 0.33703674555306407 0.30794770774468816 0.279401129466919 0.25154919231135864
0.22454564149313683 0.19854457908604672 0.17369926572951044 0.15016094013856218 0.12807766533433096 0.10759321005605216 0.08884597326084531 0.07196795908146214
0.05708380898352061 0.044309897236757934 0.03375349512407411 0.025512008675946163 0.019672293994631218 0.016310053544998482 0.015489316098978634 0.0172620023492982
0.021667577512630487 0.028732791607808394 0.03847150746889838 0.05088461592094973 0.06596003701838526 0.08367280564857538 0.10398523933758952 0.12684718560183228
0.1521963457554989 0.17995867169025814 0.2100488317708482 0.24237074168729578 0.27681815579558133 0.31327531425188226 0.3516176410129219 0.3917124876033995
00000000: 1839 5291 dfbf d83f f89e 9d19 880e da3f
00000010: b01b e264 8767 db3f 9048 30c6 98ca dc3f
00000020: 88fe 145e 6837 de3f 5835 3a52 92ad df3f
00000030: 4093 d105 5196 e03f e0a4 9ebe 085a e13f
00000040: d85d 4a3a a421 e23f 88b2 46fb cdec e23f
00000050: a054 09d5 26bb e33f 0823 5fa9 458c e43f
00000060: 70f1 c02e b75f e53f b0ea b3c0 fd34 e63f
00000070: b012 423b 910b e73f a073 98e2 dee2 e73f
00000080: 98dc d657 49ba e83f f0df 199c 2891 e93f
00000090: f816 c222 ca66 ea3f b063 f3f3 703a eb3f
000000a0: f096 3ce0 550b ec3f 4899 4ac6 a7d8 ec3f
000000b0: 2836 7aeb 8ba1 ed3f b065 0968 1e65 ee3f
000000c0: 6060 93a7 7222 ef3f 9060 6afe 93d8 ef3f
000000d0: 08d2 232a 4343 f03f 20e3 5572 a395 f03f
000000e0: f0af 948a e6e2 f03f 0872 d8b0 852a f13f
000000f0: b879 672f f86b f13f 80d1 d2e8 b3a6 f13f
00000100: b83d a0ee 2dda f13f b872 5a22 db05 f23f
00000110: 4009 aae0 3029 f23f e85b 01b6 a543 f23f
00000120: 50a2 4d1c b254 f23f 8042 0641 d15b f23f
00000130: 4079 dad2 8158 f23f 4830 24d6 464a f23f
00000140: 88e9 2d7f a830 f23f 58aa 4011 350b f23f
00000150: c8cf 56c1 81d9 f13f 2886 399b 2b9b f13f
00000160: 20d8 b767 d84f f13f d0de 9192 37f7 f03f
00000170: 888f 9e0e 0391 f03f a87c a136 001d f03f
00000180: 608b 6b52 0136 ef3f 9007 4d3c c615 ee3f
00000190: 0015 0467 28d9 ec3f e06c 5a61 1e80 eb3f
000001a0: 901a 6e7b bd0a ea3f 907e 561a 3b79 e83f
000001b0: 5068 46ed edcb e63f 005d b500 4f03 e53f
000001c0: c0fb 2bac fa1f e33f e0c7 6657 b122 e13f
000001d0: 006f 4b27 b018 de3f 6026 4b0c f2bb d93f
000001e0: a075 e641 8731 d53f c0ff fb4e 197c d03f
000001f0: 80fc 4bf2 373d c73f 80e2 7fbd 3171 ba3f
00000200: 00c5 bdfd ff8a 973f 00a3 6f4e 6d43 aebf
00000210: f06f 5780 f945 c2bf 709d 1c15 5825 cdbf
00000220: 4e60 3217 ec12 d4bf 98db 98e8 f29e d9bf
00000230: 98d1 ca1c c031 dfbf 0890 2cc6 1063 e2bf
00000240: 68d8 f92e 5c2b e5bf f09b 4145 ffee e7bf
00000250: 6095 5966 26ab eabf 40ac f37a f05c edbf
00000260: 1072 6828 b900 f0bf f0d8 db0f dd4a f1bf
00000270: e0c3 a09a 698b f2bf f000 55e1 e4c0 f3bf
00000280: 20a2 ab63 d7e9 f4bf e02c 3b09 ce04 f6bf
00000290: 00c6 d32a 5c10 f7bf 4007 33a1 1d0b f8bf
000002a0: e039 c5d5 b8f3 f8bf c030 07d2 e0c8 f9bf
000002b0: a054 004a 5789 fabf 4060 3d9e ee33 fbbf
000002c0: 207d a4d1 8bc7 fbbf 8033 7a6f 2843 fcbf
000002d0: 0009 ef5d d4a5 fcbf 00a4 9899 b7ee fcbf
000002e0: 001a 4bd6 131d fdbf 40fd df01 4630 fdbf
000002f0: c0ed 9aa5 c727 fdbf 00b8 0323 3003 fdbf
00000300: 4093 3fc9 35c2 fcbf 4001 2ac0 ae64 fcbf
00000310: c04e aec6 91ea fbbf 0002 27c2 f653 fbbf
00000320: 804a d71c 17a1 fabf c00d e1f1 4dd2 f9bf
00000330: 808d 7505 18e8 f8bf 0060 5788 13e3 f7bf
00000340: 80b3 26a6 ffc3 f6bf 8002 53de bb8b f5bf
00000350: 8055 f327 473b f4bf 8074 2de1 bed3 f2bf
00000360: 80bc 3c8b 5d56 f1bf 0040 21a9 f288 efbf
00000370: 0065 c5e5 043f ecbf 00fd 0e9f 02d2 e8bf
00000380: 0082 4111 2945 e5bf 003e 6a94 dd9b e1bf
00000390: 00f8 280a 52b3 dbbf 00d2 ccd5 6504 d4bf
000003a0: 00b4 8b94 f164 c8bf 0008 c72c d714 b1bf
000003b0: 0080 9ecf d3dc ad3f 0098 874e 3990 c73f
000003c0: 00e2 87f2 6dd8 d33f 0036 e87f afe4 db3f
000003d0: 0054 55df 88f2 e13f 0085 aed9 efe8 e53f
000003e0: 00d0 540d c5d1 e93f 0032 2228 59a9 ed3f
000003f0: 0093 6939 0db6 f03f 0083 32f5 4c8b f23f
00000400: 003d f10e c852 f43f 00e3 b9e3 f00a f63f
00000410: 00ca 020c 52b2 f73f 001c b656 9047 f93f
00000420: 001a c595 6cc9 fa3f 007a dc38 c536 fc3f
00000430: 00d6 3ab3 978e fd3f 0029 14aa 01d0 fe3f
00000440: 0037 5de9 41fa ff3f 803e a78e 5c86 0040
00000450: 8093 b327 7503 0140 002c 1b93 3d74 0140
00000460: 005d d6f3 99d8 0140 0032 1d9f 7f30 0240
00000470: 80bf bce0 f47b 0240 00b9 d2a1 10bb 0240
00000480: 0090 cbf2 f9ed 0240 00f7 bb79 e714 0340
00000490: 00c5 66c6 1e30 0340 80e8 768d f33f 0340
000004a0: 0078 a7cc c644 0340 00f7 c2d9 053f 0340
000004b0: 80a1 8c5e 292f 0340 8003 cd43 b415 0340
000004c0: 0017 db8d 32f3 0240 c0d1 152d 38c8 0240
000004d0: 80fe d8c4 5f95 0240 c0d5 856b 495b 0240
000004e0: 002f 4366 991a 0240 8095 1be3 f6d3 0140
000004f0: 00cf 1db4 0a88 0140 808e 1b0e 7e37 0140
00000500: c0d1 934d f9e2 0040 4025 42c4 228b 0040
00000510: 8006 b391 9d30 0040 8023 3b12 11a8 ff3f
00000520: 00b9 404d faeb fe3f 809b ab2b 1d2e fe3f
00000530: 008e 1097 916f fd3f 00ce 3c68 5fb1 fc3f
00000540: c046 48f0 7cf4 fb3f 406b 3eb0 cd39 fb3f
00000550: 803c 4b41 2182 fa3f 002c e56e 32ce f93f
00000560: 8076 f883 a61e f93f e03d a0cb 0c74 f83f
00000570: 402f 8445 dece f73f 6028 7d8d 7d2f f73f
00000580: 904d aff5 3696 f63f f8f3 d9d1 4003 f63f
00000590: 4026 33f2 bb76 f53f a09d bf4b b4f0 f43f
000005a0: 80bd b8cb 2171 f43f 80fc 3b53 e9f7 f33f
000005b0: c043 2ed8 dd84 f33f 40f1 f8a7 c117 f33f
000005c0: 40ed 85c8 47b0 f23f 4080 ae73 154e f23f
000005d0: 0010 25a9 c3f0 f13f 007c c2d2 e097 f13f
000005e0: 80ce 0977 f242 f13f 80ec a9f5 76f1 f03f
000005f0: 8067 c349 e7a2 f03f 8027 c2cd b856 f03f
00000600: 0094 acfc 5e0c f03f 0023 cd59 9a86 ef3f
00000610: 00ee 1681 f0f5 ee3f 0066 5f8f b065 ee3f
00000620: 003a 2022 d4d4 ed3f 0028 e14b 6142 ed3f
00000630: 009c 5e5c 6dad ec3f 0034 b373 1f15 ec3f
00000640: 0068 b7db b278 eb3f 0078 6c23 79d7 ea3f
00000650: 0052 f0f8 db30 ea3f 002e 21bf 5e84 e93f
00000660: 00b2 c7dc 9fd1 e83f 009c cdc3 5918 e83f
00000670: 0012 b1af 6358 e73f 0098 141b b291 e63f
00000680: 003c efec 56c4 e53f 0004 815e 81f0 e43f
00000690: 00fc cb9b 7d16 e43f 003c e320 b436 e33f
000006a0: 009e e4d6 a851 e23f 008e f7f3 f967 e13f
000006b0: 0062 15a2 5e7a e03f 0038 93e1 4a13 df3f
000006c0: 00c8 e22c 652d dd3f 0068 950b fc44 db3f
000006d0: 0020 d1b9 225c d93f 0010 9165 0b75 d73f
000006e0: 00d8 ec91 0292 d53f 0010 694d 6ab5 d33f
000006f0: 00a8 6146 b5e1 d13f 0000 94c8 6119 d03f
00000700: 0010 565d e9bd cc3f 0080 fca4 e869 c93f
00000710: 00e0 d20c c73b c63f 0010 8443 7938 c33f
00000720: 00c0 fa53 d964 c03f 0060 7686 3a8b bb3f
00000730: 0060 8915 9cbe b63f 0060 9dfe 7d6c b23f
00000740: 0040 6ec9 163a ad3f 00c0 0a6f c9af a63f
00000750: 0000 5e5b 2348 a13f 0080 aceb d11f 9a3f
00000760: 0080 604d f924 943f 0080 492a 95b3 903f
00000770: 0000 a9d0 dcb8 8f3f 0000 375e 21ad 913f
00000780: 0080 3383 0630 963f 0000 1d01 216c 9d3f
00000790: 0040 d094 89b2 a33f 0000 8062 8c0d aa3f
000007a0: 0040 d6c9 c1e2 b03f 0040 d3bb 946b b53f
000007b0: 00c0 38d2 c69e ba3f 00f0 df50 873c c03f
000007c0: 0098 cb7b 2b7b c33f 0048 c5c0 e208 c73f
000007d0: 0068 824f e1e2 ca3f 00f0 8624 0106 cf3f
000007e0: 0030 857f 63b7 d13f 00c8 56e7 b30c d43f
000007f0: 0038 3647 e780 d63f 0040 ec40 d111 d93f
