data/geyser-waiting-bw8.0-basegamma-lambda-exp(-12.0)/natparam-value-shift-240.0.npy (npy, 16128 bytes, 1 tensors)

array f8 [2000]
000000 b8 f6 4a fc 95 d1 d8 3f c0 73 43 e0 76 21 da 3f
       0.38779210699054145 0.4082925024102302
000010 a0 0f 49 ae c0 7b db 3f 60 0c b6 82 2f e0 dc 3f
       0.42942826290186 0.4511832024074405
000020 b8 13 dc 4a 70 4e de 3f b8 48 48 fc 1f c6 df 3f
       0.47353751478686545 0.4964675868697088
000030 d4 6d 4c 69 65 a3 e0 3f 4c bc ce ca f5 67 e1 3f
       0.5199458176243135 0.5439404450497789
000040 8c 72 c8 74 75 30 e2 3f e8 7e a6 55 8f fc e2 3f
       0.5684153824727942 0.5933300659998766
000050 48 5a 35 ad e4 cb e3 3f b0 54 a7 c9 0c 9e e4 3f
       0.6186393149353728 0.6442932070300653
000060 a0 e7 96 cd 94 72 e5 3f b8 5a 0f 80 ff 48 e6 3f
       0.6702369704646465 0.6964108945056386
000070 a8 45 a8 27 c5 20 e7 3f 90 91 c1 71 53 f9 e7 3f
       0.7227502607876675 0.7491852971839297
000080 70 02 ec 66 0d d2 e8 3f d0 14 87 6d 4b aa e9 3f
       0.7756411562150571 0.8020379199230323
000090 b8 6d 97 5b 5b 81 ea 3f 60 cb d0 98 80 56 eb 3f
       0.8282906330963931 0.8543093666724921
0000a0 88 29 c4 51 f4 28 ec 3f 90 82 15 bd e5 f7 ec 3f
       0.8799993130681267 0.9052609150931676
0000b0 80 a8 8c 73 7a c2 ed 3f 28 86 c2 db ce 87 ee 3f
       0.9299900299859161 0.9540781299767263
0000c0 40 76 16 aa f6 46 ef 3f 10 21 7f 75 fd fe ef 3f
       0.9774125406290253 0.9998767180304942
0000d0 c8 fd d7 b0 73 57 f0 3f 20 08 77 ef d8 aa f0 3f
       1.0213505657155668 1.0417107919788648
0000e0 70 56 e7 3f 2a f9 f0 3f 08 cc 7b f2 e0 41 f1 3f
       1.0608313080059837 1.0785836669936106
0000f0 20 59 69 5f 74 84 f1 3f c0 2d 7f 72 5a c0 f1 3f
       1.0948375441562987 1.1094612572222644
000100 50 8f 8d 41 08 f5 f1 3f 88 95 34 ad f2 21 f2 3f
       1.122322326723367 1.1332880750499914
000110 78 d1 bd 0b 8f 46 f2 3f b0 65 8b dd 53 62 f2 3f
       1.1422262629176583 1.1490057615359142
000120 30 78 8f 8a b9 74 f2 3f 18 54 25 28 3b 7d f2 3f
       1.153497258426352 1.155573994464481
000130 c0 e4 8c 46 57 7b f2 3f 80 d8 2f c5 90 6e f2 3f
       1.1551125293611193 1.151993532429998
000140 10 d4 be ac 6f 56 f2 3f a8 0b 1c 0e 82 32 f2 3f
       1.1461025951259707 1.1373310614733132
000150 a0 c3 f0 e4 5c 02 f2 3f 08 c0 b3 fc 9c c5 f1 3f
       1.125576872156877 1.1107454177072231
000160 98 3d d0 d6 e7 7b f1 3f 80 3c 88 90 ec 24 f1 3f
       1.0927503958845133 1.0715146680629744
000170 20 2f 19 c7 64 c0 f0 3f 00 a4 98 78 15 4e f0 3f
       1.0469711091308866 1.0190634451666938
000180 a0 45 dd bf 9f 9b ef 3f f0 82 8c 94 e4 7e ee 3f
       0.9877470729208433 0.9529898549409079
000190 70 5c 84 c8 d1 45 ed 3f 70 1f 75 fa 5c f0 eb 3f
       0.9147728840206479 0.8730912105320225
0001a0 90 97 89 7d 9a 7e ea 3f 30 b2 87 ad be f0 e8 3f
       0.8279545261291208 0.7793877972849881
0001b0 c0 d2 81 24 1f 47 e7 3f d0 f9 a2 ce 33 82 e5 3f
       0.7274318421392181 0.6721438442107743
0001c0 60 b4 b1 d8 97 a2 e3 3f 90 dc fc 75 0a a9 e1 3f
       0.613597796660212 0.5518848709533746
0001d0 e0 a6 10 f5 de 2c df 3f 80 7f ec 8c 9f d7 da 3f
       0.4871137040341704 0.4194105983933625
0001e0 e0 bf b8 ff b2 54 d6 3f 40 8b d3 30 c0 a6 d1 3f
       0.3489196297914514 0.27580265777776347
0001f0 00 bd 18 72 70 a1 c9 3f 40 a3 c2 4e 56 57 bf 3f
       0.2002392346489401 0.12242640898570034
000200 00 c9 23 b7 d6 cc a5 3f 80 51 7f 5c 78 01 a4 bf
       0.042578420501643066 -0.03907371644132507
000210 20 02 62 fc eb 4d bf bf 90 90 52 00 f5 77 ca bf
       -0.12228274261179495 -0.20678579822299925
000220 76 bc 8e cb 20 b5 d2 bf 7e 49 e1 88 26 3a d8 bf
       -0.2923051822535351 -0.3785492264479656
000230 70 7d db ee 0d c6 dd bf 30 0d b4 af d3 a9 e1 bf
       -0.465213282832301 -0.5519808227258292
000240 68 d3 23 3c cb 6e e4 bf 30 cb 1e ca 2b 2f e7 bf
       -0.6385246443374912 -0.7245081851636765
000250 50 a6 db db 22 e8 e9 bf 60 b5 76 71 d0 96 ec bf
       -0.8095869344808282 -0.8934099403465261
000260 30 5b 44 61 4a 38 ef bf c0 ae b9 ed cf e4 f0 bf
       -0.9756214046236433 -1.0558623586793345
000270 70 a3 4a 8a ee 23 f2 bf 40 db 1c 89 07 58 f3 bf
       -1.133772411538498 -1.2089915615049023
000280 30 68 2b ca a3 7f f4 bf e0 08 ee 8a 50 99 f5 bf
       -1.2811620614288692 -1.349930327124234
000290 80 da 36 6f a1 a3 f6 bf 80 3e 7b 8f 32 9d f7 bf
       -1.4149488777453882 -1.4758782963507713
0002a0 60 ac 38 89 aa 84 f8 bf 80 bc 09 8e bc 58 f9 bf
       -1.5323891983232656 -1.584164194904389
0002b0 a0 d7 e3 6d 2a 18 fa bf e0 fe e6 98 c6 c1 fa bf
       -1.6308998386934732 -1.6723085377452023
0002c0 60 f0 18 15 76 54 fb bf 80 ce 63 64 32 cf fb bf
       -1.708120424663342 -1.738085167072228
0002d0 80 aa 30 57 0b 31 fc bf 40 15 01 c8 28 79 fc bf
       -1.7619737058509202 -1.7795799076714758
0002e0 00 97 7c 3c cc a6 fc bf c0 c0 7f 68 52 b9 fc bf
       -1.7907221186409856 -1.7952446062081862
0002f0 80 80 dc 8f 34 b0 fc bf c0 88 a3 c3 09 8b fc bf
       -1.7930188769896915 -1.7839448587551914
000300 00 e8 ff f7 87 49 fc bf 40 e3 e4 ef 84 eb fb bf
       -1.7679519355283446 -1.7449998255599013
000310 80 39 0e fc f6 70 fb bf 40 4e 17 8b f5 d9 fa bf
       -1.7150792928619865 -1.678212683987013
000320 c0 20 bc 88 b9 26 fa bf c0 ae a5 8a 9d 57 f9 bf
       -1.6344542828756374 -1.5838904777437364
000330 80 18 7e c9 1d 6d f8 bf 00 ff 61 e5 d7 67 f7 bf
       -1.5266397352984598 -1.4628523788705365
000340 80 23 26 75 8a 48 f6 bf 80 00 4b 60 14 10 f5 bf
       -1.3927101684696197 -1.3164256822056188
000350 00 38 dd 03 74 bf f3 bf 80 71 e9 22 c6 57 f2 bf
       -1.2342414999907305 -1.1464291919465666
000360 80 23 92 a3 44 da f0 bf 00 93 7a 34 8a 90 ee bf
       -1.0532881154524318 -0.9551440262772246
000370 00 d4 6e 49 6e 46 eb bf 00 8b 1a 2f 45 d9 e7 bf
       -0.852347510741879 -0.7452722473138635
000380 00 57 80 00 4b 4c e4 bf 00 e3 ad fe e3 a2 e0 bf
       -0.6343131074706605 -0.5198841070369724
000390 00 ec 98 f6 2f c1 d9 bf 00 80 fe 01 1b 12 d2 bf
       -0.40241622049114767 -0.2823550719713239
0003a0 00 14 20 06 13 80 c4 bf 00 d0 5e 23 25 95 a2 bf
       -0.16015851782881896 -0.03629413658873659
0003b0 00 d8 f5 02 32 b9 b6 3f 00 70 7d f7 df 75 cb 3f
       0.08876335689805614 0.21453475555870227
0003c0 00 e2 88 46 64 cb d5 3f 00 22 b9 9e cb d7 dd 3f
       0.34053904426721715 0.46629610538778365
0003d0 00 fe 8e b0 2b ec e2 3f 00 fd 88 a9 a9 e2 e6 3f
       0.5913294266137541 0.7151687918884875
0003e0 00 48 77 62 98 cb ea 3f 00 8c 83 bc 48 a3 ee 3f
       0.8373529360926568 0.9574321443473082
0003f0 00 a7 b8 8e 14 33 f1 3f 00 3f ba 44 65 08 f3 3f
       1.0749707770395958 1.1895497021359347
000400 00 cd d6 c0 f2 cf f4 3f 00 72 10 4f 2f 88 f6 3f
       1.3007686169410704 1.4082482422301155
000410 00 8d 3c 6d a5 2f f8 3f 00 de bc c6 f9 c4 f9 3f
       1.5116323725749794 1.6105897677606436
000420 00 54 d2 01 ed 46 fb 3f 00 53 27 5b 5d b4 fc 3f
       1.7048158713489556 1.7940343437850856
000430 00 7d 90 0c 48 0c fe 3f 00 b9 6c 7c ca 4d ff 3f
       1.877998398856846 1.956491933855034
000440 80 6c be 99 11 3c 00 40 00 ed bf 4b 59 c5 00 40
       2.029330445407652 2.0963617246576405
000450 00 a5 ac b4 7d 42 01 40 80 99 02 83 51 b3 01 40
       2.157466327208226 2.2125578150909746
000460 00 09 0c b5 b8 17 02 40 00 ec 05 7c a8 6f 02 40
       2.2615827698037947 2.3045205773646558
000470 80 57 0b 01 27 bb 02 40 80 0b 64 0c 4b fa 02 40
       2.34138298812735 2.3722134559661185
000480 80 a7 10 90 3b 2d 03 40 00 99 ab 16 2f 54 03 40
       2.3970862631876457 2.4161054392926644
000490 00 27 ee 17 6b 6f 03 40 00 a5 5f 34 43 7f 03 40
       2.42940348334821 2.4371399013222117
0004a0 80 29 e7 59 18 84 03 40 80 8b 27 d3 57 7e 03 40
       2.4394995711965635 2.4366909500544693
0004b0 80 f7 b6 43 7a 6e 03 40 80 5c 6a 93 02 55 03 40
       2.4289441385471378 2.4165088192781354
0004c0 00 6a 0c cb 7c 32 03 40 c0 ab f3 e4 7c 07 03 40
       2.3996520865596267 2.3786561858046014
0004d0 c0 4c 01 94 9d d4 02 40 80 d1 a0 03 7f 9a 02 40
       2.353816181459109 2.3254375728085392
0004e0 c0 12 6c 93 c5 59 02 40 80 bb 19 91 18 13 02 40
       2.293833877311357 2.259324201200286
0004f0 80 d3 5a f3 20 c7 01 40 40 88 43 18 88 76 01 40
       2.2222308170407246 2.1828767676934433
000500 c0 1c cd 89 f6 21 01 40 c0 2a eb ca 12 ca 00 40
       2.1415835157127674 2.0986686566369315
000510 00 54 95 2f 80 6f 00 40 40 e6 06 c2 dd 12 00 40
       2.0544437138983085 2.0092120321612867
000520 80 8c a7 6e 8a 69 ff 3f 00 63 91 ea 93 ab fe 3f
       1.9632667849007532 1.9168891108330968
000530 00 dc c1 56 f0 ec fd 3f c0 e1 d7 00 a8 2e fd 3f
       1.8703463925319284 1.8238906891766504
000540 40 9a 93 ac b1 71 fc 3f 00 cc de 49 f1 b6 fb 3f
       1.7777573338768349 1.732163704448567
000550 80 34 57 db 36 ff fa 3f 80 c9 d8 8e 3d 4b fa 3f
       1.6873081748956622 1.6433692531541908
000560 20 af 11 09 ab 9b f9 3f 00 dd b1 e4 0e f1 f8 3f
       1.6005049089680554 1.5588520940198691
000570 40 52 52 65 e2 4b f8 3f 10 f0 bb 5d 88 ac f7 3f
       1.5185264547227604 1.4796222363938831
000580 38 8d c1 48 4d 13 f7 3f ec cd 72 93 67 80 f6 3f
       1.4422123758348118 1.4063487777428874
000590 00 37 02 17 f8 f3 f5 3f a0 ff 53 c0 0a 6e f5 3f
       1.3720627688193758 1.339365721971241
0005a0 e0 30 cb 62 97 ee f4 3f c0 36 94 b3 82 75 f4 3f
       1.3082498416070436 1.2786890997698919
0005b0 40 97 5a 6a 9f 02 f4 3f c0 0f 12 84 af 95 f3 3f
       1.2506403116653502 1.2240443381315202
0005c0 40 8c 3a a4 65 2e f3 3f 40 ef d3 90 66 cc f2 3f
       1.1988274016555494 1.1749025018061303
0005d0 80 96 0a c5 4a 6f f2 3f 00 00 85 16 a0 16 f2 3f
       1.152170915310677 1.1305237655324163
0005e0 80 91 24 69 eb c1 f1 3f 80 95 ff 6c aa 70 f1 3f
       1.1098436457769765 1.0900062806843778
0005f0 00 03 58 62 55 22 f1 3f 80 a6 5b df 60 d6 f0 3f
       1.0708822099260829 1.0523384785578003
000600 00 5e 8b 93 3f 8c f0 3f 00 12 c3 04 64 43 f0 3f
       1.034240318627667 1.0164528070464485
000610 00 fc ff 83 84 f6 ef 3f 00 14 60 10 a3 66 ef 3f
       0.9988424852489288 0.9812789268331699
000620 00 c0 12 ab 1b d6 ee 3f 00 1a 49 d0 f2 43 ee 3f
       0.9636362401270162 0.9457944934918601
000630 00 9e ad 49 3c af ed 3f 00 04 22 c7 1d 17 ed 3f
       0.9276410521533194 0.9090718163789688
000640 00 60 a8 3d d1 7a ec 3f 00 78 3b 08 a7 d9 eb 3f
       0.8899923519375079 0.8703189049517732
000650 00 28 01 c7 07 33 eb 3f 00 82 ec f9 75 86 ea 3f
       0.849979294472405 0.8289136773419727
000660 00 98 93 54 8f d3 e9 3f 00 10 ae c9 0d 1a e9 3f
       0.8070751811872015 0.784430402666203
000670 00 12 5b 4d c8 59 e8 3f 00 a6 fe 4d b3 92 e7 3f
       0.7609597693304408 0.7366577647528061
000680 00 60 2a e4 e0 c4 e6 3f 00 62 a8 ba 80 f0 e5 3f
       0.7115330177648502 0.685608257833394
000690 00 cc 5a b0 df 15 e5 3f 00 02 38 36 67 35 e4 3f
       0.6589201397349598 0.6315189417801435
0006a0 00 ee 2d 6c 9c 4f e3 3f 00 ca 40 00 1f 65 e2 3f
       0.6034681427840383 0.5748438839858068
0006b0 00 e0 a3 d3 a7 76 e1 3f 00 14 f9 69 07 85 e0 3f
       0.545734322890894 0.51623888681263
0006c0 00 b0 7b 4e 48 22 df 3f 00 88 72 c2 f0 37 dd 3f
       0.48646743454332864 0.4565393351459761
0006d0 00 b8 07 93 20 4d db 3f 00 a8 df 6a 0f 64 d9 3f
       0.42658247335828037 0.39673219143753613
0006e0 00 48 8a 92 0f 7f d7 3f 00 58 b1 18 89 a0 d5 3f
       0.3671301775985967 0.3379233113422515
0006f0 00 88 25 d7 f4 ca d3 3f 00 40 f7 5f d7 00 d2 3f
       0.3092624760666922 0.2813013493696417
000700 00 10 a5 dd bb 44 d0 3f 00 e0 77 e2 5d 32 cd 3f
       0.25419518132207486 0.2280995708276805
000710 00 d0 ff 31 73 01 ca 3f 00 00 ad 53 b8 fb c6 3f
       0.20316924992914664 0.17955688558322436
000720 00 60 75 ca 12 26 c4 3f 00 50 15 6a 43 85 c1 3f
       0.15741190801304583 0.13687937431188857
000730 00 20 9f 57 ba 3b be 3f 00 e0 2d e1 78 e8 b9 3f
       0.11809887541960506 0.10120349404849094
000740 00 60 39 7f fd 18 b6 3f 00 60 a9 1d f6 d4 b2 3f
       0.08631882053430218 0.07356203292999908
000750 00 00 24 43 75 23 b0 3f 00 c0 c4 1f ca 15 ac 3f
       0.06304104699302115 0.05485374105262508
000760 00 c0 e3 20 f7 21 a9 3f 00 c0 6d e7 60 75 a7 3f
       0.04908726002202002 0.04581740212495333
000770 00 80 df 60 68 18 a7 3f 00 00 1f 47 d1 11 a8 3f
       0.04510809118778525 0.047010936671995296
000780 00 80 6a 5b b6 66 aa 3f 00 80 48 a6 80 1a ae 3f
       0.05156488290708694 0.05879594831299073
000790 00 e0 f1 de 70 97 b1 3f 00 00 29 87 e8 d1 b4 3f
       0.06871705477703927 0.08132794666107657
0007a0 00 40 60 0d c6 bb b8 3f 00 30 7d d4 4c 53 bd 3f
       0.09661519838869026 0.11455230891914425
0007b0 00 c8 1f f1 f3 4a c1 3f 00 58 7c 20 17 40 c4 3f
       0.13509988092079084 0.15820588194100083
0007c0 00 50 e4 59 f4 86 c7 3f 00 48 f8 56 0c 1d cb 3f
       0.18380598439455298 0.21182398077559128
0007d0 00 58 07 3e 80 ff ce 3f 00 d4 27 23 8b 95 d1 3f
       0.24217227009529552 0.2747524112049291
0007e0 00 a4 ee 70 1f ce d3 3f 00 24 39 31 8d 27 d6 3f
       0.30945573833975004 0.34616403395608586
0007f0 00 d0 2a 87 bf 9f d8 3f 00 ac bf cc 7f 34 db 3f
       0.38475025367665694 0.42507929797164934
