data/geyser-waiting-bw10.0-basegamma-lambda-exp(-10.0)/natparam-value-shift-110.0.npy (npy, 16128 bytes, 1 tensors)

array f8 [2000]
-0.734788237161649 -0.7629032405189783 -0.7917036978704602 -0.8211846611659563 -0.8513397192599818 -0.882160939114511 -0.9136388081491773 -0.945762177981584
-0.9785182098077208 -1.0118923216803077 -1.0458681379481551 -1.0804274411265262 -1.1155501264723477 -1.151214159542655 -1.1873955370173965 -1.224068251070005
-1.261204257569843 -1.298773448400699 -1.3367436281783491 -1.3750804956470783 -1.4137476300320364 -1.452706482618746 -1.4919163738242722 -1.5313344960176292
-1.570915922336715 -1.610613621738885 -1.650378480509713 -1.6901593304412659 -1.7299029838751747 -1.7695542757898073 -1.8090561130924734 -1.848349531257595
-1.8873737584309702 -1.9260662870979492 -1.964362953388479 -2.002198024068197 -2.0395042912370016 -2.076213174729196 -2.1122548321814225 -2.1475582767025077
-2.1820515020519333 -2.215661615198212 -2.2483149760990404 -2.2799373445112527 -2.310454033603924 -2.339790070116412 -2.367870360767502 -2.394619864587918
-2.4199637708158113 -2.443827681959472 -2.4661378015990074 -2.486821126467608 -2.50580564231737 -2.523020523048378 -2.5383963325463537 -2.551865228647946
-2.563361168624108 -2.5728201155487476 -2.5801802448937305 -2.5853821506731745 -2.588369050436923 -2.5890869884003997 -2.587485035979573 -2.583515488991182
-2.577134060767882 -2.5683000704323478 -2.5569766255712114 -2.543130798550495 -2.5267337957172527 -2.5077611187385696 -2.4861927173399856 -2.462013132719492
-2.435211630927812 -2.4057823255302306 -2.373724288886284 -2.339041651412222 -2.3017436882234863 -2.2618448925862396 -2.2193650356482983 -2.1743292119577102
-2.126767870323077 -2.076716829617258 -2.0242172791749216 -1.9693157634869376 -1.91206415095216 -1.8525195865011117 -1.79074442796861 -1.7268061661514036
-1.6607773285514593 -1.5927353668679611 -1.5227625283680943 -1.4509457113306254 -1.3773763048233967 -1.3021500131427803 -1.2253666653075594 -1.1471300100665118
-1.0675474969425487 -0.9867300439005824 -0.9047917922881581 -0.8218498497541624 -0.7380240219158551 -0.6534365335910266 -0.5682117404706801 -0.48247583215304246
-0.39635652750702377 -0.30998276337389186 -0.2234843776536728 -0.1369917878572835 -0.050635666233201704 0.03545338739930415 0.1211451739550995 0.20631022336348792
0.2908201216441242 0.37454783560334093 0.4573680339703863 0.539157403806044 0.6197949610243825 0.6991623538898821 0.7771441583752399 0.8536281642924273
0.9285056511473258 1.0016716527044096 1.0730252092969224 1.1424696069626563 1.2099126025440974 1.2752666339473429 1.33844901481881 1.3993821129637816
1.457993511902746 1.5142161550321624 1.5679884719357027 1.6192544864664633 1.6679639063059497 1.7140721937817283 1.7575406178146693 1.7983362869472295
1.8364321634883396 1.8718070588969873 1.9044456106065617 1.9343382405778193 1.961481095945249 1.9858759722047559 2.00753021946257 2.026456632341308
2.0426733242092148 2.0562035864638197 2.0670757336646446 2.0753229353679394 2.080983035568437 2.0840983607034893 2.0847155172157237 2.0828851797097023
2.0786618707685562 2.0721037335231536 2.063272298085842 2.0522322429742736 2.039051152657361 2.023799272359039 2.00654926124648 1.987375945121478
1.9663560697135125 1.9435680556510757 1.9190917561576004 1.8930082184829669 1.8653994500417443 1.836348190182873 1.8059376884655496 1.774251490259882
1.741373230433 1.7073864358168747 1.6723743370878175 1.6364196906198394 1.5996046107984172 1.5620104132115393 1.523717469055768 1.4848050710202987
1.445351310833976 1.4054329685830842 1.3651254138304818 1.3245025184912347 1.283636581344334 1.2425982639874817 1.2014565379719269 1.1602786427865421
1.119130054295482 1.0780744631718555 1.0371737628160105 0.9964880461910148 0.9560756109625643 0.9159929722868334 0.8762948825508374 0.8370343573413273
0.7982627068876766 0.7600295722064985 0.7223829651589568 0.6853693116260402 0.6490334969996283 0.6134189131959147 0.5785675064023295 0.5445198247878409
0.5113150654249097 0.4789911196991312 0.447584616514483 0.4171309626377493 0.38766437956928 0.3592179363715502 0.3318235779395877 0.3055121482481127
0.2803134081729439 0.256256047538983 0.23336769111466538 0.21167489833550945 0.19120315660558163 0.17197686809777224 0.15401933003384016 0.13735270850363435
0.12199800594206067 0.10797502245556956 0.09530231125183519 0.08399712849282537 0.07407537795027253 0.06555155090442355 0.05843866177855972 0.05274818005639759
0.048489959077208766 0.045672162344196465 0.04430118802236649 0.04438159233652783 0.04591601260509037 0.04890509067210047 0.05334739751284445 0.05923935980274564
0.06657518924392036 0.0753468154418897 0.08554382311817932 0.09715339443299342 0.11016025717292877 0.1245466395326531 0.1402922321907667 0.15737415834397694
0.17576695231885964 0.19544254734281452 0.21637027299212974 0.23851686279238749 0.26184647237686676 0.28632070855044134 0.31189866953855727 0.33853699663139736
0.3661899373598274 0.39480942026902 0.42434514127761247 0.45474466153522286 0.48595351661401764 0.5179153367947009 0.5505719781287937 0.5838636638869446
00000000: 6408 039f 6283 e7bf 6d53 810e b469 e8bf
00000010: 813a 4ffe a255 e9bf 70e8 f50d 2547 eabf
00000020: f93c 80cb 2c3e ebbf 6dc6 e993 a93a ecbf
00000030: a66d 2b74 873c edbf 3530 070b af43 eebf
00000040: a044 b56b 0550 efbf 040c cb00 b630 f0bf
00000050: e2a6 863a e0bb f0bf 2a6e d548 6e49 f1bf
00000060: 57f5 e316 4bd9 f1bf 64d8 de89 5f6b f2bf
00000070: 497f 6e76 92ff f2bf 71ae 2697 c895 f3bf
00000080: 3c6a fd83 e42d f4bf d2b4 dcaa c6c7 f4bf
00000090: 2a99 6249 4d63 f5bf 2bbf e267 5400 f6bf
000000a0: c98f bcd5 b59e f6bf 288e 1827 493e f7bf
000000b0: 1613 1fb4 e3de f7bf 251e ba99 5880 f8bf
000000c0: d93a f3bb 7822 f9bf 1fc5 fdc9 12c5 f9bf
000000d0: 75fb fc43 f367 fabf 5464 9482 e40a fbbf
000000e0: 72f2 4fc0 aead fbbf 1c3a f024 1850 fcbf
000000f0: ddc6 a5d2 e4f1 fcbf b840 45f5 d692 fdbf
00000100: 4aa2 7cd3 ae32 febf af38 10e2 2ad1 febf
00000110: 9970 24d9 076e ffbf eae8 cb65 8004 00c0
00000120: 1051 37a0 e750 00c0 cde3 27a7 159c 00c0
00000130: 244c 88dc e5e5 00c0 f787 a508 332e 01c0
00000140: 7f01 fc6a d774 01c0 193b 02cc acb9 01c0
00000150: 849e eb8f 8cfc 01c0 ded6 5cca 4f3d 02c0
00000160: ceeb 0953 cf7b 02c0 8a3e 35db e3b7 02c0
00000170: 2a50 0504 66f1 02c0 740e a675 2e28 03c0
00000180: 1e45 29f7 155c 03c0 779a 1887 f58c 03c0
00000190: 6860 aa74 a6ba 03c0 2a71 8979 02e5 03c0
000001a0: 4115 1fd4 e30b 04c0 6b09 4d62 252f 04c0
000001b0: 5c95 84bc a24e 04c0 6cbd 2651 386a 04c0
000001c0: 769d 1880 c381 04c0 b82e 76b6 2295 04c0
000001d0: acd4 4c8a 35a4 04c0 6c6d 46d6 dcae 04c0
000001e0: 5dd7 2cd5 fab4 04c0 486e 2d3d 73b6 04c0
000001f0: 8a5f c35a 2bb3 04c0 a069 2f2b 0aab 04c0
00000200: ef3e 6376 f89d 04c0 4a92 46e8 e08b 04c0
00000210: e4b7 3b29 b074 04c0 45cc c9f5 5458 04c0
00000220: a96d 5235 c036 04c0 dc4c b90f e50f 04c0
00000230: 983a e401 b9e3 03c0 62d2 faf0 33b2 03c0
00000240: e463 4d3c 507b 03c0 cc93 cbcd 0a3f 03c0
00000250: 4ae6 f328 63fd 02c0 ec60 2678 5bb6 02c0
00000260: ea8d 4598 f869 02c0 a042 9222 4218 02c0
00000270: 68f6 af74 42c1 01c0 3cc4 c0b6 0665 01c0
00000280: fcc4 89df 9e03 01c0 4812 92b6 1d9d 00c0
00000290: 646f 30d4 9831 00c0 58c7 fa3e 5182 ffbf
000002a0: b818 4394 d097 febf 288c f393 eba3 fdbf
000002b0: 18e9 19a1 e3a6 fcbf 386c a280 ffa0 fbbf
000002c0: 7811 813f 8b92 fabf 5816 7e14 d87b f9bf
000002d0: d0a4 ae3d 3c5d f8bf e0fb a6d9 1237 f7bf
000002e0: 7007 78bc bb09 f6bf 88f2 8e40 9bd5 f4bf
000002f0: 38ac 9113 1a9b f3bf e0ee 57ff a45a f2bf
00000300: f0b7 24af ac14 f1bf a013 91e2 4a93 efbf
00000310: c023 b2ea 0df4 ecbf 2055 5d0e 984c eabf
00000320: c04f b98d e49d e7bf 401f b9bb f3e8 e4bf
00000330: 40cb 5063 ca2e e2bf 004b 0d50 e2e0 debf
00000340: 00b9 ccc4 e75d d9bf c0ee c0f1 c1d6 d3bf
00000350: 803f 98d6 229b ccbf 0074 5568 f288 c1bf
00000360: 002e f704 ebec a9bf 002a d346 f226 a23f
00000370: 0094 34c0 5e03 bf3f 009c 1697 5f68 ca3f
00000380: 80bc deff cb9c d23f 400d 2d7c 97f8 d73f
00000390: 40df 0893 8445 dd3f 80c8 1707 c740 e13f
000003a0: 0069 fa3d 5cd5 e33f 40a5 91ba 895f e63f
000003b0: a0f8 0f6d 5dde e83f 6093 1203 ec50 eb3f
000003c0: c086 ba7b 51b6 ed3f a021 dbda d806 f03f
000003d0: e06b 5b7b 1c2b f13f e041 e935 8e47 f23f
000003e0: 501f 2f51 cd5b f33f d0bd 67fc 7d67 f43f
000003f0: d029 a083 496a f53f d096 9c7f de63 f63f
00000400: 9070 3601 f153 f73f 1002 0fb8 3a3a f83f
00000410: 7080 7714 7b16 f93f 5065 7464 77e8 f93f
00000420: 20e1 c7eb faaf fa3f 7068 f4f6 d66c fb3f
00000430: 807d 2ee9 e21e fc3f f05f 3a45 fcc5 fc3f
00000440: 4014 38b1 0662 fd3f f026 66f5 ebf2 fd3f
00000450: 100e e9f5 9b78 fe3f 50f1 aaa7 0cf3 fe3f
00000460: d0e9 6c00 3a62 ff3f 9081 28e2 25c6 ff3f
00000470: 6896 f200 6c0f 0040 8058 15e5 2e36 0040
00000480: 181f 9f1c 6557 0040 783d aedd 1a73 0040
00000490: 108f 9300 5f89 0040 285a 40e9 429a 0040
000004a0: c060 0a6f daa5 0040 18f3 e6c2 3bac 0040
000004b0: f83d 3f54 7fad 0040 f868 81b4 bfa9 0040
000004c0: 2025 9379 19a1 0040 2836 4b1f ab93 0040
000004d0: f02b 18e8 9481 0040 48f8 fabc f86a 0040
000004e0: 9846 fc0c fa4f 0040 f89a 43ac bd30 0040
000004f0: c8ee f6b2 690d 0040 2076 12b8 4acc ff3f
00000500: c05e 3bc8 3176 ff3f 9825 49d1 da18 ff3f
00000510: 8885 ab8e 99b4 fe3f d818 57fc c249 fe3f
00000520: a87d fe17 add8 fd3f b877 cea3 ae61 fd3f
00000530: 882c e9ea 1ee5 fc3f 30ba d887 5563 fc3f
00000540: 086f 2d2d aadc fb3f cc7a 7770 7451 fb3f
00000550: c363 c797 0bc2 fa3f e3e1 db69 c62e fa3f
00000560: 678f 1e01 fb97 f93f 8314 8ca1 fefd f83f
00000570: c003 9f91 2561 f83f 6879 4ff6 c2c1 f73f
00000580: d833 34b2 2820 f73f 7c8d cc47 a77c f63f
00000590: 3872 f5be 8dd7 f53f 583b 868d 2931 f53f
000005a0: a82b 0d83 c689 f43f 2048 9eb7 aee1 f33f
000005b0: 187a a27d 2a39 f33f 583f 9056 8090 f23f
000005c0: 80b7 72ea f4e7 f13f 309d 1f02 cb3f f13f
000005d0: 4006 f983 4398 f03f e0d9 27e6 3ae3 ef3f
000005e0: 40cc 32e1 2b98 ee3f 20cf 6a7e d04f ed3f
000005f0: 00a8 c690 9b0a ec3f a019 cd46 fcc8 ea3f
00000600: 405e 763b 5e8b e93f 40d5 9389 2952 e83f
00000610: 8072 51e1 c21d e73f 40b5 639f 8bee e53f
00000620: c0e6 73e5 e1c4 e43f 0094 5db3 20a1 e33f
00000630: 40d7 d000 a083 e23f 0099 efd6 b46c e13f
00000640: 8077 7e69 b15c e03f 00a9 8b5e caa7 de3f
00000650: 80d5 87f2 39a5 dc3f 8066 ab10 46b2 da3f
00000660: 80bf 0442 7ecf d83f 008e 363a 6dfd d63f
00000670: 00b4 d2f5 983c d53f 0068 50d3 828d d33f
00000680: 00eb 2ea6 a7f0 d13f 0042 e5c3 7f66 d03f
00000690: 00e8 a314 fede cd3f 0019 debe 2918 cb3f
000006a0: 00a8 4154 5879 c83f 0000 1388 5603 c63f
000006b0: 003d b9c8 e7b6 c33f 0023 8507 c694 c13f
000006c0: 00c8 b2e5 423b bf3f 0046 3b46 40a4 bb3f
000006d0: 0052 0f76 bb65 b83f 00a8 d5f7 d580 b53f
000006e0: 003a bc9d 9af6 b23f 002a 5687 fcc7 b03f
000006f0: 0064 521a aceb ad3f 0010 8838 cf01 ab3f
00000700: 008c d708 add3 a83f 003c 3677 5762 a73f
00000710: 00c4 7533 a5ae a63f 0074 421f 2fb9 a63f
00000720: 00d0 00b9 4d82 a73f 00d4 168a 160a a93f
00000730: 00ec 499f 5950 ab3f 0040 fa11 9f54 ae3f
00000740: 0014 8754 120b b13f 0040 2ecc ed49 b33f
00000750: 00da aa32 33e6 b53f 00fc c87b 0bdf b83f
00000760: 006e e06d 7633 bc3f 0094 9edf 49e2 bf3f
00000770: 0033 928a 18f5 c13f 0055 a91f d624 c43f
00000780: 00ab f60f 887f c63f 00cb 8aea 4204 c93f
00000790: 00f5 2967 05b2 cb3f 0071 9e76 b887 ce3f
000007a0: 809f dbb4 17c2 d03f 8011 d917 1453 d23f
000007b0: 8060 55d6 25f6 d33f 8025 4114 97aa d53f
000007c0: 806c 45eb a76f d73f 8052 0dbb 8e44 d93f
000007d0: 003f 0086 7828 db3f 80c2 545a 891a dd3f
000007e0: 00f0 4ec7 dc19 df3f 8029 342f c392 e03f
000007f0: c007 0520 499e e13f 00f3 b6d9 02af e23f
