data/geyser-waiting-bw10.0-basegamma-lambda-exp(-10.0)/natparam-value-shift-101.0.npy (npy, 16128 bytes, 1 tensors)

array f8 [2000]
-0.738583974995457 -0.7668605909416819 -0.7958281241645396 -0.8254817417820703 -0.855815146986463 -0.886820520061062 -0.9184884605386806 -0.9508079307440638
-0.9837662009705358 -1.0173487965488681 -1.051539447071576 -1.0863200380427853 -1.1216705652277588 -1.1575690919806088 -1.1939917098316069 -1.2309125026177299
-1.2683035144408066 -1.306134721737745 -1.3443740097461743 -1.3829871536456984 -1.4219378046520568 -1.4611874813357946 -1.500695566430461 -1.5404193093882386
-1.5803138349308063 -1.6203321578329821 -1.6604252041642429 -1.700541839199888 -1.7406289021977204 -1.7806312482201458 -1.8204917971631267 -1.8601515901336403
-1.899549853296314 -1.9386240692877879 -1.9773100562724046 -2.0155420546891616 -2.053252821711982 -2.0903737334183123 -2.1268348946328532 -2.1625652563815185
-2.1974927408629674 -2.2315443738099767 -2.2646464240832658 -2.2967245503066955 -2.327703954318079 -2.357509541178259 -2.386066085445501 -2.413298403388425
-2.439131530777889 -2.4634909058631598 -2.486302557104824 -2.507493295206175 -2.5269909089487577 -2.544724364311864 -2.560624006322055 -2.5746217630526997
-2.586651351164848 -2.5966484823574163 -2.604551070068691 -2.6102994357526974 -2.613836514031251 -2.615108056009424 -2.6140628300240465 -2.6106528190857707
-2.6048334142650607 -2.596563603266643 -2.585806153433763 -2.5725277884241207 -2.5566993578027266 -2.5382959988029206 -2.517297289517745 -2.493687392797919
-2.4674551901470103 -2.438594404929165 -2.407103714224915 -2.3729868487003056 -2.336252679885501 -2.2969152942916837 -2.2549940538357296 -2.210513642080026
-2.163504095840624 -2.1140008217642396 -2.062044597523192 -2.0076815573300664 -1.950963161530936 -1.8919461500900674 -1.8306924798413409 -1.7672692454403158
-1.7017485840157285 -1.6342075635809135 -1.5647280553330916 -1.493396590031848 -1.4203041987151561 -1.3455462380784322 -1.2692222009058405 -1.1914355120103792
-1.1122933102020838 -1.0319062168685313 -0.9503880918131351 -0.8678557770531405 -0.7844288293439696 -0.7002292422431253 -0.615381158585496 -0.5300105742868375
-0.44424503444026087 -0.358213322710462 -0.2720451450683825 -0.18587080894392827 -0.09982089890157653 -0.014025949967390261 0.07138388024097253 0.15627913942140026
0.2405314073560909 0.32401362036905823 0.40660039229544154 0.4881683307976381 0.5685963478720986 0.6477659634109401 0.7255616007062287 0.8018708728114738
0.8765848587119471 0.9495983682922464 1.0208101951368853 1.090123356245325 1.1574453178001924 1.2226882061832356 1.285769003497407 1.346609726918384
1.4051375912704458 1.4612851542912324 1.5149904441296513 1.5661970686948727 1.6148543065586516 1.6609171791903705 1.704346504390852 1.745108930872533
1.783176954016671 1.8185289129239912 1.8511489689558793 1.8810270660470287 1.908158873148281 1.9325457092403227 1.9541944514310785 1.9731174267248228
1.9893322881210231 2.002861875766108 2.013734063943815 2.02198159474867 2.027641899338118 2.030756907710213 2.0313728479927953 2.0295400362710936
2.025312658009824 2.0187485421533538 2.0099089290062473 1.9988582330110383 1.9856638015458365 1.9703956708690313 1.9531263203290408 1.9339304259498142
1.9128846144829321 1.890067218995327 1.8655580370326579 1.8394380923626965 1.8117894012646154 1.782694744283745 1.752237444322656 1.7205011518834592
1.6875696382196468 1.653526597091877 1.6184554557569375 1.5824391957521422 1.5455601839628148 1.5079000143919392 1.4695393609725849 1.430557841690561
1.391033894207232 1.3510446630967285 1.3106658987354702 1.2699718678074596 1.2290352753145157 1.1879271979088095 1.146717028296404 1.1054724303930037
1.064259304850264 1.0231417645089138 0.9821821192826974 0.9414408699215677 0.9009767100580639 0.860846535897533 0.8211054628749324 0.7818068485722769
0.7430023211611463 0.7047418126168346 0.6670735959345748 0.6300443255723351 0.5936990803369966 0.558081407940314 0.5232333704542143 0.489195589913642
0.4560072933339896 0.42370635643587207 0.3923293454020609 0.3619115560259445 0.33248704965358655 0.30408868536399325 0.27674814788483815 0.2504959707886698
0.22536155457772367 0.20137317931654763 0.17855801153981332 0.15694210522107 0.1365503966559558 0.11740669317899943 0.09953365569583639 0.08295277508577215
0.06768434258815859 0.053747414356067225 0.04115977042233254 0.02993786838501933 0.020096792177199063 0.011650196346181474 0.004610246315351674 -0.0010124448447896839
-0.005208882564573969 -0.007971759230279929 -0.009295524298977398 -0.009176455388796967 -0.007612729640712246 -0.004604494620473076 -0.00015393801896834702 0.005734644604672212
0.013054784795087926 0.021797779645226 0.03195263446041707 0.043506010379175564 0.05644217766802484 0.07074297537997865 0.08638777804023334 0.10335346998483885
0.12161442793515675 0.14114251235340447 0.16190706806265354 0.18387493457323956 0.2070104664890593 0.23127556431193597 0.2566297158956985 0.2830300487352204
0.31043139320435387 0.3387863567886811 0.3680454092852017 0.398156978867938 0.4290675588455528 0.4607218248661411 0.49306276224754697 0.526031803046429
00000000: c090 3edc 7aa2 e7bf baf1 d538 1f8a e8bf
00000010: 5bc2 d08a 6c77 e9bf 80c5 8caf 586a eabf
00000020: 2a4e 7772 d662 ebbf e9af 626d d560 ecbf
00000030: 6d8b 78e9 4164 edbf 8c57 eac0 046d eebf
00000040: 0384 8241 037b efbf 69d6 1c88 0f47 f0bf
00000050: 7f05 fa06 1bd3 f0bf bf21 c61e 9161 f1bf
00000060: fc9f a8d5 5cf2 f1bf 91ac 0e2b 6785 f2bf
00000070: febf 160d 971a f3bf cdb0 ef4e d1b1 f3bf
00000080: 53cd 3ea0 f84a f4bf ef89 a085 ede5 f4bf
00000090: 3a3c 5752 8e82 f5bf 7624 3b23 b720 f6bf
000000a0: 70d3 feda 41c0 f6bf ee96 da1f 0661 f7bf
000000b0: ec22 b15a d902 f8bf b430 bfb7 8ea5 f8bf
000000c0: 431b e728 f748 f9bf dacb a869 e1ec f9bf
000000d0: c86e d504 1a91 fabf ca7d 0d5c 6b35 fbbf
000000e0: e195 16b1 9dd9 fbbf 7e75 1531 777d fcbf
000000f0: f63a b701 bc20 fdbf 429f 5350 2ec3 fdbf
00000100: e077 1063 8e64 febf 9445 0dac 9a04 ffbf
00000110: d0de 9bde 0fa3 ffbf 1cd2 4483 d41f 00c0
00000120: a761 bdd0 0f6d 00c0 b497 2bdd 15b9 00c0
00000130: 8784 6303 c203 01c0 eefe 5c03 ef4c 01c0
00000140: 7ba1 f912 7794 01c0 75b1 c8ef 33da 01c0
00000150: 1d87 c3f1 fe1d 02c0 88e6 fb1e b15f 02c0
00000160: 3987 3440 239f 02c0 def2 5af6 2ddc 02c0
00000170: 54aa d8d0 a916 03c0 a256 b064 6f4e 03c0
00000180: e8aa 5a64 5783 03c0 ce67 55b8 3ab5 03c0
00000190: a6cf 5598 f2e3 03c0 61cc 0ea5 580f 04c0
000001a0: 38cb 7902 4737 04c0 476e 9072 985b 04c0
000001b0: b90b 6470 287c 04c0 b60c 7f4b d398 04c0
000001c0: 0442 7b43 76b1 04c0 1077 b7a3 efc5 04c0
000001d0: 98a7 15df 1ed6 04c0 c899 aaab e4e1 04c0
000001e0: c5d6 461e 23e9 04c0 6c88 c0c5 bdeb 04c0
000001f0: d023 e5c5 99e9 04c0 fe77 f9f1 9de2 04c0
00000200: 245f aee6 b2d6 04c0 fb1c 7023 c3c5 04c0
00000210: 3b59 f622 bbaf 04c0 96a9 fa72 8994 04c0
00000220: 3dbc fbca 1e74 04c0 db68 f321 6e4e 04c0
00000230: 264e e6c2 6c23 04c0 d61d 3460 12f3 03c0
00000240: 0837 9025 59bd 03c0 e608 8bc8 3d82 03c0
00000250: bc68 9597 bf41 03c0 1c0c 6887 e0fb 02c0
00000260: 9867 ba3e a5b0 02c0 ea51 3520 1560 02c0
00000270: fe30 8f52 3a0a 02c0 b6c3 c0c6 21af 01c0
00000280: 242e 433c db4e 01c0 688e 4943 79e9 00c0
00000290: 740b ea3c 117f 00c0 b01e 2c59 bb0f 00c0
000002a0: 409e e725 2537 ffbf 10e1 8653 6945 febf
000002b0: 283a 9f32 844a fdbf b848 c61d bc46 fcbf
000002c0: 30ca 25b9 5c3a fbbf 384b 87d4 b625 fabf
000002d0: 00a1 0c49 2009 f9bf b850 a2d2 f3e4 f7bf
000002e0: 38a6 3de5 90b9 f6bf d8d7 fc7d 5b87 f5bf
000002f0: b0f6 43f0 bb4e f4bf a00a f6ae 1e10 f3bf
00000300: 600a ee11 f4cb f1bf b0d4 df17 b082 f0bf
00000310: 600c 9b49 9469 eebf 20d0 827a 79c5 ebbf
00000320: 204d 027d 0a1a e9bf 0063 e427 4768 e6bf
00000330: a060 d6d3 33b1 e3bf a013 63bc d8f5 e0bf
00000340: 4034 95b9 826e dcbf 801b 8292 f7ec d6bf
00000350: 80ac 460a 3069 d1bf 80fd d85a 9dca c7bf
00000360: 0056 3dc8 dc8d b9bf 0000 3e23 a3b9 8cbf
00000370: 00b8 18c7 3646 b23f 0054 6e70 f400 c43f
00000380: 80ac 20b0 bbc9 ce3f 0065 bc9f a3bc d43f
00000390: c0c7 dca6 bd05 da3f 4000 ee61 263e df3f
000003a0: e08a d7f7 f031 e23f 40fb 89af 7fba e43f
000003b0: 8088 48f6 cc37 e73f 60e3 ca1a eda8 e93f
000003c0: 60c5 8ab0 fb0c ec3f 20ce 041e 1c63 ee3f
000003d0: b094 3812 3d55 f03f f0de 3a30 2571 f13f
000003e0: 30c3 ad61 e584 f23f c030 2c82 2190 f33f
000003f0: c0b5 c384 8292 f43f 7070 19a4 b68b f53f
00000400: 4030 0e8e 717b f63f 80fa bc8a 6c61 f73f
00000410: 40a1 b49e 663d f83f 302b 52a8 240f f93f
00000420: 3096 2778 71d6 f93f a0cb 5fe4 1d93 fa3f
00000430: f091 16d7 0045 fb3f 80e1 a057 f7eb fb3f
00000440: 50b8 c78e e487 fc3f 706c fdc5 b118 fd3f
00000450: b008 9b61 4e9e fd3f 5001 39d6 af18 fe3f
00000460: c0e7 3b99 d187 fe3f a065 b30c b5eb fe3f
00000470: 00bd ae66 6144 ff3f 7036 2f94 e391 ff3f
00000480: d0b4 e517 4ed4 ff3f b090 7672 dc05 0040
00000490: c0d6 db9a 201c 0040 c879 b4af 042d 0040
000004a0: 9840 ed50 9c38 0040 80ee 457a fd3e 0040
000004b0: 38e4 6068 4040 0040 f0a7 8d7c 7f3c 0040
000004c0: c09d 721f d733 0040 b02b bba2 6526 0040
000004d0: 6829 f021 4b14 0040 d0f6 41c5 52fb ff3f
000004e0: b0d8 0768 47c5 ff3f e0ff 689c bd86 ff3f
000004f0: 2052 6c62 0140 ff3f d019 c307 61f1 fe3f
00000500: b89c c3e5 2c9b fe3f c039 cd1f b73d fe3f
00000510: 0886 5d62 53d9 fd3f 386e 1ba3 566e fd3f
00000520: 30bc 1ae2 16fd fc3f 4032 97ec ea85 fc3f
00000530: 3014 6321 2a09 fc3f d81d 4137 2c87 fb3f
00000540: d403 5e05 4900 fb3f 6636 194e d874 fa3f
00000550: 2224 488c 31e5 f93f b79f 1ac3 ab51 f93f
00000560: a8eb c150 9dba f83f 8f38 f7c3 5b20 f83f
00000570: eafd 78b4 3b83 f73f 908e 919e 90e3 f63f
00000580: 1cf6 b3c1 ac41 f63f fcf8 3602 e19d f53f
00000590: 18d2 30ce 7cf8 f43f 502b 7105 ce51 f43f
000005a0: 00b3 91e4 20aa f33f 90c1 10f3 bf01 f33f
000005b0: 30ca 64f4 f358 f23f 70ae f2db 03b0 f13f
000005c0: b0ba ccc3 3407 f13f e0cc 1be6 c95e f03f
000005d0: 0020 2132 096e ef3f 20ca 6d9a 4820 ee3f
000005e0: a006 051c cdd4 ec3f e0c0 d108 0e8c eb3f
000005f0: 40ac b3f6 7e46 ea3f 2004 cdcb 8f04 e93f
00000600: a0a7 c7cd acc6 e73f a004 aab3 3e8d e63f
00000610: 400d d2b9 aa58 e53f 40a2 abb7 5229 e43f
00000620: 40ce b636 95ff e23f 407f 738a cddb e13f
00000630: c0da c8e8 53be e03f 80b2 0105 fb4e df3f
00000640: 80d8 e636 392f dd3f 00f6 ff43 011e db3f
00000650: 00d4 f08a ec1b d93f 0042 4b16 8f29 d73f
00000660: 80c3 26c3 7747 d53f 0035 ae63 3076 d33f
00000670: 8036 19dd 3db6 d13f 804b 9440 2008 d03f
00000680: 00f1 57bd a5d8 cc3f 0062 baa9 98c6 c93f
00000690: 004b 002a fdda c63f 001b a5cc ad16 c43f
000006a0: 0053 f2bf 7b7a c13f 000a 8973 5d0e be3f
000006b0: 00a0 10a4 097b b93f 0018 1ba0 643c b53f
000006c0: 000e ded5 c253 b13f 00c8 cef5 c784 ab3f
000006d0: 00e4 bfb7 e412 a53f 00a0 8056 08a8 9e3f
000006e0: 0050 9fe4 4094 943f 0000 64e2 0edc 873f
000006f0: 0040 6a92 31e2 723f 0000 d55f 8096 50bf
00000700: 0080 37c4 e855 75bf 0030 7c69 7f53 80bf
00000710: 0000 e826 8809 83bf 0000 4efe 1acb 82bf
00000720: 0040 718d 862e 7fbf 00e0 f39c 29dc 72bf
00000730: 0000 a083 4d2d 24bf 0000 80f0 357d 773f
00000740: 0080 028e 77bc 8a3f 0080 ce3a 2852 963f
00000750: 009c 0e80 185c a03f 0018 8477 6b46 a63f
00000760: 00fc 6536 fde5 ac3f 00c2 ad2d 361c b23f
00000770: 00f8 7469 821d b63f 0054 837d 5f75 ba3f
00000780: 0008 b486 1f22 bf3f 000b 5135 f510 c23f
00000790: 0001 29ed 5eb9 c43f 00ea 45bf 3689 c73f
000007a0: 0007 c0a7 517f ca3f 00b7 8a0c 709a cd3f
000007b0: 000b 3d0b 9f6c d03f 8098 c610 2a1d d23f
000007c0: 00b9 5da2 1bde d33f 8041 aff8 acae d53f
000007d0: 00aa 1455 0e8e d73f 805d ba68 677b d93f
000007e0: 8009 41c7 d775 db3f 00a0 9664 777c dd3f
000007f0: 00a2 ae1d 578e df3f c0b0 d7a5 40d5 e03f
