data/geyser-waiting-bw10.0-basegamma-lambda-exp(-10.0)/natparam-value-shift-360.0.npy (npy, 16128 bytes, 1 tensors)

array f8 [2000]
00000000: 73a1 d5a5 0942 e7bf 82f8 83ce a225 e8bf
00000010: d890 e44d c30e e9bf 9002 6565 60fd e9bf
00000020: 51db 8747 6cf1 eabf 5ab9 8df8 d5ea ebbf
00000030: 7bc9 bc2f 89e9 ecbf 62e7 6739 6eed edbf
00000040: 3c9a d7d9 69f6 eebf 181f 9c98 2e02 f0bf
00000050: 73af 58d0 928b f0bf 6e9d 6558 4e17 f1bf
00000060: 18f7 a3fc 4ba5 f1bf 1430 4b85 7435 f2bf
00000070: 58b7 82ac aec7 f2bf 2c12 ef14 df5b f3bf
00000080: 48ec 4541 e8f1 f3bf 5890 fc8c aa89 f4bf
00000090: 1a25 2426 0423 f5bf 76d5 8608 d1bd f5bf
000000a0: 96d4 18fa ea59 f6bf 6ccb cf88 29f7 f6bf
000000b0: 60c8 f209 6295 f7bf a84b f49a 6734 f8bf
000000c0: 475a e723 0bd4 f8bf 3ccb 9f5b 1b74 f9bf
000000d0: f227 8dcd 6414 fabf 168f 5ee1 b1b4 fabf
000000e0: 72f0 7ce4 ca54 fbbf 92de 6715 76f4 fbbf
000000f0: 17f1 ffb0 7793 fcbf 0454 c801 9231 fdbf
00000100: 52b0 2771 85ce fdbf c716 af9a 106a febf
00000110: f8dc 6b61 f003 ffbf b4be 4707 e09b ffbf
00000120: 5556 3ca3 cc18 00c0 7ee9 7f36 6a62 00c0
00000130: 95bb 1a3d a4aa 00c0 418e 2e9f 55f1 00c0
00000140: eabc 1dbe 5836 01c0 3ab0 5286 8779 01c0
00000150: 8557 fe81 bbba 01c0 eb0b c7ec cdf9 01c0
00000160: de12 60c8 9736 02c0 e8dd 00f2 f170 02c0
00000170: 0ff0 b138 b5a8 02c0 b425 6474 badd 02c0
00000180: 5afe c59d da0f 03c0 4452 c9e6 ee3e 03c0
00000190: d4be cad3 d06a 03c0 7406 4b55 5a93 03c0
000001a0: 7765 29e2 65b8 03c0 92f9 4c92 ced9 03c0
000001b0: a432 aa39 70f7 03c0 8b5f 9083 2711 04c0
000001c0: a96d 2a0e d226 04c0 ae25 1d86 4e38 04c0
000001d0: 804d 2cc2 7c45 04c0 2475 cfde 3d4e 04c0
000001e0: 006e 9e59 7452 04c0 ebf9 7c2c 0452 04c0
000001f0: 72a0 6ce8 d24c 04c0 144b ebcf c742 04c0
00000200: b9f0 c4f0 cb33 04c0 7c64 3e3d ca1f 04c0
00000210: 5844 7fa4 af06 04c0 9506 212a 6be8 03c0
00000220: 8946 c9fc edc4 03c0 45a3 b58b 2b9c 03c0
00000230: dee9 1f9b 196e 03c0 1cba 6157 b03a 03c0
00000240: ba5c bf66 ea01 03c0 0451 c2f9 c4c3 02c0
00000250: 6ed9 0cda 3f80 02c0 a8c5 9077 5d37 02c0
00000260: 2ed4 14f4 22e9 01c0 fc20 f52c 9895 01c0
00000270: d27d 0cc3 c73c 01c0 eadf b520 bfde 00c0
00000280: eca1 d67d 8e7b 00c0 60f8 e3e1 4813 00c0
00000290: 5050 af47 084c ffbf 80ab 13d0 b167 febf
000002a0: b889 cf37 c579 fdbf d067 02df 7e82 fcbf
000002b0: 784e d099 2082 fbbf f8fb c19a f178 fabf
000002c0: 28c2 c558 3e67 f9bf 2882 d570 584d f8bf
000002d0: b8c7 4a83 962b f7bf b86f ee0c 5402 f6bf
000002e0: 40cf d53b f1d1 f4bf e000 24c0 d29a f3bf
000002f0: 204d ca98 615d f2bf 1056 67dc 0a1a f1bf
00000300: c0d6 d1fc 7ea2 efbf 60e0 3121 e806 edbf
00000310: 00db 8302 4162 eabf e08e 37ac 7fb5 e7bf
00000320: c007 6bc8 9f01 e5bf 6084 280a a247 e2bf
00000330: 8027 0e25 1711 dfbf 00a2 58a2 ca8a d9bf
00000340: 80a5 68c1 76fe d3bf 804b 297e 71dc ccbf
00000350: 0038 0717 63b8 c1bf 001e 4a88 2354 aabf
00000360: 00ee 1945 5225 a23f 00bd 7cee da3c bf3f
00000370: 80af 8a88 fda5 ca3f c0e0 8861 e3cd d23f
00000380: c014 fe13 ca3d d83f 4022 4e3a 9ea0 dd3f
00000390: c0d3 e834 297a e13f 80ac 08e1 701b e43f
000003a0: 8047 f79c 28b3 e63f 007a 9d72 5840 e93f
000003b0: e0b7 c698 0ec2 eb3f 20c5 940c 6037 ee3f
000003c0: a040 b692 b44f f03f c04f 6811 a77c f13f
000003d0: 70ed d2d9 1da2 f23f b022 31bb b3bf f33f
000003e0: c0c2 d838 08d5 f43f 90a6 8fc2 bfe1 f53f
000003f0: 5023 b1e8 83e5 f63f 205d f58b 03e0 f73f
00000400: 10eb b008 f3d0 f83f 803a 685d 0cb8 f93f
00000410: f07b 974c 0f95 fa3f 800f 9579 c167 fb3f
00000420: 9032 7a80 ee2f fc3f 2003 0309 68ed fc3f
00000430: 50e7 5cd4 05a0 fd3f 9012 e0c5 a547 fe3f
00000440: 2090 b6e6 2be4 fe3f f031 7964 8275 ff3f
00000450: c04c d08a 99fb ff3f 80fd 15dc 333b 0040
00000460: b07c d6a6 f472 0040 e06d 2e4d 10a5 0040
00000470: 00aa ece0 8ad1 0040 18bb 4d4f 6bf8 0040
00000480: 485b 0450 bb19 0140 20f4 3f52 8735 0140
00000490: 1062 cc67 de4b 0140 984f 682e d25c 0140
000004a0: 903b 71b7 7668 0140 f801 066e e26e 0140
000004b0: 301b c2fb 2d70 0140 b02d 352c 746c 0140
000004c0: 0091 3bcf d163 0140 d84f 5d9a 6556 0140
000004d0: b0e5 5909 5044 0140 9866 073e b32d 0140
000004e0: 1001 acdf b212 0140 e4e5 f8f9 73f3 0040
000004f0: 1858 cddb 1cd0 0040 b05f e8f5 d4a8 0040
00000500: a0ed aeb9 c47d 0040 8c7b 2b78 154f 0040
00000510: 042e 6b41 f11c 0040 9890 b688 05cf ff3f
00000520: 70ca 905e ea5d ff3f a0a0 3e22 e8e6 fe3f
00000530: 9050 1b77 566a fe3f c805 3d4c 8de8 fd3f
00000540: 26a5 daa4 e461 fd3f 4e2e 0e63 b4d6 fc3f
00000550: a03b 1f15 5447 fc3f fb82 7cc5 1ab4 fb3f
00000560: 380b 86cd 5e1d fb3f 1c01 45ab 7583 fa3f
00000570: b0a7 28da b3e6 f93f f8c1 daae 6c47 f93f
00000580: 5c73 3836 f2a5 f83f d44d 7717 9502 f83f
00000590: d0ef 7879 a45d f73f c06a 4aeb 6db7 f63f
000005a0: 7075 c74f 3d10 f63f d86f 54cc 5c68 f53f
000005b0: 3870 9dba 14c0 f43f 18db 439d ab17 f43f
000005c0: 50a4 5f17 666f f33f 50fb b4e6 86c7 f23f
000005d0: f080 7be0 4e20 f23f 5039 90f0 fc79 f13f
000005e0: 7054 e81a ced4 f03f 30d6 177f fd30 f03f
000005f0: 20f7 78bb 881d ef3f 207a 363f b4dc ed3f
00000600: 4043 79bc e89f ec3f c0d4 a5db 8d67 eb3f
00000610: 00b0 67d0 0734 ea3f 80e4 5e71 b705 e93f
00000620: c03b 1951 fadc e73f 80d4 e9d7 2aba e63f
00000630: 8070 325e a09d e53f c052 b446 af87 e43f
00000640: 80e5 8018 a978 e33f 4030 2698 dc70 e23f
00000650: 4055 b7df 9570 e13f c049 5675 1e78 e03f
00000660: 8051 d3bf 7a0f df3f 8087 5f73 6e3f dd3f
00000670: 00f2 cd80 9c80 db3f 80e6 94c5 84d3 d93f
00000680: 00cd 5596 a238 d83f 0073 e4cd 6cb0 d63f
00000690: 801d d5d5 553b d53f 8077 52a8 cbd9 d33f
000006a0: 809e 0fcb 378c d23f 002a 3d43 ff52 d13f
000006b0: 003c 7982 822e d03f 00fd 8f99 3a3e ce3f
000006c0: 0059 632f 4d4a cc3f 00ea 6fc5 e081 ca3f
000006d0: 003b ca12 8fe5 c83f 006b 931e e775 c73f
000006e0: 005a 9bcc 6c33 c63f 00e4 955f 981e c53f
000006f0: 002c ebf1 d537 c43f 00bd 49e6 847f c33f
00000700: 001d 3b51 f7f5 c23f 00cc 125d 719b c23f
00000710: 0065 a5a9 2870 c23f 0019 49a9 4374 c23f
00000720: 007e affc d8a7 c23f 00b2 36cf ee0a c33f
00000730: 00f6 5735 7a9d c33f 006a e28e 5e5f c43f
00000740: 00e6 b2ee 6c50 c53f 0088 9a89 6370 c63f
00000750: 0033 212e edbe c73f 0080 ccc6 a03b c93f
00000760: 0049 89e8 00e6 ca3f 001b c86e 7bbd cc3f
00000770: 0057 ce26 69c1 ce3f 8018 d5c5 8678 d03f
00000780: 001c 104a cba5 d13f 0038 ea49 0ee8 d23f
00000790: 00fa 6718 d13e d43f 800b 3637 8aa9 d53f
000007a0: 00bc 4367 a527 d73f 80dd e4c4 83b8 d83f
000007b0: 0052 cbef 7b5b da3f 0080 153f da0f dc3f
000007c0: 807a 9b01 e1d4 dd3f 805b 91ca c8a9 df3f
000007d0: 4018 4065 e0c6 e03f c064 419a f7bf e13f
000007e0: 803b cfd7 b8bf e23f 40db fde9 aec5 e33f
000007f0: c093 d6d9 60d1 e43f c0f2 4f37 52e2 e53f
-0.7268112410502411 -0.7545942338472431 -0.7830521127075611 -0.8121797542917921 -0.8419705769618792 -0.8724164824068723 -0.9035077984211023 -0.9352332230766758
-0.9675797705393232 -1.0005327187845463 -1.034075559476119 -1.0681899502759182 -1.1028556698578935 -1.1380505759034394 -1.1737505663581569 -1.2099295442323053
-1.2465593862277888 -1.2836099154747185 -1.321048878659275 -1.3588419278215418 -1.3969526070989438 -1.435342344685263 -1.473970450268574 -1.5127941182042637
-1.551768436669265 -1.5908464030332672 -1.6299789456702425 -1.6691149524203346 -1.7082013058962073 -1.7471829258119311 -1.7860028184941876 -1.8246021337156444
-1.862920228969433 -1.9008947412816484 -1.938461666633712 -1.9755554470429333 -2.0121090653217757 -2.048054147509162 -2.083321072939223 -2.1178390918810526
-2.151536450655489 -2.1843405240997784 -2.2161779552215557 -2.2469748018497646 -2.2766566900557867 -2.30514897408624 -2.332376902513722 -2.3582657902777218
-2.382741196255478 -2.405729105967369 -2.4271561189887993 -2.446949640609825 -2.4650380772479212 -2.4813510350933905 -2.4958195214333774 -2.5083761480745514
-2.5189553362558468 -2.527493522419454 -2.533929364182484 -2.5382039458333043 -2.54026098265399 -2.540047023357365 -2.5375116499090433 -2.532607673996049
-2.525291329393522 -2.5155224594751058 -2.5032646991099163 -2.4884856501892707 -2.471157050030176 -2.451254931908269 -2.428759776984619 -2.4036566569041167
-2.3759353663586724 -2.3455905449319534 -2.312621787564402 -2.277033743005365 -2.23883619965138 -2.198044158201922 -2.154677890604696 -2.1087629848006957
-2.060330374825062 -2.0094163558670033 -1.9560625839412928 -1.900316059875621 -1.8422290973763733 -1.7818592749886086 -1.7192693718287995 -1.6545272870278023
-1.5877059428859273 -1.5188831718043136 -1.4481415871236845 -1.375568438065768 -1.3012554490387203 -1.2252986436361013 -1.1477981537216877 -1.068858014060769
-0.9885859430202899 -0.9070931099258921 -0.8244938897249483 -0.7409056056607959 -0.6564482607284319 -0.571244258728381 -0.48541811579399763 -0.3990961633121799
-0.3124062432057926 -0.22547739658565646 -0.13843954681800597 -0.05142317808809693 0.035440989432540704 0.12202232668345303 0.20819062392308396 0.2938164188849548
0.3787713237036989 0.46292834943645644 0.5461622270000746 0.6283497233574877 0.7093699517956651 0.7891046751572617 0.8674386009131432 0.9442596669888736
1.0194593172964588 1.0929327659587074 1.1645792492625695 1.2343022644219381 1.302009794290072 1.3676145172161434 1.4310340013054947 1.4921908824088135
1.551013025235708 1.6074336670605192 1.661391543566193 1.712830996447309 1.7617020624776707 1.8079605438253523 1.85156805948505 1.89249207778008
1.9307059299690152 1.966188805078783 1.9989257261666324 2.028907508298005 2.0561306986051804 2.0805974988740985 2.1023156711792126 2.121298427161843
2.1375643016175765 2.1511370111243338 2.1620452985046157 2.170322763975445 2.1760076838904254 2.179142818029728 2.1797752064334404 2.1779559568146496
2.173740023618052 2.1671859798170594 2.1583557825622037 2.147314533806661 2.1341302370420934 2.1188735512812276 2.10161754341517 2.0824374400653696
2.061410380030523 2.038615168406471 2.014132033427588 1.9880423870427304 1.9604285901993102 1.9313737237626256 1.9009613659482376 1.8692753770886714
1.8363996924984547 1.8024181241370516 1.767414171703173 1.7314708437262982 1.6946704891458477 1.6570946397988058 1.6188238641575303 1.5799376325850272
1.540514194296711 1.5006304661409233 1.4603619332328783 1.4197825614016182 1.378964721333741 1.3379791242250487 1.2968947686813532 1.2557788985411147
1.2146969712287223 1.1737126361837973 1.1328877228589214 1.0922822377211396 1.0519543696475715 1.0119605030607879 0.9723552381107972 0.9331914171814937
0.8945201569677934 0.856390885352674 0.8188513822947243 0.7819478239317874 0.745724829097405 0.7102255074556894 0.6754915084634519 0.6415630703873703
0.6084790686210653 0.5762770625747251 0.5449933404403637 0.514662961172057 0.48531979306178386 0.4569965483370808 0.4297248132568541 0.40353507323343507
0.37845673257034207 0.3545181284587642 0.33174653894499073 0.3101681846400126 0.28980822401215534 0.27069074217129696 0.252838733115766 0.23627407549063406
0.22101750196333825 0.20708856239782847 0.194505581068789 0.18328560822450157 0.17344436636513194 0.16499619166623347 0.1579539710276947 0.15232907528432094
0.14813128916123475 0.14536873859978527 0.14404781611919049 0.14417310491462132 0.1457473024192808 0.14877114408353975 0.15324332813899844 0.15916044213084035
0.16651689200607223 0.1753048345463526 0.18551411392618178 0.19713220316862134 0.2101441512518889 0.22453253659497108 0.24027742762398674 0.25735635108538446
0.2757442687292837 0.2954135629487382 0.31633403190053855 0.3384728945895219 0.36179480633194316 0.3862618849556938 0.4118337480297498 0.4384675613455329
0.46611809880224797 0.4947378137780376 0.5242769219919481 0.5546834957887299 0.5859035697011308 0.6178812570713959 0.6505588774349391 0.6838770942991559
