data/geyser-waiting-bw10.0-basegamma-lambda-exp(-10.0)/natparam-value-shift-103.0.npy (npy, 16128 bytes, 1 tensors)

array f8 [2000]
-0.7407839300458565 -0.7691500094775813 -0.798209720338422 -0.8279582667799841 -0.8583893873743094 -0.8894952960224939 -0.9212666240047407 -0.9536923634149566
-0.986759812230348 -1.0204545212742249 -1.0547602433356555 -1.0896588847164166 -1.125130459479643 -1.161153046679081 -1.197702750850702 -1.2347536660506466
-1.2722778437242397 -1.3102452646909004 -1.3486238155286339 -1.387379269638662 -1.4264752732678174 -1.465873336760652 -1.5055328313066094 -1.5454109914404945
-1.5854629235443416 -1.6256416205885558 -1.6658979833376417 -1.706180848232659 -1.7464370221464431 -1.7866113241917756 -1.8266466347441233 -1.866483951820808
-1.906062454937432 -1.9453195765402644 -1.9841910810883039 -2.0226111518349748 -2.0605124853317243 -2.0978263936483557 -2.134482914277057 -2.170410927655116
-2.2055382822135785 -2.2397919268240747 -2.2730980504862335 -2.3053822290644153 -2.3365695788478904 -2.3665849166767345 -2.395352926340348 -2.422798330921384
-2.4488460707252635 -2.4734214864001403 -2.4964505068193947 -2.5178598412679696 -2.5375771754377205 -2.555531370711049 -2.5716526661784527 -2.5858728828093174
-2.59812562916675 -2.608346508033918 -2.616473323293016 -2.622446286380147 -2.6262082216159515 -2.627704769699349 -2.6268845886330974 -2.623699551341147
-2.6181049392277256 -2.610059630921519 -2.599526285446095 -2.586471519057659 -2.5708660749946994 -2.5526849853901723 -2.531907724607999 -2.5085183532793227
-2.482505652328877 -2.4538632463059242 -2.42258971535536 -2.3886886951934097 -2.3521689644838206 -2.3130445190431246 -2.2713346323441064 -2.227063901824595
-2.1802622805548104 -2.130965093863237 -2.079213040570705 -2.025052178533862 -1.9685338942573818 -1.9097148563877404 -1.8486569529641557 -1.785427212360716
-1.7200977079190682 -1.652745446332343 -1.5834522399087625 -1.5123045629069622 -1.439393392201735 -1.3648140326064517 -1.2886659272420626 -1.2110524534099731
-1.1320807044889172 -1.0518612584407556 -0.970507933571902 -0.8881375322526424 -0.8048695733626587 -0.7208260142761347 -0.636130963260058 -0.550910383202897
-0.46529178763980283 -0.37940393007987794 -0.2933764876793994 -0.20733974033949565 -0.1214242463337456 -0.03576051559592841 0.049521318180705265 0.1342918254709211
0.2184226076961302 0.30178662168047765 0.38425850060649935 0.4657148703051064 0.5460346597233574 0.6250994044333673 0.7027935420704665 0.7790046986145995
0.8536239644668129 0.9265461593087494 0.9976700847821611 1.0668987640688385 1.1341396675113664 1.1993049234688549 1.26231151366731 1.3230814523686547
1.3815419487540552 1.437625551987363 1.4912702785041034 1.5424197211453503 1.5910231398400008 1.6370355336164941 1.680417693811922 1.721136238427441
1.7591636276629856 1.7944781607494846 1.8270639542774774 1.856910902305689 1.8840146186099531 1.9083763615155327 1.9300029418279152 1.94890661445244
1.965104954362733 1.9786207176437074 1.989481688396566 1.9977205123529558 2.0033745180954554 2.006485526833565 2.0070996517229247 2.0052670877563266
2.001041893284583 1.9944817642519403 1.9856478022497548 1.9746042775066925 1.9614183879386289 1.9461600153862673 1.9289014801592081 1.9097172949970886
1.8886839195388063 1.8658795163684854 1.8413837096776273 1.8152773475471857 1.7876422688139328 1.7585610754396397 1.7281169112518961 1.696393247869592
1.663473678568967 1.629441720781962 1.5943806278532924 1.558373210614997 1.521501669262937 1.4838474359502187 1.4454910284343123 1.4065119150408512
1.3669883911296825 1.3269974671725198 1.2866147684752303 1.2459144465031873 1.2049691016935729 1.163849717566558 1.1226256058788664 1.0813643624951546
1.0401318335903298 0.9989920917333919 0.9580074213514251 0.917238313016874 0.8767434659566185 0.836579798138775 0.7968024632546609 0.757464873885727
0.7186187301152458 0.6803140528274092 0.6425992209205447 0.6055210116556538 0.5691246433541579 0.533453819668722 0.49855077465493025 0.464456317890523
0.4312098789084118 0.39884955023568125 0.3674121283640659 0.33693315201199425 0.30744693708160753 0.2789866077581493 0.25158412325109225 0.22527029972651746
0.2000748270419166 0.17602627994865117 0.15315212349420904 0.13147871241667985 0.11103128439152243 0.09183394705761572 0.07390965881180733 0.057280203436647525
0.041966158682484433 0.0279868589991068 0.015360352669702593 0.004103353666948806 -0.005768811394062823 -0.0142422607697128 -0.02130461908338077 -0.026945082264752784
-0.031154485349077277 -0.03392537251317407 -0.035252068687995575 -0.035130752052914715 -0.03355952669519269 -0.030538494692848417 -0.026069826867228585 -0.02015783144059924
-0.012809019828750934 -0.0040321688036897285 0.0061616217306053045 0.017758876094568166 0.030743696045597346 0.04509772054356631 0.0608000927377077 0.0778274348056982
0.09615383123057342 0.11575082106362089 0.1365873996571949 0.15863003030934664 0.181842666192793 0.2061867828826962 0.23162142173200095 0.2581032442728528
0.2855865977522498 0.3140235918391596 0.3433641864654362 0.37355629068914453 0.40454587239386797 0.43627707856499853 0.4686923658078612 0.5017326407032954
00000000: b660 1e80 80b4 e7bf e193 0d7b e09c e8bf
00000010: 927d 861c ef8a e9bf 64bb c855 a27e eabf
00000020: 4032 4005 ed77 ebbf 3199 cbd6 be76 ecbf
00000030: e2e4 9f24 047b edbf 6cfd e9d8 a584 eebf
00000040: 902a 5150 8993 efbf a1d9 be1e c853 f0bf
00000050: 58f6 e346 4ce0 f0bf 0c72 9a27 3e6f f1bf
00000060: 232d f3cb 8800 f2bf d932 9237 1594 f2bf
00000070: 60ba 135c ca29 f3bf aedb 640f 8dc1 f3bf
00000080: 4089 2303 405b f4bf 6861 19bd c3f6 f4bf
00000090: e4d5 e490 f693 f5bf 55f1 e39a b432 f6bf
000000a0: 99ce 73bc d7d2 f6bf 4272 9799 3774 f7bf
000000b0: 3e42 1898 a916 f8bf 90da 31e0 00ba f8bf
000000c0: c24b da5e 0e5e f9bf cd1b b7c9 a002 fabf
000000d0: 3885 cea4 84a7 fabf 7088 034a 844c fbbf
000000e0: 1848 6af2 67f1 fbbf 2512 81c1 f595 fcbf
000000f0: 0431 59d2 f139 fdbf 7244 b946 1edd fdbf
00000100: 986f 4158 3b7f febf e224 986b 0720 ffbf
00000110: 5ba0 a425 3fbf ffbf b53f 6dc1 4e2e 00c0
00000120: d8fe 4bf8 ed7b 00c0 133e 4b34 59c8 00c0
00000130: 9e86 35c7 6b13 01c0 2847 8967 005d 01c0
00000140: 7a77 4141 f1a4 01c0 0e6f 9c07 18eb 01c0
00000150: 9184 db07 4e2f 02c0 d4e3 f43c 6c71 02c0
00000160: 6ad7 2f64 4bb1 02c0 edaa a212 c4ee 02c0
00000170: d913 88cb ae29 03c0 c6e2 6017 e461 03c0
00000180: f89f d59b 3c97 03c0 9d7f 4a34 91c9 03c0
00000190: b4f9 160b bbf8 03c0 ee42 51b3 9324 04c0
000001a0: 05a6 1c43 f54c 04c0 1bd9 686e ba71 04c0
000001b0: e342 0fa2 be92 04c0 ec3b 3a1f deaf 04c0
000001c0: 6b5d 0117 f6c8 04c0 c021 25c6 e4dd 04c0
000001d0: 1333 d390 89ee 04c0 b227 5c1e c5fa 04c0
000001e0: 5a9d c274 7902 05c0 2037 0b14 8a05 05c0
000001f0: 525d 3411 dc03 05c0 2052 bc30 56fd 04c0
00000200: 4cd5 9b00 e1f1 04c0 9057 9bf1 66e1 04c0
00000210: aeaa e86f d4cb 04c0 cd1a d3fa 17b1 04c0
00000220: 25fc 933b 2291 04c0 a0ed 091b e66b 04c0
00000230: f472 4dd6 5841 04c0 f400 0612 7211 04c0
00000240: f419 67ec 2bdc 03c0 36ec bd0d 83a1 03c0
00000250: 269e 78b7 7661 03c0 e271 91d1 081c 03c0
00000260: 5afe 48f6 3dd1 02c0 b0db 1b7c 1d81 02c0
00000270: 5e85 e17d b12b 02c0 a482 03e1 06d1 01c0
00000280: 787b bd59 2d71 01c0 3c7b 586d 370c 01c0
00000290: dc57 5572 3aa2 00c0 d0f8 7b8e 4e33 00c0
000002a0: 9872 8e65 1d7f ffbf 50ee 4d2a 318e febf
000002b0: a010 2850 1994 fdbf c0a4 e71f 1c91 fcbf
000002c0: c8fd 962c 8585 fbbf f0c3 8935 a571 fabf
000002d0: 30fa 1204 d255 f9bf 806e f444 6632 f8bf
000002e0: f85b 995d c107 f7bf 58aa 323d 47d6 f5bf
000002f0: 3896 cf29 609e f4bf b02e 9289 7860 f3bf
00000300: 9066 23a8 001d f2bf 50eb 8e78 6cd4 f0bf
00000310: 4065 66a7 660e efbf 0002 ec66 9f6b ecbf
00000320: 406b e4d5 7dc1 e9bf 4081 adb7 0111 e7bf
00000330: 0099 6552 2f5b e4bf c043 dccf 0ea1 e1bf
00000340: 40a9 c034 57c7 ddbf 40af ea6b 2748 d8bf
00000350: 40e5 ff2c aec6 d2bf 80aa f5cd 1b8a cabf
00000360: 00e4 f1ce a815 bfbf 00fa f1c9 334f a2bf
00000370: 00f6 14b4 db5a a93f 8045 427b 7930 c13f
00000380: 8086 61a2 45f5 cb3f 003b 9fd5 7850 d33f
00000390: 8027 54f7 b097 d83f 002a 4ebe 45ce dd3f
000003a0: 60d1 bfad 1d79 e13f e04a 5977 d000 e43f
000003b0: 800b e1e1 487d e63f 805c ff42 9bed e83f
000003c0: 40f0 4e34 e350 eb3f 40e5 8e21 44a6 ed3f
000003d0: 20c8 4ad0 e9ec ef3f 8018 3d70 0412 f13f
000003e0: 10ec d0a2 6f25 f23f 30b0 035c 5a30 f33f
000003f0: b00b c98e 6d32 f43f 80e1 fd74 572b f53f
00000400: 6036 ffba cb1a f63f f0df 9aa6 8300 f73f
00000410: 40c0 3a39 3edc f73f 4065 304d c0ad f83f
00000420: 30ac 0cae d474 f93f 305d f42b 4c31 fa3f
00000430: d0ab e8a9 fde2 fa3f e019 0027 c689 fb3f
00000440: 0001 92c2 8825 fc3f 60e2 5cbb 2eb6 fc3f
00000450: c027 b569 a73b fd3f 10d2 cf34 e8b5 fd3f
00000460: c0d9 4183 ec24 fe3f f0b2 d2a6 b588 fe3f
00000470: e05a c5c3 4ae1 fe3f 4080 c0b3 b82e ff3f
00000480: d020 83e4 1171 ff3f 007c 9732 6ea8 ff3f
00000490: 4077 3ac0 ead4 ff3f 40ab b1c8 a9f6 ff3f
000004a0: c0e0 2638 e906 0040 102e ad48 480d 0040
000004b0: 20b4 1f43 8a0e 0040 c844 8d78 c90a 0040
000004c0: 68aa 8c40 2202 0040 30e3 deb5 65e9 ff3f
000004d0: 7097 40a1 36c5 ff3f 60ed a6a7 fa97 ff3f
000004e0: e082 5f3f f861 ff3f b8de 2daf 7823 ff3f
000004f0: 30d6 67cc c7dc fe3f a8e3 e9b8 338e fe3f
00000500: 8067 2ea1 0c38 fe3f 5843 d17a a4da fd3f
00000510: b83d c7c3 4e76 fd3f 1828 8e42 600b fd3f
00000520: a00c 98c7 2e9a fc3f 6c82 30f0 1023 fc3f
00000530: e4dc 17eb 5da6 fb3f f814 0c3f 6d24 fb3f
00000540: 545e 7393 969d fa3f a0f1 577b 3112 fa3f
00000550: e917 e042 9582 f93f e8dc 68bf 18ef f83f
00000560: 17b3 6422 1258 f83f e78d 1acf d6bd f73f
00000570: a496 5c33 bb20 f73f 7c8e 48a3 1281 f63f
00000580: 489e 1e38 2fdf f53f c817 36b2 613b f53f
00000590: 786d 125e f995 f43f a885 95fc 43ef f33f
000005a0: 286e 47ae 8d47 f33f e883 a6e1 209f f23f
000005b0: 406e 6e44 46f6 f13f 10a0 bfb7 444d f13f
000005c0: a0c8 0c47 61a4 f03f 40a4 5e43 bef7 ef3f
000005d0: 00f3 002e ffa7 ee3f 4076 a129 045a ed3f
000005e0: e07d 2850 480e ec3f a002 30ff 42c5 ea3f
000005f0: e0a1 21e1 677f e93f a0a7 a6f9 263d e83f
00000600: c06a 04b5 ecfe e63f e0e4 fcf9 21c5 e53f
00000610: 003e c93d 2c90 e43f 8042 c399 6d60 e33f
00000620: 80b8 51e2 4436 e23f 00e9 acbe 0d12 e13f
00000630: 0075 2282 41e8 df3f 00aa f0fd a6b9 dd3f
00000640: 80eb e751 f198 db3f 0057 9243 c086 d93f
00000650: 008e de28 ae83 d73f 001a 3511 5090 d53f
00000660: 0056 01eb 35ad d33f 80f7 15a5 eada d13f
00000670: 009a 634b f419 d03f 00f2 0a3d a8d5 cc3f
00000680: 00ee 724b 0d9c c93f 00d9 ce75 0788 c63f
00000690: 003c dc20 7d9a c33f 0094 f960 4bd4 c03f
000006a0: 0062 4bd7 8b6c bc3f 006a 46f7 6d82 b73f
000006b0: 008a 744f beeb b23f 00f0 efb0 d453 ad3f
000006c0: 00f8 289e 967c a53f 00c8 7950 96a8 9c3f
000006d0: 00a0 f8a2 3f75 8f3f 0000 db9c adce 703f
000006e0: 0080 6384 09a1 77bf 00f0 d0e1 0b2b 8dbf
000006f0: 0010 dec8 e0d0 95bf 00e8 75dc 7d97 9bbf
00000700: 00c0 ca1e f6e6 9fbf 00bc e59a aa5e a1bf
00000710: 0038 4324 8f0c a2bf 0064 4d6e a8fc a1bf
00000720: 000c 40db b62e a1bf 0040 e6af 7b45 9fbf
00000730: 0080 3a77 0cb2 9abf 00c0 2e2b 41a4 94bf
00000740: 0000 118a 9d3b 8abf 0000 4d12 0984 70bf
00000750: 0020 2cbd ed3c 793f 00d8 2800 622f 923f
00000760: 00c8 4b84 467b 9f3f 00b0 b765 0c17 a73f
00000770: 00f0 cd93 3021 af3f 00d8 38af 7fec b33f
00000780: 003a 8598 899d b83f 0012 f486 d8a1 bd3f
00000790: 0063 4927 b27b c13f 00cb 2b24 fd4d c43f
000007a0: 0062 28d8 9e46 c73f 00a0 ac18 5464 ca3f
000007b0: 002c b24f c5a5 cd3f 802d 4978 c384 d03f
000007c0: 8065 6102 0d47 d23f 00c9 4768 f618 d43f
000007d0: 0026 dfc7 adf9 d53f 8065 eea4 58e8 d73f
000007e0: 0076 ea5e 14e4 d93f 0097 1bb2 f6eb db3f
000007f0: 80e5 c143 0eff dd3f 0001 659c 310e e03f
