data/geyser-waiting-bw2.0-basegamma-lambda-exp(-8.0)/natparam-value-shift-170.0.npy (npy, 16128 bytes, 1 tensors)

array f8 [2000]
-1.547334573532029e-24 -4.41022770299469e-24 -1.2449544516661043e-23 -3.480648852140179e-23 -9.637843150307057e-23 -2.643083874392864e-22 -7.178802351646361e-22 -1.931085385654153e-21
-5.14467341691754e-21 -1.3574360379527048e-20 -3.5471903706529554e-20 -9.180185441754932e-20 -2.352981276761205e-19 -5.972879020317834e-19 -1.50156904681793e-18 -3.738533625046365e-18
-9.218275021925515e-18 -2.2510665925885134e-17 -5.443963385164931e-17 -1.303851130196125e-16 -3.0926052909864316e-16 -7.264442565454238e-16 -1.6898920627200115e-15 -3.893067954932142e-15
-8.881753944607145e-15 -2.0066726040515476e-14 -4.489753911955839e-14 -9.947956706473696e-14 -2.1827679334846099e-13 -4.742861687654123e-13 -1.0205383819911347e-12 -2.1745573508758926e-12
-4.58840299322676e-12 -9.587332750099547e-12 -1.983699385973402e-11 -4.06435688868934e-11 -8.245968778469371e-11 -1.6566135187268753e-10 -3.295535566241813e-10 -6.49159676034952e-10
-1.2661730071887718e-09 -2.44537577870159e-09 -4.67631810875169e-09 -8.854478664677454e-09 -1.660033467845932e-08 -3.081482697158084e-08 -5.6635083532777e-08 -1.0305946499755106e-07
-1.8567783281340182e-07 -3.312036156092213e-07 -5.849053372872919e-07 -1.0226426985173616e-06 -1.7701172183971617e-06 -3.0332726271293103e-06 -5.145686276203393e-06 -8.641482908743037e-06
-1.4366022749087952e-05 -2.364165111782293e-05 -3.851245137597864e-05 -6.210050906474545e-05 -9.911689658391051e-05 -0.00015658349649302423 -0.00024483670013056253 -0.00037890032798505035
-0.0005803315958093412 -0.0008796585661259816 -0.0013195372462415026 -0.0019587571347064532 -0.00287721018536293 -0.004181903368599718 -0.006014032053751976 -0.008557033068320676
-0.01204539630134218 -0.016773828426098036 -0.023106132413636148 -0.03148289914880946 -0.04242681834368402 -0.05654413102262442 -0.07452050221087456 -0.09710943780648583
-0.1251113599006428 -0.15934164950338453 -0.2005864205205571 -0.24954554652960054 -0.3067635407563912 -0.37255027225655707 -0.4468951244200028 -0.5293799499522988
-0.6190978807579278 -0.7145864969819516 -0.8137848023971587 -0.9140236445368664 -1.0120584375027046 -1.1041511399040485 -1.186205360812667 -1.2539542994150985
-1.303196209991073 -1.3300666184170717 -1.3313311279511348 -1.3046779568487128 -1.2489859870525335 -1.1645426534464927 -1.053186908112167 -0.9183559787108962
-0.7650206580119869 -0.5995020698002302 -0.42917262809158924 -0.26205438199279835 -0.10633810980408878 0.030144654374219815 0.14045797942432997 0.21906420091138706
0.2622510115328288 0.268445066423488 0.23838172894108256 0.17511116122044412 0.08383376679416887 -0.028428010378177326 -0.15330049369800047 -0.2816382829066826
-0.40416800766628924 -0.512144665791741 -0.5979658596243169 -0.6556909490925387 -0.6814187850681961 -0.6734890675862388 -0.6324878233907585 -0.5610558666203245
-0.4635187918221799 -0.34537608492190097 -0.21270316333884187 -0.0715314449757456 0.07272391164492951 0.21572235406077156 0.35448779331404756 0.4874946003737115
0.6145392892178219 0.7364152675127755 0.8544352892054423 0.9698691628139446 1.0833793654405142 1.1945418035233963 1.3015316449813845 1.4010351196793103
1.4884193383938076 1.5581569481276851 1.6044653963550708 1.6220868301408515 1.6071091433868467 1.557715441512169 1.4747507294998492 1.3620115123291168
1.2261946913282458 1.0764831509482065 0.9237917236251088 0.7797428650484228 0.6554803171075427 0.5604559123133717 0.501335517194609 0.48116290946678775
0.4988953734096957 0.5493844906430638 0.623824518107611 0.7106348919577052 0.7966895686909847 0.8687608697594706 0.9150151157037776 0.9263858723619336
0.8976601218392446 0.8281426021097689 0.7218108373474132 0.586932622302573 0.435181851503855 0.28034967383650766 0.13679823223309384 0.01783712137566784
-0.065786338957043 -0.10710460038203085 -0.10371173006037893 -0.058019169399019965 0.02304079759070099 0.12882291325401507 0.2461858349472683 0.3609680722208761
0.45954505545588864 0.5302844165608831 0.5647345496261468 0.5584194027019702 0.5111645197231296 0.42693818233376435 0.31324910583601984 0.18019115478239822
0.0392602594481839 -0.09791417381521139 -0.2207821624473656 -0.320906510961656 -0.3927224164455918 -0.433965828753212 -0.44575150169866506 -0.43231700184126143
-0.40047769581315884 -0.3588580792350651 -0.3169765354745948 -0.28426481241367 -0.2691020125835387 -0.2779376473479602 -0.3145707998401739 -0.37964335853086384
-0.47039442679774535 -0.580709522179216 -0.7014809762221441 -0.8212743112392262 -0.9272694813026687 -1.0064171680600493 -1.0467216199169043 -1.0385367224098907
-0.9757455282624461 -0.8566895324938644 -0.6847255811444128 -0.46831655217719614 -0.22060549349901137 0.04152218475127967 0.2988237755454328 0.5314093288437371
0.7206074611940076 0.8507886249961509 0.9109416402006776 0.8958188453566889 0.806509033092111 0.6503606992664932 0.44025340085076814 0.19329258698492913
-0.07092706488995981 -0.3322923654223895 -0.5721509337849238 -0.7750739636978192 -0.9302059185559859 -1.032057828575871 -1.0806714680623877 -1.0811602623095862
-1.0427088774017435 -0.977177124466623 -0.8974969553716239 -0.8160687744055695 -0.743353475257269 -0.6868217079939214 -0.6503674079727126 -0.6342265948976262
-0.6353742073760245 -0.648310587740589 -0.6661031694182213 -0.6815235527459569 -0.6881180020265987 -0.6810696390048294 -0.657749329307979 -0.6179031117314242
00000000: fc0a d499 07ee fdba fbba def2 9853 15bb
00000010: e518 8812 e519 2ebb ca26 8710 0b0a 45bb
00000020: 13fa 2c82 eb20 5dbb 9b96 fbbd 77f8 73bb
00000030: abcc 7f5f e91e 8bbb 26ed 86f5 133d a2bb
00000040: 95f0 8e4d 874b b8bb 7b49 8b43 9906 d0bb
00000050: eaa3 f1ce 5cf0 e4bb 8f78 0e1d 5a18 fbbb
00000060: 9d4d 6bed a75c 11bc cef4 7388 3909 26bc
00000070: 11ae 3397 f5b2 3bbc c68d ea74 ae3d 51bc
00000080: 8c49 f655 8241 65bc 7185 12d4 f9f3 79bc
00000090: 24fc c937 df61 8fbc 2add 3e93 5cca a2bc
000000a0: ad72 9d8e d948 b6bc 63cf 1f01 442c cabc
000000b0: 9dfa be68 4071 debc 67b5 03da 6688 f1bc
000000c0: 1acc 1889 fbff 03bd b10c e609 d797 16bd
000000d0: 8195 cdd3 6a46 29bd 46a5 3c1d 4200 3cbd
000000e0: 14d2 7212 40b8 4ebd 7853 5572 fdaf 60bd
000000f0: 1f8d 99a5 18f4 71bd 3ed5 66f7 aa20 83bd
00000100: 8473 e41e 152e 94bd 8b60 2e43 3015 a5bd
00000110: 5119 ec0c 9ecf b5bd 9fd5 bfe4 1258 c6bd
00000120: 5195 3dad 95aa d6bd 88ce 1cce b0c4 e6bd
00000130: 4808 5a46 91a5 f6bd cc4f 36a3 114e 06be
00000140: 179a 2212 b0c0 15be 4b83 432e 7001 25be
00000150: 5965 df87 aa15 34be 97b6 8416 cd03 43be
00000160: bcdd 49b4 10d3 51be 9d8c 8856 288b 60be
00000170: 9649 30da dd67 6ebe 08f4 2848 31aa 7bbe
00000180: d3ae 557d d7eb 88be 51da f5e7 083a 96be
00000190: e0ba 6170 4ca0 a3be 7c9d bf89 3728 b1be
000001a0: 14cf d276 98b2 bdbe 8105 0a43 e771 c9be
000001b0: e14c 3079 2395 d5be c07c 0f5e 5c1f e2be
000001c0: 592d d721 b320 eebe 8fa6 dce4 41ca f8be
000001d0: aafd d0c0 0d31 04bf 5ee0 3a9f 7e47 10bf
000001e0: d75a 3651 9ffb 19bf 4e4b 39fe 1186 24bf
000001f0: f929 b39e ad0b 30bf 8140 6384 e4d4 38bf
00000200: 3272 c79c 2c04 43bf e2d1 f662 1cd3 4cbf
00000210: e3aa 6154 8a9e 55bf 912a b3ba cf0b 60bf
00000220: 2d96 cb74 f291 67bf 1d2d 4023 0b21 71bf
00000230: 9eaf ce6f 2ba2 78bf 010f 6f89 5986 81bf
00000240: 4cf7 73b9 41ab 88bf f041 1392 282d 91bf
00000250: 46e6 364c 22a9 97bf 266e 74cc 861e a0bf
00000260: 62d7 84ca f7b8 a5bf fbba 0b33 5af3 acbf
00000270: 4e90 e08f c613 b3bf 7f05 8303 2adc b8bf
00000280: f7cf 9027 a603 c0bf 56fd c0a2 4e65 c4bf
00000290: d528 14da d0ac c9bf 9e81 9ac4 1bf1 cfbf
000002a0: e5d8 c98b 03a2 d3bf bd4c dd18 ddd7 d7bf
000002b0: 800c 0802 ee99 dcbf f180 8638 aef0 e0bf
000002c0: 471a dc5b a6cf e3bf 036c 5680 e4dd e6bf
000002d0: 41e2 086d 860a eabf 6ccf a183 ae3f edbf
000002e0: 8b70 2b30 6431 f0bf 05aa bb62 9aaa f1bf
000002f0: 0c7c f078 b2fa f2bf bda9 2a62 3210 f4bf
00000300: c7ec e244 e4d9 f4bf 64a4 39ef f347 f5bf
00000310: 9126 6bde 214d f5bf 1ba3 47fe f5df f4bf
00000320: b9d8 f8ba d8fb f3bf 9198 357a f7a1 f2bf
00000330: 80ac ee83 dad9 f0bf a7c7 d413 2c63 edbf
00000340: d8a0 5d9a 0c7b e8bf 3ca4 f5f6 1e2f e3bf
00000350: c778 7f78 9077 dbbf 11af 1bbe 7fc5 d0bf
00000360: 1251 ed6f f938 bbbf 30f9 be82 3dde 9e3f
00000370: 8a7c 0bee 86fa c13f 92c3 51b5 4b0a cc3f
00000380: 3e17 7877 b8c8 d03f 72ee 4337 342e d13f
00000390: 9008 e2e0 4a83 ce3f 389e 4de3 0a6a c63f
000003a0: 4073 ae36 2176 b53f 005f 757b 3b1c 9dbf
000003b0: 6060 72bf 599f c3bf e8b0 9893 5c06 d2bf
000003c0: 4009 c17d e3dd d9bf 20af cc35 7d63 e0bf
000003d0: 40c0 664c 8922 e3bf 4857 d495 6bfb e4bf
000003e0: 40ef 97c4 2ece e5bf c0e2 eff1 388d e5bf
000003f0: e89b 921a 573d e4bf 989f cb6e 2bf4 e1bf
00000400: e04a fdb8 4aaa ddbf 68d8 634b a41a d6bf
00000410: b0e5 2575 db39 cbbf 9073 ce80 e24f b2bf
00000420: 57f4 26c6 089e b23f c883 da43 ca9c cb3f
00000430: d85c c791 edaf d63f 403a 658d 1c33 df3f
00000440: 3086 a94c 4eaa e33f 40c2 47c0 b690 e73f
00000450: 10f1 f5ac 8857 eb3f d0e9 f50d 2b09 ef3f
00000460: e0a6 fb99 8555 f13f d067 bddd d71c f33f
00000470: 5077 9ed8 12d3 f43f 101f 39cd a36a f63f
00000480: 702a d2cb 90d0 f73f b0e5 e3fa 35ee f83f
00000490: 108a 4ee8 e3ab f93f e0a2 eb51 11f4 f93f
000004a0: 702f bf13 b8b6 f93f b04d dc06 67ec f83f
000004b0: 9043 8f38 9498 f73f 38aa 6395 ccca f53f
000004c0: c089 1c53 7e9e f33f 0048 8065 4639 f13f
000004d0: 4821 29a9 b38f ed3f a083 154f a7f3 e83f
000004e0: 60c1 a4db b1f9 e43f 788b c73c 41ef e13f
000004f0: 2892 55c8 f00a e03f e450 0d84 5fcb de3f
00000500: 08e7 3adc e6ed df3f 00bb 87c8 8e94 e13f
00000510: 80e2 f6d5 5ef6 e33f d45a 8b62 85bd e63f
00000520: b0f2 521f 7b7e e93f 882a 7598 e3cc eb3f
00000530: 6063 a9c7 cd47 ed3f 80ab 28fc f3a4 ed3f
00000540: 4022 47b8 a1b9 ec3f a88b 0fea 2480 ea3f
00000550: c8c6 890a 1319 e73f a0d7 37ec 26c8 e23f
00000560: f064 01fb 04da db3f c09c 24c2 3ff1 d13f
00000570: 80be cbbe 9a82 c13f 0065 daf3 e443 923f
00000580: 0015 589e 5fd7 b0bf 4058 e403 356b bbbf
00000590: 0027 d218 da8c babf 8041 3846 b0b4 adbf
000005a0: 00d6 80c0 0198 973f 6062 b3eb 447d c03f
000005b0: e021 eb76 0483 cf3f 60af 45d4 191a d73f
000005c0: d82d 0eaa 2f69 dd3f 4ca3 5606 17f8 e03f
000005d0: 4f19 b230 4e12 e23f 70d1 015e 92de e13f
000005e0: b2c3 e2b1 755b e03f 8861 a286 f452 db3f
000005f0: e048 44fa 450c d43f e0d0 68f6 8010 c73f
00000600: c08f b9b4 eb19 a43f c0e7 593e e710 b9bf
00000610: 4034 a003 9742 ccbf 80d7 6976 bb89 d4bf
00000620: e08d c233 5d22 d9bf b8e6 849c 18c6 dbbf
00000630: ec12 7c4e 3187 dcbf 6c6e 1aee 14ab dbbf
00000640: 84e0 9233 6da1 d9bf 2c14 8ee0 87f7 d6bf
00000650: 009e 5df3 5749 d4bf 3119 2e0a 6531 d2bf
00000660: 8e61 d5a5 f738 d1bf 68f2 6bfc bac9 d1bf
00000670: 58c4 6590 ed21 d4bf 8827 42a8 134c d8bf
00000680: 7049 d439 f11a debf 6089 c722 2c95 e2bf
00000690: 087d 743b 8872 e6bf 2828 7a10 e147 eabf
000006a0: 58c3 180c 31ac edbf ac36 6fe3 481a f0bf
000006b0: acf2 582b 5fbf f0bf d020 a7ae d89d f0bf
000006c0: d85f a3af 4e39 efbf a85f 9c2a 006a ebbf
000006d0: c0fe 379f 45e9 e5bf c0b2 f1fc e5f8 ddbf
000006e0: 80b6 f201 cd3c ccbf 0064 2153 6542 a53f
000006f0: 4008 cfc1 ed1f d33f 888a 0523 4e01 e13f
00000700: 889e e260 370f e73f 545a 0511 a939 eb3f
00000710: 903f 2715 6f26 ed3f 9851 7e48 8caa ec3f
00000720: f4e4 2108 ecce e93f 4481 be3d c1cf e43f
00000730: 44d6 a699 1c2d dc3f b06a d4bd cfbd c83f
00000740: a088 1ab0 4628 b2bf f8c6 8c32 4744 d5bf
00000750: 706d 9f79 0f4f e2bf f005 c2e9 67cd e8bf
00000760: 90cb d733 3fc4 edbf b806 d511 4f83 f0bf
00000770: b0c5 502a 6e4a f1bf d8ab 05b4 6e4c f1bf
00000780: a007 fb80 efae f0bf 9078 fff5 0845 efbf
00000790: 1095 f288 4bb8 ecbf a87a 2b43 3c1d eabf
000007a0: 2022 333a 8dc9 e7bf 4089 c084 71fa e5bf
000007b0: 2011 744f cfcf e4bf 00d7 6a92 954b e4bf
000007c0: c0dc 2c4a fc54 e4bf 40e2 7fd8 f5be e4bf
000007d0: 0039 0d98 b750 e5bf 78ec 4f7b 0acf e5bf
000007e0: 80c7 4f0b 1005 e6bf 6860 3a8e 52cb e5bf
000007f0: a0ff 4a52 480c e5bf 9075 1fbf dcc5 e3bf
