data/geyser-waiting-bw2.0-basegamma-lambda-exp(-8.0)/natparam-value-shift-190.0.npy (npy, 16128 bytes, 1 tensors)

array f8 [2000]
-1.5473345735320292e-24 -4.41022770299469e-24 -1.2449544516661044e-23 -3.480648852140179e-23 -9.637843150307057e-23 -2.6430838743928644e-22 -7.178802351646362e-22 -1.931085385654153e-21
-5.14467341691754e-21 -1.3574360379527048e-20 -3.5471903706529554e-20 -9.180185441754932e-20 -2.352981276761205e-19 -5.972879020317834e-19 -1.50156904681793e-18 -3.738533625046365e-18
-9.218275021925515e-18 -2.2510665925885134e-17 -5.443963385164931e-17 -1.303851130196125e-16 -3.0926052909864316e-16 -7.264442565454238e-16 -1.6898920627200115e-15 -3.893067954932142e-15
-8.881753944607145e-15 -2.0066726040515476e-14 -4.4897539119558394e-14 -9.947956706473696e-14 -2.1827679334846099e-13 -4.742861687654123e-13 -1.0205383819911347e-12 -2.1745573508758926e-12
-4.588402993226761e-12 -9.587332750099547e-12 -1.983699385973402e-11 -4.0643568886893404e-11 -8.245968778469371e-11 -1.6566135187268753e-10 -3.2955355662418137e-10 -6.491596760349521e-10
-1.2661730071887718e-09 -2.44537577870159e-09 -4.67631810875169e-09 -8.854478664677454e-09 -1.6600334678459322e-08 -3.081482697158085e-08 -5.663508353277701e-08 -1.0305946499755107e-07
-1.8567783281340182e-07 -3.312036156092213e-07 -5.849053372872919e-07 -1.0226426985173616e-06 -1.7701172183971619e-06 -3.0332726271293108e-06 -5.145686276203393e-06 -8.641482908743037e-06
-1.4366022749087954e-05 -2.364165111782293e-05 -3.851245137597865e-05 -6.210050906474545e-05 -9.911689658391051e-05 -0.00015658349649302423 -0.00024483670013056253 -0.00037890032798505035
-0.0005803315958093412 -0.0008796585661259816 -0.0013195372462415028 -0.0019587571347064537 -0.00287721018536293 -0.004181903368599718 -0.006014032053751976 -0.008557033068320676
-0.012045396301342182 -0.016773828426098036 -0.023106132413636148 -0.03148289914880946 -0.04242681834368402 -0.05654413102262443 -0.07452050221087456 -0.09710943780648583
-0.1251113599006428 -0.15934164950338453 -0.20058642052055714 -0.24954554652960056 -0.30676354075639123 -0.37255027225655707 -0.44689512442000284 -0.5293799499522988
-0.6190978807579279 -0.7145864969819516 -0.8137848023971588 -0.9140236445368665 -1.0120584375027046 -1.1041511399040487 -1.186205360812667 -1.2539542994150985
-1.3031962099910732 -1.3300666184170722 -1.3313311279511353 -1.3046779568487132 -1.2489859870525337 -1.164542653446493 -1.0531869081121674 -0.9183559787108968
-0.7650206580119876 -0.5995020698002308 -0.4291726280915898 -0.262054381992799 -0.10633810980408948 0.030144654374219093 0.14045797942432942 0.21906420091138662
0.26225101153282804 0.26844506642348687 0.23838172894108212 0.17511116122044368 0.08383376679416843 -0.02842801037817866 -0.15330049369800047 -0.2816382829066839
-0.40416800766629013 -0.512144665791741 -0.5979658596243169 -0.6556909490925387 -0.6814187850681952 -0.6734890675862397 -0.6324878233907585 -0.5610558666203236
-0.4635187918221799 -0.3453760849219014 -0.21270316333884054 -0.0715314449757436 0.07272391164492996 0.21572235406077267 0.35448779331404934 0.4874946003737124
0.6145392892178254 0.7364152675127791 0.8544352892054441 0.9698691628139464 1.0833793654405142 1.1945418035233963 1.301531644981388 1.4010351196793103
1.4884193383938111 1.5581569481276887 1.6044653963550672 1.622086830140848 1.6071091433868467 1.5577154415121655 1.4747507294998492 1.3620115123291114
1.226194691328244 1.076483150948203 0.923791723625107 0.7797428650484184 0.6554803171075392 0.5604559123133674 0.5013355171946048 0.481162909466782
0.4988953734096935 0.5493844906430634 0.6238245181076101 0.7106348919577048 0.7966895686909821 0.8687608697594698 0.9150151157037758 0.9263858723619327
0.8976601218392428 0.8281426021097706 0.721810837347415 0.5869326223025721 0.4351818515038559 0.28034967383650944 0.13679823223309384 0.017837121375666953
-0.06578633895704122 -0.10710460038202907 -0.10371173006037804 -0.0580191693990173 0.023040797590699214 0.12882291325401685 0.2461858349472692 0.3609680722208761
0.4595450554558891 0.5302844165608855 0.5647345496261463 0.5584194027019715 0.5111645197231294 0.4269381823337639 0.3132491058360194 0.18019115478239778
0.03926025944818212 -0.09791417381521184 -0.22078216244736426 -0.3209065109616551 -0.3927224164455887 -0.43396582875321066 -0.44575150169866307 -0.43231700184125876
-0.40047769581315706 -0.3588580792350624 -0.31697653547459326 -0.2842648124136667 -0.2691020125835347 -0.27793764734795645 -0.314570799840169 -0.3796433585308603
-0.47039442679774224 -0.5807095221792133 -0.7014809762221415 -0.8212743112392218 -0.9272694813026661 -1.0064171680600467 -1.0467216199169025 -1.038536722409889
-0.9757455282624434 -0.8566895324938617 -0.6847255811444128 -0.46831655217719614 -0.22060549349901226 0.04152218475127878 0.2988237755454337 0.531409328843738
0.720607461194009 0.8507886249961514 0.9109416402006789 0.8958188453566891 0.8065090330921116 0.6503606992664932 0.44025340085076703 0.19329258698492735
-0.07092706488996203 -0.3322923654223917 -0.5721509337849255 -0.7750739636978219 -0.9302059185559912 -1.0320578285758772 -1.0806714680623948 -1.0811602623095915
-1.0427088774017523 -0.9771771244666336 -0.8974969553716345 -0.8160687744055819 -0.7433534752572815 -0.6868217079939338 -0.6503674079727251 -0.6342265948976387
-0.6353742073760351 -0.6483105877406032 -0.666103169418232 -0.6815235527459702 -0.6881180020266102 -0.6810696390048383 -0.657749329307987 -0.6179031117314295
00000000: fd0a d499 07ee fdba fbba def2 9853 15bb
00000010: e618 8812 e519 2ebb ca26 8710 0b0a 45bb
00000020: 13fa 2c82 eb20 5dbb 9c96 fbbd 77f8 73bb
00000030: accc 7f5f e91e 8bbb 26ed 86f5 133d a2bb
00000040: 95f0 8e4d 874b b8bb 7b49 8b43 9906 d0bb
00000050: eaa3 f1ce 5cf0 e4bb 8f78 0e1d 5a18 fbbb
00000060: 9d4d 6bed a75c 11bc cef4 7388 3909 26bc
00000070: 11ae 3397 f5b2 3bbc c68d ea74 ae3d 51bc
00000080: 8c49 f655 8241 65bc 7185 12d4 f9f3 79bc
00000090: 24fc c937 df61 8fbc 2add 3e93 5cca a2bc
000000a0: ad72 9d8e d948 b6bc 63cf 1f01 442c cabc
000000b0: 9dfa be68 4071 debc 67b5 03da 6688 f1bc
000000c0: 1acc 1889 fbff 03bd b10c e609 d797 16bd
000000d0: 8295 cdd3 6a46 29bd 46a5 3c1d 4200 3cbd
000000e0: 14d2 7212 40b8 4ebd 7853 5572 fdaf 60bd
000000f0: 1f8d 99a5 18f4 71bd 3ed5 66f7 aa20 83bd
00000100: 8573 e41e 152e 94bd 8b60 2e43 3015 a5bd
00000110: 5119 ec0c 9ecf b5bd a0d5 bfe4 1258 c6bd
00000120: 5195 3dad 95aa d6bd 88ce 1cce b0c4 e6bd
00000130: 4908 5a46 91a5 f6bd cd4f 36a3 114e 06be
00000140: 179a 2212 b0c0 15be 4b83 432e 7001 25be
00000150: 5965 df87 aa15 34be 97b6 8416 cd03 43be
00000160: bddd 49b4 10d3 51be 9e8c 8856 288b 60be
00000170: 9749 30da dd67 6ebe 09f4 2848 31aa 7bbe
00000180: d3ae 557d d7eb 88be 51da f5e7 083a 96be
00000190: e0ba 6170 4ca0 a3be 7c9d bf89 3728 b1be
000001a0: 15cf d276 98b2 bdbe 8205 0a43 e771 c9be
000001b0: e14c 3079 2395 d5be c07c 0f5e 5c1f e2be
000001c0: 5a2d d721 b320 eebe 8fa6 dce4 41ca f8be
000001d0: abfd d0c0 0d31 04bf 5ee0 3a9f 7e47 10bf
000001e0: d75a 3651 9ffb 19bf 4e4b 39fe 1186 24bf
000001f0: f929 b39e ad0b 30bf 8140 6384 e4d4 38bf
00000200: 3272 c79c 2c04 43bf e2d1 f662 1cd3 4cbf
00000210: e4aa 6154 8a9e 55bf 922a b3ba cf0b 60bf
00000220: 2d96 cb74 f291 67bf 1d2d 4023 0b21 71bf
00000230: 9eaf ce6f 2ba2 78bf 010f 6f89 5986 81bf
00000240: 4df7 73b9 41ab 88bf f041 1392 282d 91bf
00000250: 46e6 364c 22a9 97bf 266e 74cc 861e a0bf
00000260: 62d7 84ca f7b8 a5bf fcba 0b33 5af3 acbf
00000270: 4e90 e08f c613 b3bf 7f05 8303 2adc b8bf
00000280: f7cf 9027 a603 c0bf 56fd c0a2 4e65 c4bf
00000290: d628 14da d0ac c9bf 9f81 9ac4 1bf1 cfbf
000002a0: e6d8 c98b 03a2 d3bf bd4c dd18 ddd7 d7bf
000002b0: 810c 0802 ee99 dcbf f180 8638 aef0 e0bf
000002c0: 481a dc5b a6cf e3bf 036c 5680 e4dd e6bf
000002d0: 42e2 086d 860a eabf 6dcf a183 ae3f edbf
000002e0: 8b70 2b30 6431 f0bf 06aa bb62 9aaa f1bf
000002f0: 0c7c f078 b2fa f2bf bda9 2a62 3210 f4bf
00000300: c8ec e244 e4d9 f4bf 66a4 39ef f347 f5bf
00000310: 9326 6bde 214d f5bf 1da3 47fe f5df f4bf
00000320: bad8 f8ba d8fb f3bf 9398 357a f7a1 f2bf
00000330: 82ac ee83 dad9 f0bf acc7 d413 2c63 edbf
00000340: dea0 5d9a 0c7b e8bf 41a4 f5f6 1e2f e3bf
00000350: d178 7f78 9077 dbbf 1daf 1bbe 7fc5 d0bf
00000360: 4451 ed6f f938 bbbf 60f8 be82 3dde 9e3f
00000370: 767c 0bee 86fa c13f 82c3 51b5 4b0a cc3f
00000380: 3017 7877 b8c8 d03f 5eee 4337 342e d13f
00000390: 8008 e2e0 4a83 ce3f 289e 4de3 0a6a c63f
000003a0: 2073 ae36 2176 b53f 8060 757b 3b1c 9dbf
000003b0: 6060 72bf 599f c3bf 00b1 9893 5c06 d2bf
000003c0: 5009 c17d e3dd d9bf 20af cc35 7d63 e0bf
000003d0: 40c0 664c 8922 e3bf 4857 d495 6bfb e4bf
000003e0: 38ef 97c4 2ece e5bf c8e2 eff1 388d e5bf
000003f0: e89b 921a 573d e4bf 909f cb6e 2bf4 e1bf
00000400: e04a fdb8 4aaa ddbf 70d8 634b a41a d6bf
00000410: 80e5 2575 db39 cbbf 0073 ce80 e24f b2bf
00000420: 77f4 26c6 089e b23f f083 da43 ca9c cb3f
00000430: f85c c791 edaf d63f 503a 658d 1c33 df3f
00000440: 5086 a94c 4eaa e33f 60c2 47c0 b690 e73f
00000450: 20f1 f5ac 8857 eb3f e0e9 f50d 2b09 ef3f
00000460: e0a6 fb99 8555 f13f d067 bddd d71c f33f
00000470: 6077 9ed8 12d3 f43f 101f 39cd a36a f63f
00000480: 802a d2cb 90d0 f73f c0e5 e3fa 35ee f83f
00000490: 008a 4ee8 e3ab f93f d0a2 eb51 11f4 f93f
000004a0: 702f bf13 b8b6 f93f a04d dc06 67ec f83f
000004b0: 9043 8f38 9498 f73f 20aa 6395 ccca f53f
000004c0: b889 1c53 7e9e f33f f047 8065 4639 f13f
000004d0: 3821 29a9 b38f ed3f 7883 154f a7f3 e83f
000004e0: 40c1 a4db b1f9 e43f 528b c73c 41ef e13f
000004f0: 0292 55c8 f00a e03f 7c50 0d84 5fcb de3f
00000500: e0e6 3adc e6ed df3f fcba 87c8 8e94 e13f
00000510: 78e2 f6d5 5ef6 e33f d05a 8b62 85bd e63f
00000520: 98f2 521f 7b7e e93f 802a 7598 e3cc eb3f
00000530: 5063 a9c7 cd47 ed3f 78ab 28fc f3a4 ed3f
00000540: 3022 47b8 a1b9 ec3f b88b 0fea 2480 ea3f
00000550: d8c6 890a 1319 e73f 98d7 37ec 26c8 e23f
00000560: 0065 01fb 04da db3f e09c 24c2 3ff1 d13f
00000570: 80be cbbe 9a82 c13f 0064 daf3 e443 923f
00000580: 8014 589e 5fd7 b0bf c057 e403 356b bbbf
00000590: c026 d218 da8c babf 0040 3846 b0b4 adbf
000005a0: 00d4 80c0 0198 973f a062 b3eb 447d c03f
000005b0: 0022 eb76 0483 cf3f 60af 45d4 191a d73f
000005c0: e02d 0eaa 2f69 dd3f 62a3 5606 17f8 e03f
000005d0: 4b19 b230 4e12 e23f 7cd1 015e 92de e13f
000005e0: b0c3 e2b1 755b e03f 8061 a286 f452 db3f
000005f0: d848 44fa 450c d43f d0d0 68f6 8010 c73f
00000600: c08e b9b4 eb19 a43f e0e7 593e e710 b9bf
00000610: 1034 a003 9742 ccbf 70d7 6976 bb89 d4bf
00000620: a88d c233 5d22 d9bf a0e6 849c 18c6 dbbf
00000630: c812 7c4e 3187 dcbf 3c6e 1aee 14ab dbbf
00000640: 64e0 9233 6da1 d9bf fc13 8ee0 87f7 d6bf
00000650: e49d 5df3 5749 d4bf f518 2e0a 6531 d2bf
00000660: 4661 d5a5 f738 d1bf 24f2 6bfc bac9 d1bf
00000670: 00c4 6590 ed21 d4bf 4827 42a8 134c d8bf
00000680: 3849 d439 f11a debf 4889 c722 2c95 e2bf
00000690: f07c 743b 8872 e6bf 0028 7a10 e147 eabf
000006a0: 40c3 180c 31ac edbf a036 6fe3 481a f0bf
000006b0: a4f2 582b 5fbf f0bf c820 a7ae d89d f0bf
000006c0: c05f a3af 4e39 efbf 905f 9c2a 006a ebbf
000006d0: c0fe 379f 45e9 e5bf c0b2 f1fc e5f8 ddbf
000006e0: a0b6 f201 cd3c ccbf 8063 2153 6542 a53f
000006f0: 5008 cfc1 ed1f d33f 908a 0523 4e01 e13f
00000700: 949e e260 370f e73f 585a 0511 a939 eb3f
00000710: 9c3f 2715 6f26 ed3f 9a51 7e48 8caa ec3f
00000720: fae4 2108 ecce e93f 4481 be3d c1cf e43f
00000730: 30d6 a699 1c2d dc3f 706a d4bd cfbd c83f
00000740: 4089 1ab0 4628 b2bf 20c7 8c32 4744 d5bf
00000750: 806d 9f79 0f4f e2bf 0806 c2e9 67cd e8bf
00000760: c0cb d733 3fc4 edbf d406 d511 4f83 f0bf
00000770: d0c5 502a 6e4a f1bf f0ab 05b4 6e4c f1bf
00000780: c807 fb80 efae f0bf f078 fff5 0845 efbf
00000790: 7095 f288 4bb8 ecbf 187b 2b43 3c1d eabf
000007a0: 9022 333a 8dc9 e7bf b089 c084 71fa e5bf
000007b0: 9011 744f cfcf e4bf 70d7 6a92 954b e4bf
000007c0: 20dd 2c4a fc54 e4bf c0e2 7fd8 f5be e4bf
000007d0: 6039 0d98 b750 e5bf f0ec 4f7b 0acf e5bf
000007e0: e8c7 4f0b 1005 e6bf b860 3a8e 52cb e5bf
000007f0: e8ff 4a52 480c e5bf c075 1fbf dcc5 e3bf
