data/geyser-waiting-bw4.0-basegamma-lambda-exp(-6.0)/natparam-value-shift-300.0.npy (npy, 16128 bytes, 1 tensors)

array f8 [2000]
-5.648273627681525e-07 -7.235001076726813e-07 -9.244111318559461e-07 -1.1781336000049017e-06 -1.4977034834235035e-06 -1.8991452155179966e-06 -2.4020976554507443e-06 -3.0305567168484576e-06
-3.8137530670183166e-06 -4.787185473971884e-06 -5.993832650312311e-06 -7.485568782489267e-06 -9.324810298790186e-06 -1.1586423766250782e-05 -1.4359927049752727e-05 -1.7752017937263815e-05
-2.1889466241295846e-05 -2.6922406822466743e-05 -3.302807192768191e-05 -4.0415001561957464e-05 -4.9327770178167895e-05 -6.0052266624406554e-05 -7.292156188187721e-05 -8.832239550608479e-05
-0.00010670230670643432 -0.00012857742953442897 -0.00015454096359131107 -0.00018527232193726835 -0.00022154694645382 -0.0002642467677999186 -0.00031437127239713396 -0.0003730491227429941
-0.0004415502600346265 -0.0005212983999347021 -0.0006138838137803467 -0.0007210762691844332 -0.0008448379864789738 -0.000987336451580185 -0.0011509569124890549 -0.0013383143767359033
-0.0015522649216454802 -0.0017959161293800167 -0.002072636465336126 -0.002386063432588778 -0.002740110357534669 -0.0031389716933426302 -0.0035871267686729746 -0.004089341959446438
-0.004650671320885589 -0.00527645578478785 -0.0059723211016277115 -0.006744174786615907 -0.007598202410578134 -0.008540863657062856 -0.009578888642354899 -0.010719275060263444
-0.01196928676326819 -0.01333645441989705 -0.01482857888875352 -0.01645373791588307 -0.01822029668768272 -0.020136922650143916 -0.022212604831357632 -0.024456677673363698
-0.026878849088475598 -0.02948923210280431 -0.03229837903670804 -0.03531731670176576 -0.03855758057301896 -0.04203124533330893 -0.045750948596711485 -0.04972990401706559
-0.05398189939578168 -0.05852127484428128 -0.06336287555753867 -0.06852197334587161 -0.07401415078396417 -0.07985514170184912 -0.08606062179500212 -0.09264594340153852
-0.099625809012837 -0.10701387887505215 -0.11482230912247118 -0.1230612182722047 -0.1317380816071349 -0.1408570549743723 -0.15041823181223601 -0.16041683976038323
-0.17084238596249662 -0.1816777630831047 -0.19289833106074544 -0.20447099262757107 -0.21635328354826083 -0.2284925012671069 -0.24082489809268817 -0.25327496708202585
-0.2657548502970807 -0.27816389998580804 -0.29038842338472615 -0.3023016411588609 -0.31376388791261156 -0.32462308066660617 -0.33471547767008303 -0.3438667454029467
-0.35189334614398193 -0.35860425210241464 -0.36380298492350727 -0.367289971513521 -0.36886519874650237 -0.3683311409064383 -0.365495924901669 -0.36017668960415583
-0.3522030873699129 -0.34142086815295924 -0.3276954798983868 -0.3109156133474532 -0.2909966152491341 -0.2678836914624829 -0.24155482073232226 -0.21202330116447943
-0.17933985470404887 -0.14359422026329868 -0.10491617352824509 -0.06347592080549677 -0.01948382540293117 0.02681056224276812 0.07512018544005644 0.1251228728276959
0.17646442470435042 0.22876236221649426 0.2816102917735046 0.33458282191457833 0.38724095573160977 0.439137869261526 0.4898249753763595 0.5388581639528244
0.5858041027742342 0.6302464799212958 0.6717920674881397 0.7100764883818937 0.7447695727139385 0.7755801977740817 0.802260515621796 0.8246094846852751
0.8424756361167574 0.8557590216429796 0.8644123068594487 0.8684409919012116 0.8679027597184154 0.8629059703251503 0.8536073369194072 0.8402088362587281
0.8229539207257152 0.802123112783538 0.7780290737140565 0.7510112474255215 0.7214301865561081 0.6896616719988742 0.6560907383188117 0.6211057163774991
0.5850924009436924 0.5484284453239857 0.5114780773211131 0.47458722138311205 0.43807910093866254 0.40225038293764775 0.3673679138544383 0.33366608318920343
0.301344837134009 0.27056835185309813 0.241464363034276 0.21412413624547813 0.18860305138850603 0.16492176435721473 0.1430679000196145 0.12299822295643545
0.1046412260714541 0.08790007227830629 0.0726558209715313 0.0587708688873497 0.0460925342109407 0.03445671333121911 0.023691541405851918 0.013620990790261744
0.00406834530692457 -0.005140506819563906 -0.014174012871646602 -0.02319217353729064 -0.03234407699691205 -0.041765779992897045 -0.051578558937003416 -0.061887546165799556
-0.07278075843321513 -0.08432851676409403 -0.09658324901700571 -0.1095796590520452 -0.12333523940243851 -0.13785109793688377 -0.15311306329660562 -0.16909302901311163
-0.18575049226398938 -0.20303424029550177 -0.2208841357047187 -0.23923295108243492 -0.2580082039995048 -0.2771339449753374 -0.29653245387214855 -0.3161258040565766
-0.33583725857640845 -0.3555924684004277 -0.3753204493218476 -0.3949543212645642 -0.4144318012687275 -0.43369544916385483 -0.4526926726488929 -0.47137550596843214
-0.48970018338412447 -0.5076265349791493 -0.5251172378055639 -0.5421369598157358 -0.5586514372631353 -0.5746265282019846 -0.5900272852844953 -0.6048170902149419
-0.6189568899816381 -0.6324045714049961 -0.6451145057103985 -0.6570372888976704 -0.6681196968121336 -0.6783048662357116 -0.6875327052478868 -0.6957405278121105
-0.7028638992929186 -0.7088376716737645 -0.7135971798928813 -0.7170795641957719 -0.7192251779480914 -0.7199790361606278 -0.7192922572099347 -0.7171234490119596
-0.7134399912914706 -0.708219167606426 -0.701449104399253 -0.6931294794713212 -0.6832719687750717 -0.6719004081080622 -0.6590506549487207 -0.6447701450342536
-0.629117148059257 -0.6121597367608205 -0.5939744933362365 -0.5746449862953238 -0.5542600591745714 -0.5329119797480664 -0.5106945042030946 -0.4877009149873437
00000000: d3b8 8f81 d4f3 a2be 8326 ea8f d146 a8be
00000010: a0d5 9e93 a104 afbe 8598 9f97 0bc4 b3be
00000020: aab8 1d65 9620 b9be 74de 4e3f c4dc bfbe
00000030: d0f6 cf26 7726 c4be 7bca a52c 126c c9be
00000040: e10d dceb f8fd cfbe d3ee f285 3314 d4be
00000050: dcde 692c d423 d9be 47e6 ad7a 9165 dfbe
00000060: 35dd 352b 388e e3be c47c f8f4 694c e8be
00000070: f3aa 7c58 6d1d eebe ef55 3762 459d f2be
00000080: 97a3 87aa e8f3 f6be 0094 95b5 ed3a fcbe
00000090: 1923 05e9 f350 01bf 094e 3be1 6830 05bf
000000a0: 0bb5 1047 a9dc 09bf 2c37 6c2b 147c 0fbf
000000b0: cb9f d1e4 ae1d 13bf 136b 6833 3727 17bf
000000c0: e1aa bcab abf8 1bbf 5670 afb5 57da 20bf
000000d0: ca69 dfc4 8841 24bf f2d7 8c20 b548 28bf
000000e0: d7cf 72c7 e109 2dbf 2459 cc39 5351 31bf
000000f0: 8a7b 7055 469a 34bf d203 30c8 b972 38bf
00000100: a2d4 27ed fbef 3cbf 1576 22ca f714 41bf
00000110: 966f ad73 a11d 44bf c4a5 3d7f d3a0 47bf
00000120: 2c39 dcc2 03af 4bbf 5187 4271 302d 50bf
00000130: d174 1693 76db 52bf 91d1 b51e 4ced 55bf
00000140: 823b afc4 ab6e 59bf 07e2 b042 9e6c 5dbf
00000150: 8f44 b93a a2fa 60bf 60c2 170d f08b 63bf
00000160: 58f6 ef8b 6d72 66bf cfe0 8298 e6b6 69bf
00000170: aecc 0e05 c062 6dbf 83d1 a55f fcbf 70bf
00000180: fe72 a413 950c 73bf 761f 8dd0 c39c 75bf
00000190: 83d3 00bd 6e76 78bf e534 5aa2 c79f 7bbf
000001a0: 4a05 caed 4a1f 7fbf 3f85 b150 df7d 81bf
000001b0: 8086 9bab 189e 83bf 26b6 90be fcf3 85bf
000001c0: 9e30 a379 5a83 88bf fbd9 9f9c 2450 8bbf
000001d0: 2ea0 fc2a 725e 8ebf b391 fba8 3fd9 90bf
000001e0: f28a 9669 57a8 92bf 29d6 e500 c69e 94bf
000001f0: 9415 3dad e6be 96bf 4588 1adb 2b0b 99bf
00000200: a00f 2807 2186 9bbf e4df dcdd 6c32 9ebf
00000210: ac5a 5ac3 6989 a0bf c2e0 6e80 1c15 a2bf
00000220: 82e3 25b7 d1bd a3bf 00c2 3b90 1e85 a5bf
00000230: 92bb f717 ab6c a7bf 64e5 c5ae 3276 a9bf
00000240: 3f31 f6f8 83a3 abbf f21f 2723 80f6 adbf
00000250: 64d6 4ca6 8c38 b0bf 67f1 93f2 a78a b1bf
00000260: 4cef 0e65 97f2 b2bf 1ee2 06f6 6271 b4bf
00000270: cc3c 15a4 1108 b6bf cf44 0401 a5b7 b7bf
00000280: 8f34 8cb7 1381 b9bf 4488 fcf5 4265 bbbf
00000290: 523f 88ae fe64 bdbf c691 e2a3 f080 bfbf
000002a0: 66f9 1120 cbdc c0bf 844d 439e 9a07 c2bf
000002b0: 9887 2d95 e740 c3bf 74cf 3ffc 8988 c4bf
000002c0: 5261 3dce 29de c5bf 7d1a 6d89 3741 c7bf
000002d0: deef ad7b e4b0 c8bf 2475 2801 1b2c cabf
000002e0: 566a 9ce2 76b1 cbbf 3a67 2906 3e3f cdbf
000002f0: c170 afaa 59d3 cebf 59d1 2035 a835 d0bf
00000300: aae0 b1a1 2002 d1bf a47a 57f5 6fcd d1bf
00000310: fac2 6453 b995 d2bf dd7b 93fb e858 d3bf
00000320: ce07 5021 b514 d4bf 9859 bfe2 9fc6 d4bf
00000330: aeb6 8377 fa6b d5bf e001 6caa e901 d6bf
00000340: 0894 57ab 6b85 d6bf 5821 bf3f 5ff3 d6bf
00000350: d6c0 9b50 8c48 d7bf 7528 f3cb ad81 d7bf
00000360: d0eb 4fc7 7c9b d7bf 45a8 12c7 bc92 d7bf
00000370: 3d88 1105 4964 d7bf bc68 a887 220d d7bf
00000380: d874 73d1 7e8a d6bf 8ae3 b8e9 d6d9 d5bf
00000390: 6b7a 4d76 f6f8 d4bf 6e28 c999 0ae6 d3bf
000003a0: 7078 6f44 b09f d2bf bca3 7da3 0125 d1bf
000003b0: 8c44 9eb3 44eb cebf 20e6 3e5c 9423 cbbf
000003c0: 4b61 69bd 9bf4 c6bf 6776 f69f 4b61 c2bf
000003d0: ee11 204e c9db babf a66e f13b f53f b0bf
000003e0: 2852 a063 91f3 93bf 008b 1460 3a74 9b3f
000003f0: 0c08 bc93 133b b33f 0a65 63bb 0604 c03f
00000400: 2c9e 81e2 6296 c63f 3045 23c8 1548 cd3f
00000410: 1097 582c e705 d23f e04b 7b11 ce69 d53f
00000420: c27f 224a 8ec8 d83f c874 bab8 d51a dc3f
00000430: 9c59 80da 4a59 df3f 0385 eb79 533e e13f
00000440: 0ae5 e83e e8be e23f 75cb 75aa fa2a e43f
00000450: 725c f213 527f e53f be47 e853 f2b8 e63f
00000460: a297 bbff 26d5 e73f 34ad 1b90 8dd1 e83f
00000470: 7df7 ae3e 1eac e93f bb3a 166e 3363 ea3f
00000480: 6c8b 1977 8ff5 ea3f 6ed5 66be 6062 eb3f
00000490: 7814 87ff 43a9 eb3f 9116 57c3 44ca eb3f
000004a0: e128 2302 dcc5 eb3f b63a 42fb ec9c eb3f
000004b0: 6739 7655 c050 eb3f 9c53 31a4 fde2 ea3f
000004c0: b738 f475 a355 ea3f 28ac 1817 feaa e93f
000004d0: aa0c 5e3a 9de5 e83f 6cdd 53bd 4808 e83f
000004e0: 9861 33c2 f415 e73f 6646 d15a b511 e63f
000004f0: 9435 0901 b2fe e43f 7c66 6618 19e0 e33f
00000500: f41e e6b2 13b9 e23f c59a 9bcf b98c e13f
00000510: 6de2 d645 075e e03f 9a28 bc14 a35f de3f
00000520: caed e5ec 7c09 dc3f b752 e163 78be d93f
00000530: 13b1 e6b5 f482 d73f 3640 c5fc c85a d53f
00000540: e7c6 13db 3b49 d33f d8aa a2eb fd50 d13f
00000550: 1cdb 30e3 4de8 ce3f a5b2 3a71 6b68 cb3f
00000560: 32d9 d110 2524 c83f a80b 2808 281c c53f
00000570: ba87 d887 0c50 c23f be62 10c1 cf7c bf3f
00000580: 084d ca73 c4c9 ba3f 3e59 c07f 9e80 b63f
00000590: 5dcf ef66 9299 b23f 8c47 a81f 3717 ae3f
000005a0: 4c2f 0dce 7099 a73f 4c3d c571 4fa4 a13f
000005b0: d8ae 1e6e 9842 983f e0c7 dd6f 52e5 8b3f
000005c0: 0058 ac20 f8a9 703f 805b cc4a 360e 75bf
000005d0: 20fa e4cd 4307 8dbf 8099 766b b0bf 97bf
000005e0: f892 d721 678f a0bf 28a6 5206 5362 a5bf
000005f0: 7854 9e3f 8168 aabf 28a4 9f75 b9af afbf
00000600: 1cad 3f81 c2a1 b2bf 8839 9fbd 8d96 b5bf
00000610: 2c95 de07 aeb9 b8bf 0c74 ef9b 690d bcbf
00000620: 9084 adf3 e592 bfbf 5ca5 add2 1aa5 c1bf
00000630: a282 b977 3599 c3bf f0e3 cb22 d7a4 c5bf
00000640: a6af be10 acc6 c7bf 0cc9 04a7 06fd c9bf
00000650: 8a4b 876d ee45 ccbf f026 8372 2f9f cebf
00000660: b3c3 91d7 3483 d0bf 54f4 9103 90bc d1bf
00000670: 2c58 e541 63fa d2bf 930f 76b9 673b d4bf
00000680: 484b 978e 5b7e d5bf c4f5 9ee9 06c2 d6bf
00000690: 00df d60f 4005 d8bf 0ab1 4f7d ee46 d9bf
000006a0: 92c7 37f6 0c86 dabf 624c a58e aac1 dbbf
000006b0: f09c 0ab0 eaf8 dcbf 8845 912b 042b debf
000006c0: 9ab8 1e70 3f57 dfbf e226 ca00 7a3e e0bf
000006d0: a31a 5eaa c2cd e0bf 0391 0b9c 2f59 e1bf
000006e0: f012 9dfa 78e0 e1bf 5754 412c 5763 e2bf
000006f0: 1d6d c1e6 80e1 e2bf 301f d15e a95a e3bf
00000700: 355c 03ae 7ece e3bf b5cf 0083 a83c e4bf
00000710: 9971 062d c7a4 e4bf 0b2d 8210 7306 e5bf
00000720: bbe3 f38e 3c61 e5bf b266 2668 acb4 e5bf
00000730: e80a 7f96 4400 e6bf aa8d aea3 8143 e6bf
00000740: 6411 a06e dc7d e6bf 105f 4057 ccae e6bf
00000750: 520c c5c0 c9d5 e6bf 8839 9bd7 50f2 e6bf
00000760: 0ee6 3785 e403 e7bf 28b2 c379 110a e7bf
00000770: 3272 1f32 7104 e7bf 546f 16e0 acf2 e6bf
00000780: 2a2c c81a 80d4 e6bf 5ea3 683e bba9 e6bf
00000790: 4881 6664 4572 e6bf 6821 c7df 1d2e e6bf
000007a0: ec32 052d 5ddd e5bf 22c8 df48 3580 e5bf
000007b0: 3830 2d66 f116 e5bf 5a7f cbff f4a1 e4bf
000007c0: b68d 0849 ba21 e4bf 281a 2a04 d096 e3bf
000007d0: 9c31 f1cb d601 e3bf 705c dee1 7d63 e2bf
000007e0: 2a48 7497 7fbc e1bf 1244 956c 9d0d e1bf
000007f0: 4293 3900 9c57 e0bf 0c65 06e6 7d36 dfbf
